last_brain3.pth (torch, 11261 bytes, 12 tensors)

fc1.weight f4 [50, 6]
00000000: 2e70 b63c edc6 8ebe b53e c9be 7351 2fbf
00000010: c467 cebf 9a87 32c1 ff2e 11bf 3dc4 893e
00000020: 9875 463e 27bf 06bf eb6f 85bf 918d fa3f
00000030: c36f 663d fbb7 fb3b 67aa 083f 8429 5abe
00000040: a564 21bf 8ae8 2741 3cc2 14bc 87ff 55bc
00000050: 7e9c d23c a4db 8eb9 91ba 70bb fb01 07c2
00000060: 4f22 10bf d4f9 643e 482a 1b3c c99d 28be
00000070: 08eb a0bf d246 2ac0 0d34 c13e 71f6 6f3e
00000080: cec1 713e c98e a03e b6b1 6e3e 1c77 6b41
00000090: 55eb 1abc 446e fa3b f95d 98bc 3fff e43c
000000a0: 4fbc 0a3e 91b6 adc1 5fdf f43a 3574 0e3d
000000b0: 4f50 d4be 6577 413e 3f10 a63e 3446 0cc0
000000c0: 9854 193d 8ef9 3e3d c9d9 543e e17b 6cbd
000000d0: 1b0a 1abf c3af 3dc1 3268 46be ed0d a9bb
000000e0: 8583 543d 1c1d 8bbe c191 b4be 7c27 86c1
000000f0: a4ed eabe 3ed6 b23d 4d0b c9bc f38e 07bf
00000100: 89e2 6fbe c7e9 32c1 97b5 b73d 1112 af3e
00000110: 4de9 f43e 3cc4 813e 23cd 983d 3b79 1241
00000120: 35fb b93e badc 643e 9f0b 493e f963 983e
00000130: 02fb 343e 7749 7341 b925 bbbc 194f c83c
00000140: 5aee efbe ea32 533e 947a ed3e db2a df3f
00000150: 652b aabc 5701 8cbb 440f 0ebd ac06 41bb
00000160: a211 2dbd ab09 9340 ea17 f93d 2643 873d
00000170: 1ad5 a73d 2b4a 283e 23ee bd3e 7b0a 4441
00000180: 6218 a43e 95cd 993d 62da b8be 4b9e 35be
00000190: f5d2 253f 1398 a2c0 99db 4d3d 3ce0 c838
000001a0: 3c5b bc3c 8505 a03d c5b9 1e3e 9bfb fa40
000001b0: 4ce2 fe3e 5f63 573e c2ab 8e3e ea8c d13d
000001c0: 77ef f1bd f0a5 1c41 6285 27be 0cc6 22bd
000001d0: 0144 d53d b41d 46be c3b0 14bb 5e26 7bc0
000001e0: 39b2 edbe 83b7 3a3f 9457 86bf a7bb ccbf
000001f0: 8ff2 5bbf 3813 5bc1 8d88 b03c 5398 3a3d
00000200: 9f4e 57bd 9848 ad37 3077 2ebe dc5a 0c41
00000210: 2751 5c3e 0bc1 4f3f 9d59 d7bd 9294 7fbe
00000220: d500 e63e 57b0 0840 338d 7dbf 6b80 853e
00000230: c959 413e dcf6 0abf 0230 02c0 ff2d 25c1
00000240: 1b07 05bf ccc5 dbbd 93b6 503f fa52 94bd
00000250: fb6e acbe 8b34 8040 f575 393f d5d1 b43e
00000260: 4b36 a83e b0c9 213d 7b15 cebe e07f 3fc1
00000270: 5cdb 6dbe 93f0 72be 05fd 78be 5e2f 80be
00000280: fc2a 3bbf 886e abc0 06f7 9e3e cd61 b03d
00000290: 43dc a3be 874b 54be f525 3b3f aaf1 f33e
000002a0: 5bbd 42bf 64cc 61bd 75e4 64be 9831 2ebc
000002b0: 01fc a63e d18a 39bc 0cd1 91bf 3c8c dcbf
000002c0: 9f31 3bbf 28e2 86bf 3c57 2fbe a38c 90c0
000002d0: 4416 0d3e 88eb da3d 8c59 073b ee6f e63d
000002e0: 73a7 a53d 0cb7 5c41 dca5 3dc0 fe67 68c0
000002f0: 865c 69c0 bce2 06bd 8c77 c6be c700 b33f
00000300: 87b5 09bf 10c6 863c fd8e df3d e150 4ebe
00000310: ccee f83d 33bf c540 df68 873e 66ae 1c3e
00000320: 9643 f23e 8958 4bbe 40aa 943e 1f2f 2841
00000330: 4f5c a4bf 95ac c6bf 1719 cdbf 558e a9bf
00000340: 4d79 c2bf 81f2 5141 aece 763e e795 a8bc
00000350: 1cb6 1fbe c5f1 f1bb eeb5 423c 6ce8 1141
00000360: 620d a13d a74f d2be cccf 64bf 4e83 17bf
00000370: 2504 1dbe ead4 adc1 d275 8fbf ec8f 97bc
00000380: cad1 09bf 9cad d6be 82d8 ba3e 4d42 38c1
00000390: b2f9 8fbd d3a9 efbd def0 0fbd 82d7 663c
000003a0: d694 783d f2bf 7fc1 403d 52bf 0c56 52be
000003b0: 01e8 853d 298f 43bf d731 98bf 159c e740
000003c0: d2fb 9b3e 9e0f 7f3e 5ad9 583e 81b0 653e
000003d0: 7901 7f3e 6113 4c41 3a1b c5be eca5 f5be
000003e0: 12b5 bcbe 3ac5 95be e9c2 a9be 484f 59c1
000003f0: 39d3 053d 337d fb3c 8ed2 9bbd 3011 8dbd
0.022270288 -0.27886143 -0.39305654 -0.68483657 -1.6125417 -11.158106 -0.56712335 0.2690753
0.19380796 -0.52635425 -1.042478 1.9574453 0.056258928 0.0076818443 0.53385013 -0.213049
-0.63044196 10.494272 -0.009079512 -0.013061411 0.025709387 -0.00027247996 -0.0036732296 -33.751934
-0.5630235 0.22360927 0.00947053 -0.1646644 -1.2571726 -2.6605725 0.37735024 0.23433854
0.23609087 0.31358936 0.23309979 14.716579 -0.009455522 0.007642539 -0.018599497 0.027953742
0.13548397 -21.714144 0.0018682292 0.034778792 -0.4146752 0.18893202 0.3243427 -2.1917849
0.03743419 0.046624713 0.20786203 -0.057735328 -0.6017167 -11.855411 -0.19375685 -0.005159131
0.05188324 -0.27170646 -0.3526745 -16.76928 -0.4588443 0.0873227 -0.024541521 -0.529525
-0.2342626 -11.182075 0.089701824 0.3419347 0.47834244 0.25345027 0.07461002 9.154597
0.36324468 0.22349826 0.1963334 0.29763773 0.17673877 15.205436 -0.022845136 0.02445178
-0.46861535 0.20624891 0.46382582 1.7434953 -0.020772645 -0.0042726207 -0.034682527 -0.002945344
-0.042253144 4.59493 0.12162764 0.066046044 0.08194943 0.16434543 0.37095746 12.252559
0.32049853 0.07509915 -0.36104113 -0.17736165 0.6477502 -5.0810637 0.050258253 9.57851e-05
0.022992723 0.07813553 0.15500553 7.8432136 0.49782026 0.21034001 0.27865416 0.10231955
-0.118132524 9.790512 -0.16359475 -0.039739653 0.10413361 -0.19347268 -0.0022688366 -3.9242167
-0.46425036 0.72936267 -1.0495477 -1.5994767 -0.8591699 -13.692192 0.021549487 0.045555424
-0.052565213 2.0657011e-05 -0.17037654 8.772182 0.21515332 0.81153935 -0.10515139 -0.24959019
0.4492251 2.135763 -0.9904358 0.26074538 0.18881907 -0.5428293 -2.0341802 -10.3237295
-0.5196397 -0.10731086 0.81528586 -0.07242389 -0.3367842 4.006414 0.72445613 0.3531634
0.32853922 0.039498985 -0.40250763 -11.9687195 -0.2322821 -0.23724584 -0.2431527 -0.25036138
-0.73112464 -5.3572426 0.3104784 0.08612404 -0.32003984 -0.20731936 0.7310479 0.47645313
-0.76070184 -0.055126563 -0.22352774 -0.010631941 0.3261414 -0.0113246 -1.1391921 -1.7230296
-0.7312259 -1.0537767 -0.17123121 -4.5171676 0.13778025 0.10689455 0.002065274 0.11251818
0.08088579 13.794689 -2.9632483 -3.6313472 -3.6462722 -0.032931075 -0.38763082 1.3984612
-0.53792614 0.016451865 0.10915945 -0.2014804 0.12154922 6.1795897 0.26447198 0.15300903
0.4731719 -0.19857992 0.2903614 10.511504 -1.284067 -1.5521418 -1.6023282 -1.3246561
-1.5193268 13.121705 0.2410228 -0.020579292 -0.15596813 -0.0073835575 0.011884196 9.119244
0.07863881 -0.41076395 -0.8937957 -0.5918473 -0.15333612 -21.728962 -1.1207831 -0.018501244
-0.5383574 -0.41929328 0.36493307 -11.516187 -0.070300475 -0.11702313 -0.03514182 0.014089467
0.060688816 -15.984362 -0.8212471 -0.20540637 0.06538392 -0.7639032 -1.189021 7.237803
0.3046556 0.24908301 0.21176663 0.22430612 0.24902906 12.754731 -0.38497335 -0.4797815
-0.36856896 -0.29252034 -0.33156517 -13.581856 0.03267214 0.030699348 -0.076085195 -0.06888044

fc1.bias f4 [50]
00000000: 172a d740 9377 f4c0 4340 b2c0 03ad 1d41
00000010: 5045 b340 286b 4d3f fd9b 9540 1d39 df40
00000020: 5175 6ebe fd1e c840 a549 ad40 2ac8 9fc0
00000030: 7d66 db3e 6743 fe3f 043f 2ec1 580f 8340
00000040: 894c dd3f bd3f 11c0 ed65 8dbf 668a 0241
00000050: cb1a ed3f 7f9a bc40 3c14 8e40 8c4f 5cc0
00000060: 11ed 7440 8c6b dcbf 96f5 0641 c2b4 cec0
00000070: 86a4 a6c0 28a9 8c40 d201 003f e6ae 1740
00000080: 6dad 2d3e 193a 0e40 f60a 02bc a0cb 3440
00000090: b370 08c0 58cf 8f40 8c4c f8c0 eada adbd
000000a0: 1e0c fcc0 663c af40 1625 1240 f8b3 bb40
000000b0: d649 de3f 869a 0d3f 424b fcbe 8cb1 d1bf
000000c0: 8b7b b4c0 8744 03c1
6.723888 -7.6395965 -5.5703444 9.854739 5.602211 0.8024163 4.6752915 6.975722
-0.2328694 6.2537827 5.41524 -4.993184 0.4285163 1.986432 -10.890385 4.095623
1.7288982 -2.2695153 -1.104673 8.158789 1.8523802 5.8938594 4.43997 -3.4423552
3.8269694 -1.7220321 8.4349575 -6.459565 -5.2075834 4.395649 0.5000278 2.37005
0.16960688 2.222296 -0.007937184 2.8249283 -2.1318786 4.4940605 -7.759344 -0.0848902
-7.876479 5.476123 2.2835135 5.865719 1.7366283 0.5531391 -0.49276167 -1.6382308
-5.640081 -8.20423

fc2.weight f4 [4, 50]
00000000: c799 e540 9cf2 ae3e 11f6 33bf 65bd 04c1
00000010: d4e7 2940 a33e 1140 5e50 2dc0 2b06 4cbf
00000020: 2514 8cbf 8a98 23c1 f39c 0b41 ac4e d53f
00000030: 2483 3540 2015 e93f effa 0ac0 aa70 173f
00000040: 6f3f 3bbf 92a3 82bf f8fa af3f 202a e3bf
00000050: c06c ab40 c7a2 7b3f 2bdf 4c3e 2b58 23c0
00000060: 5219 273f 3d5b 3fbf 949b c440 335b a33f
00000070: 135f ef3f 5060 a73f 0bb2 f83e beaf dbbf
00000080: 49fb aebf 5da8 8a3f 3767 86c0 43b3 5f3f
00000090: 0795 5dc1 6110 afbf 2a6d cdc0 76d4 aec0
000000a0: b09d 10c1 69fa 1141 ad64 d9bf 1b77 31bf
000000b0: a84a a73e 523f 1f3f 9048 89c0 ec81 1041
000000c0: 8f6f 6e3f 86fc aabf 2ff4 aa3b 0ece 433e
000000d0: 6a4e 3bbf 3431 16c0 72f6 89be c728 e83f
000000e0: ad98 04c0 ed40 d3bf 672d febf ddb8 0dc0
000000f0: 914a 4ebd 9887 4bbf bfb0 f33e bc50 4a3e
00000100: 3b5f 85bf d225 473d 01ea 01c0 fc82 32bf
00000110: 8c01 31bf b7ef ebbf 0728 77bd 3328 4bbf
00000120: 7116 91bf 2610 1cbf d3f2 2c3d ae01 09c0
00000130: aebd 2fbe b2fa 75bf 5293 43bc bf7a 77bc
00000140: cc5c 7bbf f08d 87bf 7dce 0abf 1a0d 8b3e
00000150: 7b56 30bf 1204 39bf 3131 02c0 0505 e7be
00000160: b738 d0bf 7a56 50bf 09cf 85c0 bb0a 5e3f
00000170: dbe7 0fc0 7809 8ebf 90df 50bf f0a9 933e
00000180: 125a b5bf 0dc3 02c0 b160 823e 7c8e 4ebe
00000190: c8ca a9bf 01b5 da3e 177c 8abe cf37 a3c0
000001a0: 220f 0040 abb5 ac3f 2d43 d3bf c2a5 babe
000001b0: 5522 053c ed37 a43e 313d 653f 73b3 2c3f
000001c0: eea5 1340 8e8f 183f 84a3 8fbf 01a5 363f
000001d0: 10db a9be fe62 86bf 67b6 483f 2b60 1dbe
000001e0: 3721 2840 be10 313e c655 393e 7421 c5bf
000001f0: c82c 773e ca91 33bf de64 09c0 eac8 0e3f
00000200: 6bd7 4e3f 5d9a 51bf 8514 3d3f 798d 5abf
00000210: 8aec 333e 65bb 4c3f 47f8 43be bf9c 0f3f
00000220: 3373 f0be a551 e8be 6db4 0cc0 e354 e0be
00000230: 0093 b9c0 e2bd 083e 3e68 70bf 3f91 82be
00000240: 4381 8d3e 48d8 b33e 480d 3bc0 842d e2bf
00000250: 2a68 193f 533c 71be c15c 5d3f ea52 653f
00000260: 7fd9 fbbe 2d27 93c0 37a4 3fbf 20cb 1c40
00000270: c858 3bc0 294e 11bf 0582 c63d ecd5 e6c0
00000280: b60e bb3f 1665 e83e 7846 da3f fdb1 733f
00000290: cd57 afbf e1b6 423f dc8c 82be bfd4 b8bf
000002a0: a2df 0e3f 35b2 30be 854b 3840 e206 4e3e
000002b0: a56f 623e a1ae f13d 8358 7f3e 3a67 27bf
000002c0: 1958 2a3f 960d 033f 5977 423f 217e b53f
000002d0: b090 2e3e 8d68 883f b1e7 08bf d349 543f
000002e0: 90d7 b13e 934c 233e ec4e bdc0 c66d d9be
000002f0: 8297 38c0 cc27 b93e b707 b7c0 4a66 f8bf
00000300: 627d 87bf 2c19 58be 3aad 5a3e 724c fd3e
00000310: d6c2 01c0 8b44 e840 27c2 1e3f 7b67 96be
7.1750216 0.3416947 -0.7029734 -8.296239 2.6547747 2.269448 -2.7080302 -0.7969691
-1.0943648 -10.224741 8.725818 1.6664634 2.8361292 1.8209572 -2.1715658 0.59156287
-0.73143667 -1.0206168 1.3748465 -1.774723 5.357025 0.98295254 0.20007007 -2.5522563
0.6527301 -0.74748594 6.1439915 1.2762207 1.8700889 1.3076267 0.48573336 -1.7163007
-1.3670436 1.083263 -4.2000995 0.87382907 -13.848884 -1.3676873 -6.4195757 -5.463435
-9.038498 9.123635 -1.6983849 -0.69322366 0.32674146 0.62205994 -4.2901077 9.031719
0.93138975 -1.3358314 0.0052170972 0.19121572 -0.73166525 -2.3467531 -0.26945835 1.8137444
-2.0718186 -1.6504189 -1.9857606 -2.2144082 -0.05036408 -0.79503775 0.47595784 0.1975736
-1.0419687 0.048620053 -2.0299075 -0.69731116 -0.69142985 -1.843253 -0.060340907 -0.79358214
-1.1334974 -0.6096214 0.042223763 -2.1407275 -0.17162201 -0.96085656 -0.011936979 -0.015104949
-0.9818847 -1.0590191 -0.54221326 0.27158433 -0.6888196 -0.72271836 -2.0342524 -0.45121017
-1.6267308 -0.8138195 -4.181523 0.86735123 -2.2485263 -1.109664 -0.8159113 0.2884059
-1.4168112 -2.043155 0.25464395 -0.20171541 -1.3265009 0.4271622 -0.27047798 -5.1005626
2.0009236 1.3492941 -1.6504875 -0.36454588 0.008125861 0.32073918 0.89546496 0.6746132
2.3070025 0.5959405 -1.1221776 0.71345526 -0.33174944 -1.049896 0.78403324 -0.15368716
2.6270273 0.17291543 0.18099126 -1.5400834 0.24138176 -0.7014433 -2.1467814 0.5577532
0.8079745 -0.81876165 0.73859435 -0.8537212 0.17570701 0.7997344 -0.19137679 0.5609855
-0.4696289 -0.4537479 -2.1985123 -0.43814763 -5.7991943 0.13353685 -0.9390906 -0.2550144
0.2763768 0.35125947 -2.9226856 -1.767014 0.59924567 -0.23558168 0.86469656 0.8957964
-0.49189374 -4.598532 -0.74859947 2.4498978 -2.9272938 -0.5675989 0.09692768 -7.2136135
1.4613864 0.45389622 1.7052755 0.95193464 -1.369867 0.760603 -0.25498092 -1.4439925
0.55809987 -0.1725548 2.8796093 0.20119813 0.22112902 0.11800886 0.24936108 -0.65391886
0.66540676 0.51192605 0.7596336 1.4179116 0.17047381 1.0656906 -0.53478533 0.82925147
0.34734774 0.1594718 -5.915884 -0.42466563 -2.8842473 0.36163175 -5.7196918 -1.9406216
-1.0585139 -0.21103352 0.21355143 0.49472386 -2.0275168 7.258367 0.62015 -0.29375824

fc2.bias f4 [4]
00000000: 8291 e23d 3383 a9bf 83b8 1ebf 48f6 613e
0.1106291 -1.3243164 -0.6200029 0.22066605

exp_avg f4 [50, 6]
00000000: 0b7c 35b9 257c 35b9 387c 35b9 417c 35b9
00000010: 4c7c 35b9 7125 9238 0400 0000 0400 0000
00000020: 0400 0000 0400 0000 0400 0000 0400 0080
00000030: c9b6 613e b9ce 603e 7f56 9c3e 1823 853e
00000040: 059c 3f3e b604 adba 33c4 50c0 3ed8 a2c0
00000050: 0c41 92bf 7c72 82c0 6ee2 fcc0 276c e73a
00000060: 6e58 86b8 6e58 86b8 6e58 86b8 6e58 86b8
00000070: 6e58 86b8 495e d837 bdeb 2840 0a2d 2840
00000080: 2043 d43f 849f 3640 22be 7240 c466 93bb
00000090: 6419 29c0 e8df 46c0 288b babf a995 60c0
000000a0: e6b9 97c0 f2d4 213b 8677 56bf df86 43bf
000000b0: 28ce 5bbf a077 7ebf 2532 8fbf 9c38 a0b8
000000c0: 9acc 873c 4020 23bd dda5 c8be f00b 97bd
000000d0: 30e7 70bd 8a25 48bb 90b8 353b c4c5 633b
000000e0: e3eb 5f3b 7cb8 803b c0d6 923b 3d06 e6b9
000000f0: 0741 c6b9 b903 b0b9 4260 a1b9 161c 91b9
00000100: 5e9b 72b9 76f8 d338 2c25 463f 46b8 2d3f
00000110: 6c30 c03e 4ccf c03e d6d7 383f be97 b83b
00000120: 8b77 1240 023d 2d40 cca6 813f dc7c f23f
00000130: f8a0 4940 4e53 403b ff46 b13f b0fd 9a3f
00000140: d932 a13f f2ca ba3f 124b de3f 97b0 dd3a
00000150: 0400 0000 0400 0000 0400 0000 0400 0000
00000160: 0400 0000 0400 0000 6c7c 5a3f 7274 853f
00000170: 2a3e df3e 5c6d 6c3f 3011 ad3f 62c2 0cbb
00000180: 4cf8 e4be 6e52 e2be ed9f b9be 5936 01bf
00000190: d5b7 0abf 4ebd feb9 48b3 c5bf c69e e1bf
000001a0: d090 60bf 8202 dfbf 2bba 1ac0 a0e7 933b
000001b0: b4f9 553f 476a 603f 7212 c93e b2ee 103f
000001c0: dba9 833f b6b1 5b3b 28d5 3bbe c494 55be
000001d0: 2773 25bf 316b 3ebe 6896 16be 89eb b1bb
000001e0: e294 6435 e294 6435 e294 6435 e294 6435
000001f0: e294 6435 02ca b328 1c28 bc3e 8a89 983e
00000200: b1e9 0c3f 9564 893e a5dd 543e d90c 953b
00000210: 7108 803e 91fb 903e ec44 0d3e cc7c 873e
00000220: fa2a c13e e601 14ba 0400 0000 0400 0000
00000230: 0400 0000 0400 0000 0400 0000 0400 0000
00000240: a323 803d 54cb e73d 0a4a 93bd f388 01be
00000250: 9f60 5bbd 818f 0c3b 4047 41bf 5875 5abf
00000260: ac03 89be 301a 45bf d572 90bf 86e7 aeb9
00000270: f469 1bb9 1d6a 1bb9 3b6a 1bb9 4d6a 1bb9
00000280: 5d6a 1bb9 354e 7a38 8c39 5b3f 25a8 523f
00000290: 9bd6 2f3f 2e2f 7f3f 0e4b 843f c8e1 f938
000002a0: 08ac 1a3d f609 f83d 30dd 2a3e 2e49 3f3d
000002b0: d4ea 0c3d c4ed bdba 8168 04b8 8168 04b8
000002c0: 8168 04b8 8168 04b8 8168 04b8 7d3e 5537
000002d0: d300 b53e 028c 1f3f c009 843c f82a 483e
000002e0: 08b0 0c3f 90df 933a 1f7c 2d38 1f7c 2d38
000002f0: 1f7c 2d38 1f7c 2d38 1f7c 2d38 40b5 8bb7
00000300: c1a8 9ebd bcbb 56be ca1d b4be 4ced 08be
00000310: d19b 17be a3de 20bb 50fd 803f f325 8e3f
00000320: 43f1 063f 4da6 713f 7ade b43f 40e8 6236
00000330: 025d d438 025d d438 025d d438 025d d438
00000340: 025d d438 8e03 2bb8 e116 db3e 8cac f33e
00000350: d840 d73e 9493 fe3e 1c30 1f3f 0520 1f3b
00000360: a1d6 c83a 7181 e63a 4a88 fa3a 75c9 043b
00000370: 2d5a 123b 39aa 5cb9 3878 cb3c 3837 cf3c
00000380: 64e5 f83c baa8 343d 24f3 603e 826e 9eb8
00000390: f5e5 7d3e ac8d 9b3e ecac af3e 3dc1 803f
000003a0: ae7e f03f 01a2 37b9 7721 0a39 7721 0a39
000003b0: 7721 0a39 7721 0a39 7721 0a39 4378 5eb8
000003c0: baf2 e7c0 7d83 f6c0 6798 70c0 bf24 c9c0
000003d0: f9ee 19c1 2a9e 05bc 69df 82b9 2b52 80b9
000003e0: c14c 7db9 3f57 79b9 85b8 73b9 ea67 c038
000003f0: 9f12 b8bf abef c2bf 6629 a8bf a8b9 fcbf
-0.00017307715 -0.00017307753 -0.0001730778 -0.00017307793 -0.0001730781 6.9687965e-05 6e-45 6e-45
6e-45 6e-45 6e-45 -6e-45 0.22042383 0.21953858 0.3053474 0.26003337
0.1871186 -0.0013200257 -3.261975 -5.0888968 -1.1426101 -4.076475 -7.9026403 0.0017656133
-6.406089e-05 -6.406089e-05 -6.406089e-05 -6.406089e-05 -6.406089e-05 2.5793111e-05 2.6393883 2.627749
1.6582985 2.853486 3.7928548 -0.0044983346 -2.6421747 -3.1074162 -1.4573717 -3.5091345
-4.7414427 0.0024693576 -0.8377613 -0.7637767 -0.85861444 -0.99401283 -1.1187178 -7.639939e-05
0.016577054 -0.039825678 -0.39189044 -0.07375324 -0.058814228 -0.0030539953 0.0027728416 0.0034755329
0.00341677 0.0039282423 0.0044811666 -0.00043873666 -0.00037813952 -0.0003357211 -0.0003078003 -0.0002767748
-0.00023136797 0.000101075435 0.7740047 0.67859304 0.37536943 0.37658155 0.7220434 0.0056333235
2.2885463 2.7068486 1.0129027 1.8944354 3.1504498 0.0029346528 1.3849791 1.2108669
1.2593642 1.4593184 1.736666 0.001691359 6e-45 6e-45 6e-45 6e-45
6e-45 6e-45 0.853461 1.0426161 0.43602115 0.9235437 1.352087 -0.0021478166
-0.44720685 -0.44203514 -0.36254826 -0.5047355 -0.54186755 -0.00048587698 -1.5445337 -1.7626579
-0.87720966 -1.742264 -2.4176128 0.004513696 0.8358414 0.87662166 0.39271885 0.5661422
1.0286211 0.0033522672 -0.18343031 -0.20857531 -0.64628834 -0.18595578 -0.14705813 -0.0054296893
8.515327e-07 8.515327e-07 8.515327e-07 8.515327e-07 8.515327e-07 1.9960599e-14 0.3674935 0.29792434
0.55044085 0.2683455 0.20787676 0.0045486507 0.2500644 0.2831693 0.13795823 0.264624
0.377281 -0.0005646035 6e-45 6e-45 6e-45 6e-45 6e-45 6e-45
0.06256797 0.11318079 -0.07191856 -0.12649898 -0.053558942 0.002144784 -0.75499344 -0.853353
-0.26760614 -0.76993084 -1.1285044 -0.00033360365 -0.00014821423 -0.00014821482 -0.00014821526 -0.00014821552
-0.00014821575 5.967748e-05 0.85634685 0.8228782 0.68686837 0.99681365 1.0335405 0.000119153
0.037761718 0.12111275 0.16685939 0.04670065 0.034403637 -0.0014490415 -3.156858e-05 -3.156858e-05
-3.156858e-05 -3.156858e-05 -3.156858e-05 1.27103385e-05 0.3535219 0.6232301 0.01611793 0.19547641
0.549561 0.0011281837 4.136201e-05 4.136201e-05 4.136201e-05 4.136201e-05 4.136201e-05 -1.6654492e-05
-0.07747031 -0.20970052 -0.35178977 -0.13371772 -0.14805533 -0.0024546764 1.0077305 1.1105331
0.52711886 0.9439438 1.4130394 3.3811812e-06 0.00010126272 0.00010126272 0.00010126272 0.00010126272
0.00010126272 -4.0772888e-05 0.42790893 0.4759258 0.4204166 0.49721968 0.62182784 0.002428056
0.0015322753 0.0017586184 0.0019114104 0.002026168 0.002233158 -0.00021044248 0.024837598 0.025294885
0.03038282 0.044106223 0.21967751 -7.554611e-05 0.24794753 0.30381525 0.34311616 1.0058972
1.878866 -0.00017512591 0.00013173172 0.00013173172 0.00013173172 0.00013173172 0.00013173172 -5.3040927e-05
-7.2483797 -7.703551 -3.759302 -6.2857356 -9.620843 -0.008155385 -0.00024961986 -0.00024475282
-0.00024156553 -0.00023778992 -0.00023243025 9.174629e-05 -1.4380683 -1.5229391 -1.3137634 -1.9744158

exp_avg_sq f4 [50, 6]
00000000: dc81 ad39 785b 8439 9879 5b39 ba8a 3b39
00000010: 540b 1c39 0148 2437 e61c c339 0951 563b
00000020: 630f 563b 46ac 0239 f312 d338 d022 1a33
00000030: 5c41 4f40 ad9e 4340 2292 6740 9a6f e13f
00000040: 9027 243f aa28 0139 656a 3a45 8f98 3345
00000050: 30f9 3045 cbb4 3645 9e46 2a45 43e5 333a
00000060: a3dd 8037 9d6a 8137 185e 8137 c3d5 8037
00000070: cdd3 8037 1e70 8735 df15 d543 6045 d043
00000080: 5311 cb43 7883 ee43 2fe5 d543 23cc 8d3b
00000090: 2136 1344 ff00 1044 3656 0b44 f724 2344
000000a0: 5dfd 1244 c941 b339 6320 a141 9150 9541
000000b0: 3b38 7141 91e5 bd41 5b76 c241 7a85 b539
000000c0: a171 e93e d9f5 e83e 1a56 433f dd97 273e
000000d0: 9c6d 8e3d c282 ca37 d25e b73d 0170 b53d
000000e0: ccba b73d e40a c23d fab5 183f 2c75 123a
000000f0: b46e a53a cdf3 3b3a c828 ed39 89d3 fa39
00000100: 176e f83b 7939 a437 112a 6042 d8d4 5d42
00000110: ad6e 5a42 e9af 6742 d1de 5542 775d 993a
00000120: 94a6 0c44 b502 0544 61ad 0444 bab0 0644
00000130: 0059 f843 4f55 8c3b cbb0 5042 3ed2 5142
00000140: 84c9 2d42 b18d 8e42 3d1d 9442 0967 bb3a
00000150: f401 0000 f401 0000 f401 0000 f401 0000
00000160: f401 0000 f401 0000 8fa9 8342 580b 7942
00000170: 3f60 7742 9c73 8342 1658 6f42 e2b8 bd39
00000180: d56b 4c41 85d7 3a41 ab28 1d41 e7eb 3341
00000190: 91b8 3e41 005c 6e39 b411 3543 2859 2d43
000001a0: 4ded 2a43 de56 3e43 32da 2b43 2847 9d3a
000001b0: 9ef5 8842 5bf1 8342 b9ec 8242 824c 8742
000001c0: 0c9f 7042 6486 623a efaa 163e 1df8 d83e
000001d0: 9ca5 1240 23a3 8a3e 34ed 2c3f 4cae 5338
000001e0: 51c3 013b 833d 8d3c d136 213a b8bd 1c3a
000001f0: 0e52 083a b7e6 f335 58db 4540 eff6 1040
00000200: cce8 b83f 4b5b cd3f 56d5 643f dd1c a739
00000210: 7861 9c40 f09c 9540 39e1 9340 97a4 a140
00000220: 066d 9240 67fb 1c38 55de 5e26 dc0f b828
00000230: e706 3f29 d520 0126 6fe7 c025 38ad f408
00000240: d8db 113f 62db d83f 573f 4440 adf3 0c40
00000250: 5e0a 873f 85eb 6038 fabc 6442 1339 5742
00000260: b49f 5442 c32b 5342 78d2 1a42 fab4 9939
00000270: f13e 293a e7e0 e739 d13d ad39 2dac 8439
00000280: 48da 3939 8582 4637 8c3a 2342 119a 1742
00000290: 96e2 0042 16b1 1442 7c9e 1c42 9bc9 383a
000002a0: f448 c93e 2f0a 073f 0671 3e3f b0d8 8640
000002b0: 3d3f 7141 0dd2 8939 5cca 8436 39ca 8436
000002c0: 61c9 8436 abc8 8436 a7b3 8a36 e7eb a534
000002d0: 9f3e 1b42 b688 0b42 0e6c 0d42 f37a fb41
000002e0: 6d3d f241 8491 e138 cfd6 de36 cfd6 de36
000002f0: cfd6 de36 54ac 1f37 3ace ee36 c92a f634
00000300: 20d3 bd3d b8ae e13e 3b42 ae3f 64dc 963e
00000310: d200 6840 b45c 3439 a9ef a942 ecec a242
00000320: db4a a142 8eb9 ac42 6b39 9d42 860d 3e3a
00000330: 6d64 2138 6d64 2138 6d64 2138 6d64 2138
00000340: 6d64 2138 6c21 2736 5c5b b241 6cf8 7641
00000350: c9ef 2741 1996 4a41 0ab9 6f41 dde7 9b39
00000360: 5ab9 8e3c e27b 183c 406e 9c3b d654 aa3b
00000370: 4f32 b13e 1a70 5439 b75f d33c 3832 0a3d
00000380: a31f 453d 3208 ac3d ddbb 2b40 0349 8236
00000390: a1b2 ae3f 46cf e53f bb7a 3040 e3ac 8c41
000003a0: c82c be42 3e1a 0a39 a58e 8838 a58e 8838
000003b0: b48e 8838 a58e 8838 a58e 8838 3b57 8d36
000003c0: 10c4 8945 b9c5 8445 6951 8345 297f 8c45
000003d0: 5d19 8045 4080 363d 3316 4239 410f 4139
000003e0: 197f 4039 4e0c 4039 1ca3 3f39 456e 4737
000003f0: 39bf e242 3fb4 d242 d765 bb42 d971 cb42
0.00033093884 0.00025245151 0.00020930765 0.0001788539 0.0001488154 9.7919265e-06 0.0003721483 0.003270211
0.003266298 0.00012461943 0.000100647936 3.588758e-08 3.2383642 3.0565598 3.6182942 1.7612183
0.6412287 0.00012317547 2982.6497 2873.535 2831.5742 2923.2996 2724.4136 0.0006862471
1.5361997e-05 1.5427644e-05 1.5421814e-05 1.535833e-05 1.5357416e-05 1.0090914e-06 426.17087 416.542
406.13535 477.0271 427.7905 0.0043273135 588.84576 576.01556 557.34705 652.5776
587.9588 0.00034190554 20.140814 18.66434 15.076228 23.737093 24.30779 0.00034622458
0.45594504 0.45500067 0.76303256 0.16366525 0.069545 2.4141165e-05 0.089536324 0.08859254
0.089711756 0.094747335 0.59652674 0.0005586918 0.0012621493 0.0007169813 0.00045234547 0.00047841322
0.007581483 1.9577086e-05 56.04108 55.457855 54.60808 57.921787 53.467594 0.0011700828
562.6028 532.0423 530.70905 538.76135 496.6953 0.0042826305 52.17265 52.455315
43.446793 71.27674 74.057106 0.0014297675 7e-43 7e-43 7e-43 7e-43
7e-43 7e-43 65.83117 62.261078 61.84399 65.7258 59.83602 0.00036186638
12.776326 11.677617 9.822429 11.245093 11.92006 0.00022731721 181.06915 173.34827
170.92696 190.33932 171.85233 0.0011999356 68.47972 65.9714 65.46235 67.64943
60.15532 0.00086412416 0.14713643 0.42376795 2.291358 0.27077588 0.67549443 5.0468647e-05
0.0019800256 0.017241245 0.0006149831 0.0005979198 0.00052002154 1.8172058e-06 3.0915127 2.2650716
1.4446044 1.6043485 0.89388025 0.00031874227 4.886898 4.6754074 4.621243 5.0513415
4.5758085 3.7427435e-05 7.732304e-16 2.0434982e-14 4.2416506e-14 4.480036e-16 3.3463516e-16 1.4725939e-33
0.5697608 1.694195 3.066366 2.2023728 1.0550039 5.3625106e-05 57.184547 53.805737
53.15596 52.792736 38.705536 0.00029317272 0.00064562174 0.0004422732 0.00033043188 0.00025305283
0.00017724291 1.1832109e-05 40.807175 37.900455 32.221275 37.172935 39.15477 0.00070490845
0.3931347 0.52749914 0.7439121 4.213951 15.077939 0.00026287176 3.9574643e-06 3.9574484e-06
3.95735e-06 3.9572674e-06 4.133635e-06 3.0905287e-07 38.811153 34.883507 35.355522 31.435034
30.279993 0.000107559405 6.6411226e-06 6.6411226e-06 6.6411226e-06 9.517262e-06 7.1169607e-06 4.58522e-07
0.092687845 0.44078612 1.3613962 0.2946502 3.62505 0.00017200672 84.96809 81.46274
80.6462 86.36241 78.612144 0.000724994 3.847892e-05 3.847892e-05 3.847892e-05 3.847892e-05
3.847892e-05 2.4904393e-06 22.29461 15.43565 10.496041 12.661645 14.982676 0.00029736655
0.017422367 0.00930688 0.004773885 0.0051981015 0.34608695 0.00020259657 0.025802476 0.0337393
0.048125874 0.08400001 2.6833413 3.8828016e-06 1.3648263 1.795388 2.7574909 17.584417
95.08746 0.00013170482 6.511555e-05 6.511555e-05 6.511566e-05 6.511555e-05 6.511555e-05 4.2122824e-06
4408.508 4248.7153 4202.1763 4495.895 4099.1704 0.044555902 0.00018509552 0.00018411597
0.00018357894 0.00018315131 0.00018275942 1.1886998e-05 113.37348 105.35204 93.698906 101.72236

exp_avg f4 [50]
00000000: 7f7c 3539 0400 0000 7886 953a f71f cebd
00000010: 6e58 8638 ee6c 2c3d f3f7 73bd 2c4f 49bc
00000020: a3c1 87ba e9c3 f1b8 c21a 5339 ce8c 703c
00000030: 2ed5 313d dafa a73c 0400 0000 339c 753c
00000040: 58eb 05bc b654 d3bc 796a 823c f472 b0bb
00000050: e294 64b5 bf52 e33b f30e 8d3b 0400 0000
00000060: 80be bd3a 4c0f 5ebc b56a 1b39 5ebe 773c
00000070: 5263 593a 8168 0438 f286 103c 1f7c 2db8
00000080: 5bd9 13bb d0d5 913c 025d d4b8 2e3f 3c3c
00000090: c2a1 d838 57e4 0a3a a569 d13b 7721 0ab9
000000a0: 0c45 04be bafa 6439 94f6 eabc 2895 183a
000000b0: 4dea ac3b cbb6 80ba 1ea9 95bd 003b 6d37
000000c0: 0400 0000 0400 0000
0.00017307884 6e-45 0.0011407873 -0.100646906 6.406089e-05 0.04209607 -0.059562635 -0.012286942
-0.0010357391 -0.000115282666 0.00020132496 0.014682008 0.043416195 0.020505358 6e-45 0.014990854
-0.008173786 -0.02579723 0.01591991 -0.005384797 -8.515327e-07 0.0069373543 0.0043047606 6e-45
0.0014476329 -0.013553452 0.00014821703 0.015121071 0.0008292693 3.156858e-05 0.008821236 -4.136201e-05
-0.0022559974 0.017802149 -0.00010126272 0.011489673 0.00010329812 0.00052983075 0.0063907676 -0.00013173172
-0.12916964 0.00021837177 -0.02868203 0.0005820566 0.0052769543 -0.0009820102 -0.07307647 1.4140038e-05
6e-45 6e-45

exp_avg_sq f4 [50]
00000000: 17c7 0439 5d30 7433 33ac 3139 1b18 bc3e
00000010: f5ed 8f37 43f7 6b3d ad32 a23d d4ab 443b
00000020: 5c34 a837 8fed fb39 92a0 4339 74c4 da3b
00000030: 4771 8a3d 0f46 0b3c f401 0000 be90 073c
00000040: 3a09 c53a e547 c13c adcd 053c 7838 a039
00000050: 1605 6f38 624f a839 d56c 243a 7548 fc20
00000060: 4757 0d39 297f db3b b1f8 c638 d1a1 9f3b
00000070: a45b 8a39 2b51 9336 d0a9 8c3b d58b f836
00000080: 90cf b438 0f63 2e3c b055 2b38 409e 103b
00000090: a8dc 4f38 c32a 0338 47b2 773a a58e 8838
000000a0: 1270 0c3f 3fe0 5439 a6ee 663c 71c0 1a39
000000b0: a869 833a 25d0 9737 4512 843d edb0 4639
000000c0: 939b 0000 8ced 462a
0.00012662668 5.6854663e-08 0.00016944185 0.3673714 1.7157736e-05 0.057608854 0.07919822 0.0030009644
2.0051542e-05 0.00048051446 0.00018656466 0.006676251 0.06759887 0.00850059 7e-43 0.008274255
0.0015032657 0.023593852 0.008166713 0.0003055965 5.6986777e-05 0.00032102602 0.0006272321 4.2738409e-19
0.00013479321 0.0066985083 9.487698e-05 0.004871585 0.0002638969 4.3903906e-06 0.004292704 7.4072545e-06
8.6217304e-05 0.010643735 4.084938e-05 0.002206698 4.9558148e-05 3.127266e-05 0.00094488676 6.511555e-05
0.54858506 0.00020301434 0.014094984 0.00014758274 0.0010025995 1.8097528e-05 0.06448797 0.00018948661
5.581e-41 1.7668348e-13

exp_avg f4 [4, 50]
00000000: eb23 0339 0400 0000 8183 1d3e 9420 dcbc
00000010: 1f20 1f39 889a 8c3d 1fbc 5abd 6fbd 15bd
00000020: fb88 673b e6e9 d836 c44f 5238 b2ff f73c
00000030: c05c 9a3d 06a4 67bd 0400 0080 917a 8d3c
00000040: 0083 c8bc f172 283c ad2c 1d3e bbfe 183c
00000050: 9336 59b5 9eca 3a3d 2a91 8bbd 0400 0080
00000060: b8c9 e43d ed8e a63d bec1 4939 fa27 42bd
00000070: a9d6 9cbc 2541 3b39 a290 703d cfcc ab39
00000080: 1c4d 92ba 6470 0a3e 6daf 9e39 f59b 933d
00000090: 0400 0080 1608 39bc a786 00bb 1607 1139
000000a0: 5ee4 d53c 89a2 3d38 3b82 37bd 0aa2 bd3d
000000b0: 00da b6bb dfba 10bd fd0b 903d 0400 0000
000000c0: 0400 0000 0400 0080 0400 0080 0400 0000
000000d0: 0400 0000 59bf 74bb 0400 0000 0400 0000
000000e0: 1531 22bb 9d22 3eba c6ba 36ba 480f 9dba
000000f0: d547 a1b9 0400 0080 0400 0080 c234 55b9
00000100: 0400 0080 0400 0000 2b9b 8aba 0400 0000
00000110: 0400 0000 b033 06ba 0400 0000 0400 0000
00000120: 9fd1 7aba 0400 0000 0400 0080 e650 e7ba
00000130: 0400 0000 f0aa 6fb9 0400 0080 0400 0000
00000140: 0400 0080 0400 0000 0400 0000 0400 0000
00000150: 0400 0000 0400 0000 4a02 5fb9 c311 85b8
00000160: ef9c 92ba 0400 0000 0400 0080 0400 0000
00000170: e4ab 34bb 3baa e0b9 0400 0000 0400 0000
00000180: 0400 0000 5379 caba 0400 0080 0400 0000
00000190: 1ec8 d3af 0400 0080 5abc cabd cff4 8b3d
000001a0: 0400 0000 658f a83e fad7 fc3d 9a84 843e
000001b0: bf80 10bc 6590 d3b9 b7f7 25b9 443c 323e
000001c0: 0494 963e b752 973e 0400 0000 b3d8 913e
000001d0: d273 e73e ff74 863d e813 e73d 0d22 7cbc
000001e0: aeb2 6020 229e 5f3c 1e57 683f 0400 0080
000001f0: c54c c7be 0022 423b 11cf abaf f5e7 e83e
00000200: dfc7 80bd 0400 0080 1842 1b3e 0400 0000
00000210: 4fdf 92bc aa1f 533e 0400 0000 1363 133d
00000220: 1135 59b9 f628 cbbc a023 03bc 0400 0080
00000230: d74e 873e 104c beb8 313e 2d3e 2671 c4be
00000240: a416 513e 7cf1 c4bd 14de c7bb 8469 e5b9
00000250: 0400 0000 0400 0080 506b 24a6 0400 0000
00000260: 14cb 0ebe 40fb 323e a1df 73a6 c50d a53f
00000270: 6eaa aa3e 4a3d da3e b56e e8bc df03 30b9
00000280: 6f59 9b2e d073 793f 5955 913f 5866 033f
00000290: 0400 0080 a6fa 663f d49c 3d3f b4bd 973e
000002a0: 1108 273f 163b b5bb 0400 0000 d269 16bd
000002b0: f7ac 893f 0400 0000 bcd1 26be 9bcb 253f
000002c0: 5a63 96a6 8604 3c3f 64e5 ec3c a0e8 8ba6
000002d0: c034 bd3e bc62 0ba7 6f3f b63b 1687 453f
000002e0: 77a4 0ca7 58e3 d83c 4331 de2f f142 3e3c
000002f0: cdfb c7b9 1a3f 83a6 9a99 863f 9a46 aea4
00000300: 2453 843e 362e 24be 9e7b fe3e 6c2d e63c
00000310: 5063 8abd 467f 0eb9 0400 0000 0400 0080
0.00012506514 6e-45 0.15382196 -0.026871003 0.00015175388 0.06865412 -0.053402063 -0.03655761
0.003532945 6.464531e-06 5.014219e-05 0.030273292 0.07537222 -0.05655291 -6e-45 0.017270358
-0.024476528 0.01028131 0.15349074 0.009338076 -8.0918215e-07 0.045603387 -0.06814797 -6e-45
0.11171287 0.0813273 0.00019241028 -0.047401406 -0.019145327 0.00017857978 0.058731683 0.00032768256
-0.0011161896 0.13519436 0.0003026681 0.07207481 -6e-45 -0.011293432 -0.001961151 0.00013830917
0.02610987 4.5212484e-05 -0.04480193 0.09259422 -0.005580187 -0.035334464 0.070335366 6e-45
6e-45 -6e-45 -6e-45 6e-45 6e-45 -0.0037345497 6e-45 6e-45
-0.0024748493 -0.00072530826 -0.00069705804 -0.0011982704 -0.00030761832 -6e-45 -6e-45 -0.00020332917
-6e-45 6e-45 -0.0010574808 6e-45 6e-45 -0.00051193964 6e-45 6e-45
-0.0009567979 6e-45 -6e-45 -0.0017648011 6e-45 -0.00022856495 -6e-45 6e-45
-6e-45 6e-45 6e-45 6e-45 6e-45 6e-45 -0.0002126779 -6.3452426e-05
-0.0011185686 6e-45 -6e-45 6e-45 -0.0027568275 -0.0004285144 6e-45 6e-45
6e-45 -0.0015447534 -6e-45 6e-45 -3.8522868e-10 -6e-45 -0.098992065 0.06833803
6e-45 0.329219 0.12345882 0.25882417 -0.008819758 -0.00040352638 -0.00015827907 0.17405802
0.29409802 0.29555294 6e-45 0.2848564 0.4520555 0.06565284 0.11283094 -0.015388978
1.9032658e-19 0.013648542 0.9075793 -6e-45 -0.38925758 0.0029622316 -3.1251848e-10 0.4548947
-0.062881224 -6e-45 0.15161932 6e-45 -0.017928747 0.20617548 6e-45 0.035983156
-0.00020714501 -0.024799805 -0.008004099 -6e-45 0.26427338 -9.074074e-05 0.16918255 -0.38367575
0.20418793 -0.09616372 -0.006099472 -0.000437569 6e-45 -6e-45 -5.7044366e-16 6e-45
-0.13944656 0.17478657 -8.4610635e-16 1.2894827 0.33333153 0.42624885 -0.028373102 -0.0001678611
7.0644705e-11 0.9744234 1.1354171 0.5132804 -6e-45 0.9022621 0.74067426 0.2963692
0.65246683 -0.0055307252 6e-45 -0.036722012 1.075591 6e-45 -0.16290945 0.647638
-1.043527e-15 0.734444 0.028917976 -9.708116e-16 0.36954308 -1.934365e-15 0.005561761 0.7715925
-1.951806e-15 0.026475593 4.0416567e-10 0.01161264 -0.00038143844 -9.107055e-16 1.0515625 -7.5580075e-17
0.2584468 -0.16033253 0.49703687 0.02809783 -0.067572236 -0.00013589588 6e-45 -6e-45

exp_avg_sq f4 [4, 50]
00000000: b99e 0e39 d52c 0d31 f8c6 eb3d c276 ef3c
00000010: d49c e738 f4ea 0841 7173 ec3d 79b5 083f
00000020: e655 1f3a 5543 5c38 f813 6038 db0d c840
00000030: 4672 e240 f33c 6c3f f401 0000 9aef 5f40
00000040: dcf4 c03f 1550 f73e daec 8040 c95b 233b
00000050: ea76 b737 84f1 683c bf74 b340 2e57 3e08
00000060: 1700 cf3e a03a 8c40 bffb 4e39 5d41 e33f
00000070: 0b09 463d b14c 2239 72e2 923f 216c cc39
00000080: dd76 db3b 4313 8440 614c 6d39 4eb0 2f3e
00000090: 131e 142d bb25 6c3c 3dc4 643a 2f08 3538
000000a0: 7c1f be40 4c72 8338 85fc cf3d c43e b63e
000000b0: b560 8f3f aa3d e53d 2ba0 973d a8d9 b328
000000c0: f401 0000 e46f a725 f401 0000 f401 0000
000000d0: 2bc2 7d08 8358 523b f401 0000 bc60 ce29
000000e0: f3b1 b83a 8828 0139 fc91 e638 ae47 ae39
000000f0: 625e bd37 c5ff 6b2d b648 8a28 3e2e 2b37
00000100: f401 0000 ae63 9e2a 851d 8939 f401 0000
00000110: ab23 e82b a9e3 8738 f401 0000 1428 b909
00000120: 4ccb 5f39 f401 0000 964f b12a 2309 3d3a
00000130: f401 0000 991c 5337 466c ef27 f401 0000
00000140: f401 0000 f401 0000 f401 0000 567b de2c
00000150: f401 0000 9f0c 020a 2095 f436 27bb 2035
00000160: 3d7e 9639 f401 0000 f401 0000 504d 8830
00000170: 8597 e53a d54f 3438 7681 282c f401 0000
00000180: b001 1c09 e64e 0c3a f401 0000 f401 0000
00000190: 49ce ca36 b529 9236 fea5 843e 5de1 2d3f
000001a0: da72 d12c ad46 c042 1fc1 d93f 5ded 2040
000001b0: df7d 803c 947e 453a 7e98 1039 6022 8a42
000001c0: 10c6 9c42 a328 5a40 f401 0000 ebb9 0542
000001d0: d78c 6f41 d789 6440 006d 4e42 0fef 553b
000001e0: 2a5f cc35 b4fa cb3b ee6f 8a42 c8c4 3521
000001f0: 3aba 0340 27ec 8742 c324 7136 2814 6e41
00000200: bf15 033e f401 0000 6d21 1e41 f401 0000
00000210: c5b9 0a3c f3ef 4f42 f401 0000 5c7c b43f
00000220: 6b4a 4a39 2774 083d 6d81 413b 766f 8b2b
00000230: ccbd 8042 e112 4a38 d3ff 973f 9b51 fd3f
00000240: 798a 2041 e40a 703e 20ed 473d fa00 663a
00000250: f401 0000 a946 e52e 8b46 2436 5074 8f37
00000260: 10aa 963e 114a 0a3f 9f9b b636 f63a 8842
00000270: 7815 c33f 874c 5c40 c696 d13c b1b1 fc39
00000280: 6c0d 3a36 4784 3b42 2d5d 5d42 707f 9a40
00000290: f401 0000 5b0c d341 dc2b 3a41 d396 3c40
000002a0: 7bf2 f841 05e3 933a a4b1 4a35 799c e43c
000002b0: 349c 3542 104b 1a27 e1ec 1f3f 112a 1242
000002c0: 891e 0937 3a2d 3841 e702 ee3d 6d92 ed36
000002d0: a554 ea40 0c88 e937 21db 453c 1fb0 0042
000002e0: 0caf ed37 aa98 493f c11a 9639 5350 8a3d
000002f0: 7c6d 563b f20b cd36 2a47 3342 8522 6433
00000300: 0a7c 7f3f de80 143f 1c96 0241 30bb c73e
00000310: 48fd b03d d579 033b dc14 0c00 cc54 592f
0.00013601304 2.0543685e-09 0.1151256 0.029231433 0.0001104415 8.557362 0.11545456 0.53401905
0.00060781685 5.2514795e-05 5.342436e-05 6.2516913 7.0764494 0.922805 7e-43 3.498999
1.5074725 0.48303285 4.0289125 0.0024926534 2.1870674e-05 0.014217738 5.608001 5.7278524e-34
0.40429756 4.3821564 0.00019739474 1.7754322 0.048348468 0.00015478094 1.1475356 0.00038990474
0.006697519 4.1273513 0.00022630535 0.17157099 8.419504e-12 0.0144132925 0.00087267515 4.3161384e-05
5.9413433 6.267856e-05 0.10155586 0.3559476 1.1201388 0.11193402 0.074035965 1.9967385e-14
7e-43 2.9045702e-16 7e-43 7e-43 7.636266e-34 0.0032096214 7e-43 9.1650185e-14
0.0014091119 0.00012317498 0.00010994446 0.00033241272 2.2574506e-05 1.3414996e-11 1.5352611e-14 1.0203161e-05
7e-43 2.8135605e-13 0.0002615267 7e-43 1.6494491e-12 6.479707e-05 7e-43 4.457482e-33
0.00021342671 7e-43 3.149674e-13 0.00072111393 7e-43 1.25832385e-05 6.6453216e-15 7e-43
7e-43 7e-43 7e-43 6.3233125e-12 7e-43 6.261646e-33 7.289127e-06 5.987699e-07
0.00028704284 7e-43 7e-43 9.917276e-10 0.001751647 4.2989694e-05 2.3946101e-12 7e-43
1.877861e-33 0.0005352333 7e-43 7e-43 6.044084e-06 4.3559944e-06 0.25907892 0.67922
5.9528884e-12 96.13804 1.7012061 2.5144875 0.01568502 0.0007533815 0.00013789718 69.06714
78.38684 3.4087303 7e-43 33.43156 14.971885 3.570913 51.606445 0.003264371
1.5226881e-06 0.0062249545 69.21861 6.1585623e-19 2.0582414 67.961235 3.5933197e-06 14.879921
0.12801264 7e-43 9.883161 7e-43 0.0084671425 51.984325 7e-43 1.4100451
0.00019291944 0.033313897 0.0029526607 9.907481e-13 64.3707 4.8178135e-05 1.1874946 1.9790529
10.033807 0.23441654 0.048810124 0.0008773949 7e-43 1.0426266e-10 2.4478966e-06 1.710109e-05
0.29426622 0.54019266 5.4421394e-06 68.11516 1.5240927 3.4421709 0.02558459 0.00048197576
2.7723972e-06 46.879177 55.340992 4.8280563 7e-43 26.381033 11.635708 2.9467056
31.118399 0.0011282867 7.5509365e-07 0.027906643 45.402542 2.1412485e-15 0.62470824 36.54108
8.172946e-06 11.511042 0.11621647 7.0801966e-06 7.3228326 2.7839116e-05 0.01207617 32.171993
2.8334114e-05 0.7874857 0.00028630163 0.06753602 0.0032719066 6.1108667e-06 44.819496 5.3116782e-08
0.99798644 0.58009136 8.161648 0.3901 0.086420596 0.0020061631 1.109509e-39 1.9766161e-10

exp_avg f4 [4]
00000000: 6576 413b 33d8 45b8 92ac f83b e3f7 273c
0.0029520032 -4.716981e-05 0.0075889314 0.010251972

exp_avg_sq f4 [4]
00000000: 0d5c ea39 dcdd 0a35 d0c8 d53b d75e b03b
0.0004470054 5.1731854e-07 0.006524183 0.0053823995
