last_brain3.pth (torch, 11261 bytes, 12 tensors)

fc1.weight f4 [50, 6]
0	0xbe0ae073	-0.13562183
1	0xbed3dacf	-0.41377875
2	0xbf051c99	-0.5199676
3	0xbf4d9f45	-0.8032115
4	0xbfdbe68e	-1.7179735
5	0xc125e99a	-10.369532
6	0xbf2ade5b	-0.6674554
7	0x3e06db83	0.13169675
8	0x3d7678e6	0.06017389
9	0xbf2b4971	-0.6690894
10	0xbf9774ba	-1.1832497
11	0x3fec559f	1.846363
12	0x3e493184	0.19647795
13	0x3c79e6b8	0.015252762
14	0x3f12826a	0.57230246
15	0x3ea5c21d	0.3237466
16	0xbf20e069	-0.6284242
17	0x4181bfdf	16.218687
18	0xbd8b1be8	-0.06792432
19	0xbd039056	-0.03212007
20	0xbd3f0507	-0.046635654
21	0xbdcc6269	-0.09979708
22	0xbd40aacb	-0.04703788
23	0xc1d0f5ea	-26.120075
24	0xbf390bed	-0.7228382
25	0x3d82b1c9	0.06381566
26	0xbe19eef4	-0.1503256
27	0xbea62260	-0.324481
28	0xbfb55fd1	-1.4169866
29	0xbff46c05	-1.9095465
30	0x3eaac3d2	0.33352524
31	0x3e59f7e1	0.21285965
32	0x3e6ae612	0.22939327
33	0x3e593d64	0.21214825
34	0x3e6b601b	0.2298588
35	0x4120b0a1	10.043122
36	0xbe64cab0	-0.22342944
37	0xbe15d1d7	-0.14630829
38	0xbe5d058a	-0.21584144
39	0xbe61e239	-0.22058953
40	0xbe8371ff	-0.2567291
41	0xc18d315c	-17.649101
42	0xbe33533d	-0.17512222
43	0xbe40c9ad	-0.18826933
44	0xbf385cf7	-0.72016853
45	0xbdd60524	-0.10450199
46	0x3e862e79	0.2620733
47	0x3f98f4b9	1.1949683
48	0x3d35bdfd	0.04437064
49	0xbdeecd96	-0.11660306
50	0x3e062975	0.13101752
51	0xbe1c3883	-0.15255933
52	0xbece7426	-0.4032299
53	0xc1823a5c	-16.278496
54	0xbac40635	-0.0014955463
55	0x3d053f05	0.032530803
56	0x3cdbed6c	0.02684661
57	0xbceeda69	-0.02915688
58	0x3db9d274	0.09073344
59	0xc17a6534	-15.649708
60	0x3d7c8c5f	0.061657306
61	0x3e0a9160	0.13532019
62	0x3d4246f9	0.047430966
63	0xbd1f2dd1	-0.038862053
64	0x3e96fe22	0.29490763
65	0xc1424b78	-12.143425
66	0xbd44b234	-0.04802151
67	0x3dc2d186	0.0951262
68	0x3e61a81f	0.2203679
69	0x3e1d7383	0.15376095
70	0xbe2624b5	-0.1622494
71	0x410ebe76	8.921499
72	0x3e91dda5	0.28489414
73	0x3e1525ef	0.14565252
74	0x3decd649	0.11564309
75	0x3e82adc2	0.25523192
76	0x3de5ec3a	0.11226697
77	0x414c2a7b	12.760371
78	0xbe7ad71b	-0.24496119
79	0xbe2a2e3b	-0.16619198
80	0xbf1a7f59	-0.6035057
81	0xbe6076d0	-0.21920323
82	0x3dbf020b	0.093265615
83	0x3efc6daa	0.49302417
84	0xbcaa2b65	-0.020772645
85	0xbb8c0157	-0.0042726207
86	0xbd0e0f44	-0.034682527
87	0xbb4106ac	-0.002945344
88	0xbd2d11a2	-0.042253144
89	0x409309ab	4.59493
90	0xbe0f8af8	-0.14017856
91	0xbe0dbc1f	-0.13841294
92	0xbdc883fa	-0.097907975
93	0xbdba53ef	-0.0909804
94	0x3e85a93c	0.26105678
95	0x40cacf92	6.337838
96	0x3e8309a0	0.2559328
97	0xbe835e0a	-0.25657684
98	0xbf1783e3	-0.5918562
99	0xbf018b54	-0.5060322
100	0x3ed826b2	0.42217022
101	0xc076c033	-3.855481
102	0x3b74a318	0.0037328657
103	0xbd0d6fda	-0.034530498
104	0xbb995d3a	-0.004680303
105	0x3bef6817	0.0073061096
106	0x3c8fac3a	0.017538179
107	0x4167b5a1	14.481843
108	0x3ea5fb00	0.3241806
109	0xbc9a0abd	-0.018803949
110	0x3cc0fd8c	0.0235584
111	0xbd556681	-0.05209971
112	0xbead51a1	-0.3385134
113	0x4106fbbb	8.436458
114	0xbcf981b7	-0.03045736
115	0xbd2e4f44	-0.042556062
116	0xbc71f95a	-0.014768923
117	0xbd2d6fa4	-0.042342797
118	0xbca579df	-0.020199714
119	0xbdfc9455	-0.123329796
120	0xbf505a1a	-0.81387484
121	0x3e91fd65	0.28513637
122	0xbf83fbc4	-1.0311208
123	0xbfc05f05	-1.5028998
124	0xbf2ff3c6	-0.68731344
125	0xc180a0c8	-16.078506
126	0x3d5cda77	0.05391928
127	0x3dea5d0f	0.11443531
128	0x3e1a05a5	0.15041216
129	0x3db98a56	0.090595886
130	0x3dfb61cd	0.122745134
131	0x409785cb	4.735082
132	0xbe5edd79	-0.21764173
133	0x3eb9b2d5	0.3626925
134	0xbe950cfa	-0.29111463
135	0xbf0c45e5	-0.5479415
136	0x3e81db07	0.25362417
137	0xc0a4f44f	-5.154823
138	0xbf8215d1	-1.0162908
139	0x3e5ed67d	0.21761508
140	0x3e19bf74	0.1501444
141	0xbf12decf	-0.5737123
142	0xc00437e8	-2.0659122
143	0xc1257366	-10.340673
144	0xbecac043	-0.3959981
145	0xbed5e0fa	-0.41773206
146	0x3f2375ce	0.6385163
147	0xbec0538d	-0.37563744
148	0xbea4300c	-0.32067907
149	0x3ff60dd5	1.9222971
150	0x3edf4ab0	0.4361167
151	0x3dbc7773	0.09202471
152	0x3de3238f	0.11090767
153	0xbde7d174	-0.11319247
154	0xbeffcf1c	-0.499627
155	0xc12052e0	-10.020233
156	0xbec2e75e	-0.38067144
157	0xbec184e5	-0.37796703
158	0xbec13133	-0.3773285
159	0xbec1389a	-0.37738496
160	0xbf58b14b	-0.8464553
161	0xc0919f13	-4.5506682
162	0x3c3becda	0.011470044
163	0xbc9d0719	-0.019168423
164	0xbef18107	-0.47168753
165	0xbeb7e558	-0.35917163
166	0x3f1a6012	0.6030284
167	0xbf8d9527	-1.1061143
168	0xbf4d97fa	-0.8031002
169	0xbe53ef7b	-0.20696823
170	0xbdbeeeb8	-0.09322876
171	0xbe9175ee	-0.28410286
172	0x3e862f50	0.26207972
173	0xbf8a5008	-1.0805674
174	0xbf77c906	-0.9679111
175	0xbfc69fc8	-1.5517511
176	0xbf0f587c	-0.5599439
177	0xbf61eb24	-0.8824942
178	0xbe0854f4	-0.13313657
179	0xc08dce29	-4.431416
180	0x3d9eaf9e	0.0774834
181	0x3c4df7ef	0.012571319
182	0xbdb3f578	-0.08787054
183	0x3c8be522	0.017077032
184	0xbccdd634	-0.025126554
185	0x41528bd5	13.159139
186	0xc031cef3	-2.7782562
187	0xc05c9115	-3.446355
188	0xc05d859d	-3.46128
189	0xbd0d1ecb	-0.034453195
190	0xbe84736d	-0.25869313
191	0x3f398b9a	0.7247864
192	0xbf3d05e5	-0.7383712
193	0xbe3ef076	-0.18646416
194	0x3e43ab83	0.19108395
195	0xbee008d5	-0.43756738
196	0x3d591bcb	0.05300502
197	0x40bf18e0	5.9717865
198	0x3dcbc2a7	0.09949236
199	0xbc9587c6	-0.018253218
200	0x3ea159a4	0.31513703
201	0xbea6b046	-0.3255636
202	0x3e31ff1f	0.17382477
203	0x40ca417c	6.3204937
204	0xbf99f3b4	-1.2027497
205	0xbfbc43fa	-1.4708245
206	0xbfc2b07c	-1.5210109
207	0xbf9f25ba	-1.2433388
208	0xbfb810b2	-1.4380095
209	0x4145e45a	12.36825
210	0x3e0d78bd	0.13815589
211	0xbb965506	-0.0045877723
212	0xbe3a22a6	-0.1817728
213	0xbe1501c2	-0.14551452
214	0xbe6a86be	-0.22902963
215	0x41199443	9.598697
216	0xbd04b345	-0.032397527
217	0xbd95137b	-0.07279106
218	0xbef11c10	-0.47091722
219	0xbe8a945e	-0.2706632
220	0xbd23c8d3	-0.039986443
221	0xc1b763e6	-22.923779
222	0xbf9259c4	-1.1433644
223	0xbe2ddef8	-0.16979587
224	0xbf1a9833	-0.6038849
225	0xbebf0809	-0.37310818
226	0x3efdacf7	0.49546024
227	0xc1338721	-11.22049
228	0xbf2d46b7	-0.6768603
229	0xbf122af8	-0.57096815
230	0xbeeed275	-0.4664494
231	0xbea5b0b0	-0.32361364
232	0xbe3f8727	-0.187039
233	0xc17421c7	-15.258246
234	0xbf437de7	-0.76363987
235	0xbe175aa9	-0.14780678
236	0x3dfca094	0.12335315
237	0xbf34d002	-0.70629895
238	0xbf90d2f2	-1.1314375
239	0x40cf8156	6.484538
240	0x3e7bcff4	0.24591047
241	0x3e45f124	0.19330269
242	0x3e26950e	0.16267797
243	0x3e284f24	0.1643644
244	0x3e635c36	0.22203144
245	0x41723162	15.137056
246	0xbcb4ea04	-0.022084244
247	0xbe846b45	-0.2586309
248	0xbdf04740	-0.1173234
249	0xbc78a5c5	-0.015176241
250	0xbd8d8499	-0.069100566
251	0xc17640b1	-15.390794
252	0xbdc95449	-0.09830529
253	0xbc9541af	-0.018219797
254	0xbd9a26bb	-0.075269185
255	0xbe1186d2	-0.14211586

fc1.bias f4 [50]
0	0x40c1e558	6.059246
1	0xc0f923c4	-7.785616
2	0xc089aebc	-4.30258
3	0x4130acf5	11.042226
4	0x40a16d66	5.0446043
5	0x3ea4565b	0.32097134
6	0x40971628	4.7214546
7	0x40eb8f50	7.361244
8	0xbfbff869	-1.4997684
9	0x40aae688	5.340641
10	0x409f61bd	4.980681
11	0xc0c2b687	-6.084781
12	0xbf2f5a6c	-0.6849735
13	0x3fa0c861	1.2561151
14	0xc12e3f04	-10.890385
15	0x40575b3e	3.364944
16	0x404e97f6	3.228025
17	0xbfd08b7a	-1.6292565
18	0xc00a45f7	-2.1605203
19	0x41237145	10.215154
20	0xbe6f5c9c	-0.23375171
21	0x40f7b02a	7.7402544
22	0x408627ca	4.192357
23	0xc05dc706	-3.4652724
24	0x404f1954	3.235921
25	0xbf5fbc9c	-0.8739717
26	0x40f8cad7	7.7747607
27	0xc0ef2c60	-7.474167
28	0xc0b6a658	-5.7078056
29	0x406e1d88	3.7205524
30	0xbf14f91d	-0.58192617
31	0x403a1f65	2.9081662
32	0x3f5d975f	0.865591
33	0x3fbd8df8	1.480895
34	0x3f26db6b	0.65178555
35	0x401498b1	2.3218195
36	0xc0104eaa	-2.2548013
37	0x40a0acab	5.0210776
38	0xc10467b7	-8.275321
39	0x3e89f8ec	0.26947725
40	0xc0e351b2	-7.1037226
41	0x4093b7a2	4.616166
42	0x40449efb	3.0722034
43	0x40e8060b	7.2507377
44	0x3fab959d	1.3405033
45	0x3d74fb5b	0.059810024
46	0x3f97c7d1	1.1857854
47	0xc03e3e48	-2.9725513
48	0xc0b4d9c7	-5.651584
49	0xc0ef4fbe	-7.478484

fc2.weight f4 [4, 50]
0	0x40cd3c6a	6.413625
1	0x3e958a19	0.29206923
2	0x3ca3aa9b	0.019978812
3	0xc081ab6e	-4.0521765
4	0x40063f8b	2.0976284
5	0x4009bef3	2.1522796
6	0xc01f3ef0	-2.4882164
7	0xbe311396	-0.17292628
8	0xbec3b2c8	-0.38222337
9	0xc10fcb6d	-8.9871645
10	0x40d93269	6.7874036
11	0x3f9b81bc	1.2148967
12	0x402c8668	2.6957035
13	0x3f1d8419	0.6152969
14	0xc00afaef	-2.1715658
15	0x3eb244bd	0.34818068
16	0xbe9172d2	-0.28407913
17	0x3fb06488	1.378068
18	0x3f7a1af3	0.9769737
19	0xc0198101	-2.3984988
20	0x40a9cf01	5.306519
21	0x3fb86856	1.4406841
22	0xbd8d3ce8	-0.068963826
23	0xc01e388c	-2.4722013
24	0x3e7e4718	0.24831808
25	0xbf0f951f	-0.56086916
26	0x40af0bf8	5.470211
27	0x3ec4d10e	0.38440746
28	0x3f83b327	1.0289048
29	0x3f567cdf	0.8378429
30	0x3ecdced0	0.40196848
31	0xbfe4efe1	-1.7885705
32	0xbf907042	-1.1284258
33	0x3f383c6d	0.719672
34	0xc07fd074	-3.997098
35	0x3f0778e3	0.52918833
36	0xc158c9cd	-13.549268
37	0xbfd06467	-1.628064
38	0xc0cd6843	-6.4189773
39	0xc0a62845	-5.1924157
40	0xc10943e6	-8.579077
41	0x4101cdb0	8.112717
42	0xbe419ff6	-0.18908677
43	0xbecea1c6	-0.40357798
44	0x3e2c215a	0.16809598
45	0x3ef74ba1	0.48299888
46	0xc0310c52	-2.766377
47	0x41009699	8.036767
48	0x3f65d81b	0.89782876
49	0xbe235115	-0.15948899
50	0x3baaf42f	0.0052170972
51	0x3e43ce0e	0.19121572
52	0xbf3b4e6a	-0.73166525
53	0xc016276f	-2.3461568
54	0xbe89f672	-0.26945835
55	0x3fe828c7	1.8137444
56	0xc0048ee7	-2.071222
57	0xbfd32d94	-1.6498284
58	0xbffe19b5	-1.9851595
59	0xc00daf23	-2.2138145
60	0xbd4be485	-0.04977848
61	0xbf4b8798	-0.79503775
62	0x3ef3b0bf	0.47595784
63	0x3e4ae7a7	0.19814931
64	0xbf855f3b	-1.0419687
65	0x3d4725d2	0.048620053
66	0xc001e052	-2.0293164
67	0xbf3282fc	-0.69731116
68	0xbf31018c	-0.69142985
69	0xbfebdcdd	-1.8426777
70	0xbd772807	-0.060340907
71	0xbf4b2833	-0.79358214
72	0xbf91030d	-1.1329056
73	0xbf1c1026	-0.6096214
74	0x3d2cf2d3	0.042223763
75	0xc008f7f5	-2.140134
76	0xbe2fbdae	-0.17162201
77	0xbf75d480	-0.96027374
78	0xbc439352	-0.011936979
79	0xbc777abf	-0.015104949
80	0xbf7b5ccc	-0.9818847
81	0xbf878df0	-1.0590191
82	0xbf0ace7d	-0.54221326
83	0x3e8b0d1a	0.27158433
84	0xbf30567b	-0.6888196
85	0xbf390412	-0.72271836
86	0xc0022583	-2.0335395
87	0xbee6a3ce	-0.45046848
88	0xbfd0252b	-1.6261343
89	0xbf50567a	-0.8138195
90	0xc085cf09	-4.181523
91	0x3f5e0abb	0.86735123
92	0xc00fde18	-2.2479305
93	0xbf8df61e	-1.1090734
94	0xbf50df90	-0.8159113
95	0x3e93a9f0	0.2884059
96	0xbfb55a12	-1.4168112
97	0xc002b92e	-2.0425525
98	0x3e8260b1	0.25464395
99	0xbe4e8e7c	-0.20171541
100	0xbf9d71e3	-1.230038
101	0x3ecfd3eb	0.40591368
102	0xbe276d55	-0.163503
103	0xc09b52a6	-4.853839
104	0x40000f22	2.0009236
105	0x3fa54631	1.2912046
106	0x3f0fb757	0.5613913
107	0xbf0b47f9	-0.54406697
108	0x3db0c2e1	0.0863092
109	0x3f59e178	0.85109663
110	0x4010c4f3	2.2620208
111	0x3fa76bb5	1.3079745
112	0x4013a903	2.3071907
113	0x3f120076	0.57031953
114	0xbf8fa384	-1.1221776
115	0x3ecd80e1	0.4013739
116	0xbf1ff751	-0.6248675
117	0x3d954ba2	0.072898164
118	0x3f84901d	1.035648
119	0xbfdbd422	-1.7174113
120	0x40286637	2.6312387
121	0x3f3a6876	0.72815645
122	0xbd9b08e4	-0.07570055
123	0xbfcd54ff	-1.6041564
124	0x3e343e34	0.17601854
125	0xbf2a8aae	-0.6661786
126	0xc006ba41	-2.105118
127	0x3f76c3c6	0.96392477
128	0x3f8c4d0f	1.0961016
129	0xbf519a5d	-0.81876165
130	0x3f3862a9	0.72025543
131	0xbf5a8d79	-0.8537212
132	0xbe6ddbd1	-0.23228385
133	0x3f1a8bfb	0.60369843
134	0xbe43f847	-0.19137679
135	0x3f29b146	0.6628612
136	0x3fb603fc	1.4219966
137	0xbf4d8dc5	-0.8029445
138	0xbfdda952	-1.7317297
139	0xbee054e3	-0.43814763
140	0xc0b4b504	-5.6470966
141	0x40108aba	2.2584672
142	0x3f81bc16	1.0135524
143	0xbf0f02ad	-0.5586346
144	0xbb78cd21	-0.0037964063
145	0x3ead1dce	0.33811802
146	0xc049d35f	-3.153526
147	0xbf7f7c78	-0.997993
148	0x3f11466f	0.567481
149	0xbe991f1c	-0.29906547
150	0x3efa3d5e	0.48874944
151	0x3f5d3125	0.86403114
152	0xbedb35a1	-0.42814353
153	0xc08eab79	-4.4584317
154	0xbf93fa6d	-1.1560799
155	0x4011d8de	2.2788615
156	0xc031716d	-2.772548
157	0xbeb362c1	-0.3503628
158	0xbe0dd506	-0.13850793
159	0xc0c74a29	-6.2278028
160	0x40319467	2.7746828
161	0x3edc95c6	0.43083018
162	0x3fc1db4a	1.5145047
163	0x3f42f26a	0.76151145
164	0xbfaf57cd	-1.369867
165	0x3eb30f0e	0.34972423
166	0x3cdb8f59	0.026801752
167	0xbf2889a8	-0.65835047
168	0x3ece0f7a	0.40246183
169	0xbf44fb4e	-0.7694596
170	0x403365a6	2.8030791
171	0x4000596e	2.0054584
172	0xbc68093c	-0.014162358
173	0xbd063e6b	-0.03277437
174	0x3e3915d0	0.18074727
175	0xbe83437d	-0.25637427
176	0x3e8cc423	0.2749339
177	0x3ef1e572	0.47245365
178	0x3f90fede	1.1327779
179	0x3f95f51d	1.1715428
180	0x3de1f025	0.11032132
181	0x3f4d9c75	0.8031686
182	0xbfca4bb0	-1.5804348
183	0x3f1d3305	0.61405975
184	0xbd7e7fa2	-0.06213344
185	0x3ed20ba6	0.41024512
186	0xc0b522ff	-5.660522
187	0xbf8008be	-1.0002668
188	0xc0389689	-2.884188
189	0xbd5a1d97	-0.053250875
190	0xc0b746ae	-5.727378
191	0xbff2e41a	-1.8975861
192	0xbf79f4ad	-0.9763897
193	0xbe13e034	-0.14440995
194	0xbe397a42	-0.18113044
195	0x3ec327cc	0.381163
196	0xc0027269	-2.038233
197	0x40e844c1	7.258393
198	0x3f1ec227	0.62015
199	0xbf02552c	-0.5091121

fc2.bias f4 [4]
0	0xbd2f7a1c	-0.042841062
1	0xbfa96fc7	-1.3237237
2	0xc021ea89	-2.52994
3	0x3eff25fd	0.4983367

exp_avg f4 [50, 6]
0	0x373a8420	1.1117227e-05
1	0x373a8420	1.1117227e-05
2	0x373a8420	1.1117227e-05
3	0x373a8420	1.1117227e-05
4	0x373a8420	1.1117227e-05
5	0xb61a86e5	-2.3026307e-06
6	0x00000004	6e-45
7	0x00000004	6e-45
8	0x00000004	6e-45
9	0x00000004	6e-45
10	0x00000004	6e-45
11	0x00000004	6e-45
12	0x40cf0dbb	6.470426
13	0x40cad9d1	6.339089
14	0x40a22dd8	5.068096
15	0x407f2e08	3.9871845
16	0x4052022d	3.2813828
17	0x3cfbb16c	0.03072425
18	0xc04bee44	-3.1864176
19	0xbffbe6f9	-1.9679862
20	0xbfcfa628	-1.6222582
21	0xbfc14254	-1.5098367
22	0xbfcd0c74	-1.6019425
23	0xbc533e39	-0.012893253
24	0x367369de	3.6271445e-06
25	0x367369de	3.6271445e-06
26	0x367369de	3.6271445e-06
27	0x367369de	3.6271445e-06
28	0x367369de	3.6271445e-06
29	0xb549aeab	-7.513251e-07
30	0xc1d8cb10	-27.099152
31	0xc1cec7af	-25.847502
32	0xc1ad1b7e	-21.638424
33	0xc190a5a7	-18.080885
34	0xc1bf8af2	-23.942844
35	0xbe3227d8	-0.17398012
36	0xb83ec723	-4.548499e-05
37	0xb817671b	-3.609723e-05
38	0xb7ffb836	-3.0484149e-05
39	0xb7d05920	-2.4837034e-05
40	0xb7f2bca0	-2.8936483e-05
41	0x3620557f	2.3891623e-06
42	0x3d294d2f	0.041333374
43	0x3d05a670	0.03262943
44	0x3d11bcb5	0.035580356
45	0x3dae615f	0.08514666
46	0x3e67d4fb	0.2263984
47	0x39e3b79b	0.0004343361
48	0x3c58e608	0.0132384375
49	0x3b5d596a	0.0033775219
50	0x3de1e07c	0.11029145
51	0xb81bdd80	-3.7161168e-05
52	0x39d4f4d0	0.0004061819
53	0xb8243dcc	-3.91582e-05
54	0xbfa49de2	-1.2860682
55	0xc097d631	-4.7448964
56	0xc045816a	-3.0860238
57	0xc0fb6e76	-7.857234
58	0x41a3c25f	20.469908
59	0xbd9da399	-0.076972194
60	0xc16ce6df	-14.806365
61	0xc135c511	-11.360612
62	0xc12b3be9	-10.7021265
63	0xc11daada	-9.854212
64	0xc1ce474b	-25.784811
65	0xbe5593d8	-0.20857179
66	0xc0c052c8	-6.010105
67	0xc0f675e1	-7.7018895
68	0xc0bd5e35	-5.91775
69	0xc0826422	-4.0747232
70	0xc0860160	-4.187668
71	0xbd00cbff	-0.031444546
72	0xc1b56dc0	-22.678589
73	0xc1ad62ed	-21.673304
74	0xc18e728b	-17.80593
75	0xc15fef12	-13.995867
76	0xc197e943	-18.988897
77	0xbdead2a0	-0.11465955
78	0x3940b967	0.00018379615
79	0xba0a6ac3	-0.0005280191
80	0xb8c344ab	-9.311115e-05
81	0xba20040a	-0.00061041175
82	0xbc90e4e5	-0.01768727
83	0xb90bffab	-0.00013351317
84	0x00000004	6e-45
85	0x00000004	6e-45
86	0x00000004	6e-45
87	0x00000004	6e-45
88	0x00000004	6e-45
89	0x00000004	6e-45
90	0xbf75e5b2	-0.9605361
91	0xbf7f2978	-0.9967265
92	0xbf8da684	-1.1066442
93	0xbfabaac9	-1.3411494
94	0xc0209c9f	-2.5095594
95	0xbc8522fd	-0.016252035
96	0x3f351bd3	0.7074558
97	0x3d8d72cb	0.06906661
98	0x3d5ce8e9	0.053933058
99	0x3d07d090	0.033157885
100	0x3dfbd2b4	0.12296048
101	0x3968a54e	0.00022186825
102	0x40bed56d	5.963553
103	0x40ccfab1	6.405602
104	0x40b44fbe	5.634734
105	0x408e17a0	4.440384
106	0x408609dc	4.1887035
107	0x3d4dbc61	0.05022848
108	0xc0d5e840	-6.684601
109	0xc0ad47ee	-5.4150305
110	0xc07f6980	-3.9908142
111	0xc0138264	-2.3048334
112	0xbff9df23	-1.9521221
113	0xbc286f09	-0.010280379
114	0xbe2d9148	-0.16949952
115	0xbecbf518	-0.3983543
116	0x3f47d34a	0.78056777
117	0xbed5b84c	-0.4174217
118	0xbe62d780	-0.22152519
119	0x3cbfb5bd	0.02340209
120	0x371a767c	9.206702e-06
121	0x371a767c	9.206702e-06
122	0x371a767c	9.206702e-06
123	0x371a767c	9.206702e-06
124	0x371a767c	9.206702e-06
125	0xb5fff33d	-1.9069772e-06
126	0xc1b8a061	-23.07831
127	0xc1b09f30	-22.077728
128	0xc19452a3	-18.54035
129	0xc17b3f51	-15.702958
130	0xc1a29ff7	-20.328108
131	0xbe1d02e8	-0.1533314
132	0x3dc0f62f	0.09421956
133	0x3e3df644	0.18550974
134	0x3da6732d	0.08127437
135	0x3d753b8e	0.05987125
136	0x3e14a324	0.14515358
137	0xb7cdbd7c	-2.452614e-05
138	0x3165579c	3.3373686e-09
139	0x32a9b1d9	1.9755065e-08
140	0x32b3dd42	2.0938959e-08
141	0x312de1e7	2.5303224e-09
142	0x310c76a1	2.0440114e-09
143	0xaf830bd5	-2.3837168e-10
144	0xbdb5ed47	-0.08883148
145	0xbd93c470	-0.07215202
146	0xbe9d5d41	-0.3073521
147	0xbd3de1ab	-0.046357792
148	0xbc837622	-0.016047541
149	0xb9d20569	-0.00040058352
150	0x4097f980	4.7492065
151	0x4082c551	4.0865865
152	0x4044ba7e	3.0738826
153	0x3fe03b4f	1.75181
154	0x3fb03209	1.376527
155	0xb9e02899	-0.00042754857
156	0x371f0b91	9.4798315e-06
157	0x371f0b91	9.4798315e-06
158	0x371f0b91	9.4798315e-06
159	0x371f0b91	9.4798315e-06
160	0x371f0b91	9.4798315e-06
161	0xb603c488	-1.9634917e-06
162	0xbf71d387	-0.9446339
163	0xbf9782c5	-1.1836783
164	0xbf774192	-0.9658443
165	0xbf8d5a34	-1.1043153
166	0xc020cdb0	-2.5125542
167	0xbbb60f73	-0.005556041
168	0xbde39882	-0.11113073
169	0xbe15f58e	-0.14644453
170	0xbe0ef655	-0.13961156
171	0xbe103f53	-0.14086656
172	0xbf7af634	-0.98031926
173	0xbb038350	-0.0020067282
174	0x3a3584d9	0.0006924398
175	0x3a3584d9	0.0006924398
176	0x3a3584d9	0.0006924398
177	0x3a3584d9	0.0006924398
178	0xbceb9b5e	-0.028760608
179	0xb9357449	-0.00017304825
180	0xc062c495	-3.5432484
181	0xc035fe5e	-2.8436503
182	0xbfa3f7c3	-1.2809986
183	0xbfbbcd17	-1.4671963
184	0xbfbeef03	-1.491669
185	0xbc16c495	-0.009202142
186	0x39f69df2	0.00047038455
187	0x39f69df2	0.00047038455
188	0x39f69df2	0.00047038455
189	0x39f69df2	0.00047038455
190	0xbca17b42	-0.019712094
191	0xb8f6e5c5	-0.00011772992
192	0x3d7be067	0.061493304
193	0x3d53dcc6	0.051724218
194	0x3f32780c	0.69714427
195	0x3d9408af	0.07228219
196	0x3e496d6c	0.19670647
197	0x3a8f27be	0.0010921878
198	0xc1024a7a	-8.143183
199	0xc1005412	-8.020525
200	0xc0d4a084	-6.644594
201	0xc09c5078	-4.884823
202	0xc0d32900	-6.598755
203	0xbd30fc45	-0.043209333
204	0xb6e92fd7	-6.9495104e-06
205	0xb6e92fd7	-6.9495104e-06
206	0xb6e92fd7	-6.9495104e-06
207	0xb6e92fd7	-6.9495104e-06
208	0xb6e92fd7	-6.9495104e-06
209	0x35c12c8a	1.4392583e-06
210	0xc02e1780	-2.7201843
211	0xbf655876	-0.89588106
212	0xbf110090	-0.56641483
213	0xbf19f28e	-0.60135734
214	0xbf110960	-0.5665493
215	0xbbfa549c	-0.0076394808
216	0xbc1a463a	-0.009416157
217	0xbba01436	-0.004885222
218	0xba5fd0b6	-0.0008537875
219	0xba71cc87	-0.00092238974
220	0xba8b525c	-0.0010629403
221	0x38c9cc40	9.6224714e-05
222	0x3e482573	0.19545536
223	0x3e79be5c	0.24389023
224	0x3e7b79e4	0.24558216
225	0x3ec1ec90	0.37875795
226	0x3fe279b0	1.7693386
227	0x3b49a23b	0.0030766863
228	0x00000004	6e-45
229	0x00000004	6e-45
230	0x00000004	6e-45
231	0x00000004	6e-45
232	0x00000004	6e-45
233	0x80000004	-6e-45
234	0xb7176423	-9.023616e-06
235	0xb7176423	-9.023616e-06
236	0xb7176423	-9.023616e-06
237	0xb7176423	-9.023616e-06
238	0xb7176423	-9.023616e-06
239	0x35fad4d0	1.8688388e-06
240	0x428c45aa	70.13606
241	0x4284433e	66.13133
242	0x425ce4c9	55.223423
243	0x42346eda	45.108253
244	0x42805131	64.15858
245	0x3edf18b9	0.4357355
246	0xbe1ee37f	-0.1551647
247	0xbe4030d1	-0.18768622
248	0xbe484600	-0.19557953
249	0xbf0bbb88	-0.54583025
250	0xbf1d24fa	-0.61384547
251	0x3bbf532e	0.005838773
252	0xbd73e9b2	-0.05954904
253	0xbd485a3a	-0.04891417
254	0xbd29c775	-0.041449983
255	0xbccbeec9	-0.024894135

exp_avg_sq f4 [50, 6]
0	0x388ba67d	6.659047e-05
1	0x388ba67d	6.659047e-05
2	0x388ba67d	6.659047e-05
3	0x388ba67d	6.659047e-05
4	0x388ba67d	6.659047e-05
5	0x366d0e5c	3.532411e-06
6	0x33d0a5d6	9.71592e-08
7	0x379e93b5	1.890385e-05
8	0x356112e7	8.384654e-07
9	0x33add1bf	8.094093e-08
10	0x3382081e	6.055073e-08
11	0x2c8b506a	3.9595454e-12
12	0x42e1e7fd	112.9531
13	0x42c000ce	96.00157
14	0x42b46b1f	90.20922
15	0x42af620d	87.691505
16	0x42816aee	64.70885
17	0x3a52cc83	0.0008041339
18	0x435ea6b7	222.65123
19	0x431659cc	150.35077
20	0x42d715f0	107.54285
21	0x42ae4e57	87.15301
22	0x42a70e8a	83.5284
23	0x3a9a5f37	0.0011777644
24	0x36f8707f	7.404072e-06
25	0x36f8707f	7.404072e-06
26	0x36f8707f	7.404072e-06
27	0x36f8707f	7.404072e-06
28	0x36f8707f	7.404072e-06
29	0x34f1de50	4.5051502e-07
30	0x450a980d	2217.5032
31	0x44e9c0dd	1870.027
32	0x44d91f8c	1736.9858
33	0x44dd66bd	1771.2106
34	0x44ea2775	1873.233
35	0x3d0e60c7	0.034760263
36	0x3b2c7236	0.0026313192
37	0x3a0446e1	0.0005045962
38	0x3a1928c8	0.00058425637
39	0x3a4c4633	0.0007792443
40	0x3b04eb30	0.0020281784
41	0x366c4c98	3.5211324e-06
42	0x3d336e85	0.04380657
43	0x3d1e047d	0.0385785
44	0x3d2c8fd6	0.04212936
45	0x3df86574	0.12128726
46	0x3f830ec7	1.0238885
47	0x37776027	1.47447345e-05
48	0x40020fcc	2.0322142
49	0x3f68bccc	0.9091308
50	0x3f6d2081	0.9262772
51	0x3ecba6b9	0.39775637
52	0x3e1bd8a5	0.15219362
53	0x36190261	2.2800161e-06
54	0x4629e94b	10874.323
55	0x461f9885	10214.13
56	0x46050106	8512.256
57	0x45fab9e1	8023.235
58	0x45df3879	7143.059
59	0x3d0c05d3	0.034185242
60	0x45910207	4640.2534
61	0x458ea17d	4564.186
62	0x457c4ffd	4036.9993
63	0x4565c102	3676.063
64	0x453229d3	2850.614
65	0x3e26f1f6	0.16303238
66	0x43499971	201.59938
67	0x43497161	201.44289
68	0x4325e686	165.90048
69	0x430bce78	139.80652
70	0x42f0155d	120.041725
71	0x3ba3ffc5	0.0050048553
72	0x44cecf79	1654.4835
73	0x44abe3c6	1375.1179
74	0x44938948	1180.29
75	0x4486f0f0	1079.5293
76	0x44885a19	1090.8156
77	0x3cfbe34b	0.03074803
78	0x3bb9fd66	0.0056759594
79	0x3b808de1	0.0039231633
80	0x3b9c8b59	0.0047773537
81	0x3c62ef6c	0.013851028
82	0x3edbaea9	0.42906693
83	0x377eae66	1.5180185e-05
84	0x000001f4	7e-43
85	0x000001f4	7e-43
86	0x000001f4	7e-43
87	0x000001f4	7e-43
88	0x000001f4	7e-43
89	0x000001f4	7e-43
90	0x4192b2a5	18.337229
91	0x4188855b	17.065115
92	0x418e939f	17.82208
93	0x41973187	18.899183
94	0x41e9f698	29.245407
95	0x39edb1a7	0.00045336524
96	0x4048d953	3.1382644
97	0x3e829a19	0.25508192
98	0x3e33b391	0.17548968
99	0x3e477439	0.19477929
100	0x3fcc97b2	1.5983794
101	0x37b9bb26	2.2140866e-05
102	0x42f1d6c7	120.91949
103	0x42d2f9b2	105.487686
104	0x42efd853	119.92251
105	0x42eaa440	117.3208
106	0x42f288bf	121.26708
107	0x3c0565d4	0.0081419535
108	0x42ed192a	118.54915
109	0x429c8664	78.26248
110	0x4268da9d	58.21349
111	0x42140b6b	37.01115
112	0x4194b5f5	18.588846
113	0x3ad92c7d	0.0016569045
114	0x4259fccc	54.496872
115	0x420b0123	34.75111
116	0x420056d9	32.084812
117	0x41c92b25	25.146067
118	0x41d8c496	27.09599
119	0x3a61c349	0.00086121686
120	0x3a348eb8	0.0006887722
121	0x3c88cc30	0.016698927
122	0x38706dfb	5.7322886e-05
123	0x3844f23f	4.695565e-05
124	0x38244732	3.9166953e-05
125	0x3529b180	6.32157e-07
126	0x44ca5d35	1618.9127
127	0x44ac0044	1376.0083
128	0x44a3e2f4	1311.0923
129	0x44ab7c38	1371.8818
130	0x44b633f1	1457.6232
131	0x3cbdc187	0.02316357
132	0x3e6335e5	0.22188528
133	0x3e9231ad	0.28553525
134	0x3e36e4b6	0.17860684
135	0x3e1ca62f	0.15297769
136	0x3e7bcfe2	0.2459102
137	0x363c5d97	2.806866e-06
138	0x3a2ea09b	0.00066615053
139	0x3c64cd36	0.013964942
140	0x3db1d11e	0.08682464
141	0x39fe6ca4	0.000485276
142	0x39ac1436	0.00032821455
143	0x360617be	1.9981376e-06
144	0x3ddb5450	0.10709441
145	0x3e1138ad	0.14181776
146	0x3f35739c	0.7087953
147	0x3dec12bf	0.11527013
148	0x3d97c322	0.074102655
149	0x371ca242	9.336103e-06
150	0x42557c01	53.371098
151	0x4212dff9	36.718723
152	0x41d1cf95	26.226358
153	0x4181df59	16.234056
154	0x4112077f	9.12683
155	0x39a76c9b	0.0003193364
156	0x384a7311	4.8267717e-05
157	0x384a7309	4.8267688e-05
158	0x384a7309	4.8267688e-05
159	0x384a7308	4.8267684e-05
160	0x384a7308	4.8267684e-05
161	0x362b74c5	2.5548954e-06
162	0x40e7df78	7.246029
163	0x40da827a	6.8284273
164	0x40a99b1a	5.3001833
165	0x40c022bb	6.0042396
166	0x41a1611e	20.17242
167	0x390470b5	0.00012630488
168	0x3d123d8d	0.03570323
169	0x3d21cc99	0.03950176
170	0x3d6823dc	0.056674823
171	0x3dc259f9	0.09489817
172	0x40512c1f	3.268318
173	0x387bac0f	6.0003305e-05
174	0x3625e75c	2.4721585e-06
175	0x3625e75c	2.4721585e-06
176	0x3625e75c	2.4721585e-06
177	0x3625e75c	2.4721585e-06
178	0x3b05ea70	0.0020433925
179	0x3478ec0f	2.3182677e-07
180	0x42bbc165	93.87772
181	0x428eea66	71.45781
182	0x424aff92	50.74958
183	0x42259ecd	41.40508
184	0x42178069	37.8754
185	0x3a13e386	0.00056415086
186	0x36bfa364	5.7112647e-06
187	0x36bfa364	5.7112647e-06
188	0x36bfa364	5.7112647e-06
189	0x38ab40f0	8.166011e-05
190	0x3a57a748	0.0008226526
191	0x34bc134f	3.5031778e-07
192	0x3d349d74	0.04409547
193	0x3dcae81d	0.09907553
194	0x3fb6811c	1.4258151
195	0x3d3b8d6d	0.04578917
196	0x3ffbdc6f	1.9676646
197	0x38baa17b	8.899249e-05
198	0x43628424	226.51617
199	0x433a8617	186.52379
200	0x43288f03	168.55864
201	0x430fe492	143.89285
202	0x432deb2c	173.91864
203	0x3b4ffe27	0.003173718
204	0x37da6457	2.603435e-05
205	0x37da6457	2.603435e-05
206	0x37da6457	2.603435e-05
207	0x37da6457	2.603435e-05
208	0x37da6457	2.603435e-05
209	0x35b95712	1.3808915e-06
210	0x415d9d16	13.850851
211	0x4057475d	3.3637307
212	0x3f565891	0.8372889
213	0x3f24e9a4	0.6441901
214	0x3f07c6db	0.53037804
215	0x39326891	0.00017014357
216	0x3d9cb2c9	0.07651288
217	0x3c7c2817	0.015390418
218	0x3c0e0173	0.008667338
219	0x3c4727b8	0.012155466
220	0x3d18e6c1	0.03732944
221	0x383d10d1	4.5076773e-05
222	0x3e94b230	0.29042196
223	0x3e9e947e	0.30972666
224	0x3eba5adc	0.36397445
225	0x3fb3c3d5	1.4044138
226	0x416137b8	14.076103
227	0x397ae440	0.00023926888
228	0x37d69758	2.5581263e-05
229	0x35eb3359	1.7523809e-06
230	0x372d3efd	1.0326269e-05
231	0x3797ba58	1.8087376e-05
232	0x38356975	4.3251977e-05
233	0x350a0283	5.141266e-07
234	0x39f31def	0.00046370874
235	0x39d4d3cf	0.000405936
236	0x3ddf783f	0.10911607
237	0x39e77117	0.00044144012
238	0x39a8426e	0.0003209295
239	0x361c27a5	2.3268888e-06
240	0x46742ddd	15627.466
241	0x464f47e3	13265.972
242	0x4638231d	11784.778
243	0x46317696	11357.646
244	0x4633f2d6	11516.709
245	0x3eb08c06	0.3448183
246	0x3f7e2e5b	0.9928948
247	0x3ec7bc7b	0.39010987
248	0x3ecfbecb	0.4057525
249	0x409fa3be	4.988738
250	0x401b26d4	2.4242449
251	0x39fd99e9	0.00048370592
252	0x3fbba5b4	1.4659944
253	0x3fb809d8	1.4378004
254	0x3f2e9964	0.68202806
255	0x3eb31a96	0.3498122

exp_avg f4 [50]
0	0xb73a8d3c	-1.1119348e-05
1	0x00000004	6e-45
2	0x3d53aad5	0.05167659
3	0x3cdc4a62	0.026890937
4	0xb67375be	-3.6278357e-06
5	0xbe7b5822	-0.24545339
6	0x35eabe7d	1.7489798e-06
7	0x3b1bcf4a	0.0023774677
8	0x39904ad2	0.00027521566
9	0xbdbfd1ee	-0.09366213
10	0xbe16eff4	-0.14739972
11	0xbcdc8edc	-0.02692359
12	0xbe414303	-0.18873219
13	0xb9913c5f	-0.00027701535
14	0x00000004	6e-45
15	0xbc97f562	-0.018549625
16	0x3b3536ab	0.0027650993
17	0x3d8fcbd5	0.070213
18	0xbd5a5ff0	-0.05331415
19	0x3bcaec30	0.0061927065
20	0xb71a767c	-9.206702e-06
21	0xbe5a331d	-0.2130856
22	0x3aabf08c	0.0013117953
23	0x2f29178a	1.5378823e-10
24	0xba64b832	-0.0008724957
25	0x3d0d2950	0.034463227
26	0xb71f1352	-9.481637e-06
27	0xbc5dca64	-0.013537023
28	0xbb4b28e8	-0.0030999724
29	0xba3584dd	-0.00069244
30	0xbc632b17	-0.013865254
31	0xb9f69de0	-0.00047038402
32	0x3b25d4b5	0.0025303785
33	0xbd909ae3	-0.07060792
34	0x36e93b30	6.9508314e-06
35	0xbc79f195	-0.015255352
36	0xb865bdfa	-5.4774784e-05
37	0x3bb3f91d	0.005492343
38	0x00000004	6e-45
39	0x37176b81	9.025332e-06
40	0x3f1e0b06	0.6173557
41	0xbc2d9a5c	-0.010595884
42	0xbad778c8	-0.0016439194
43	0x3c458ab4	0.012056995
44	0x3cf7964a	0.03022303
45	0xbaf3e9f8	-0.0018609157
46	0x3e4da3f8	0.2008208
47	0x350679d5	5.009618e-07
48	0x00000004	6e-45
49	0x3c7a4797	0.015275857

exp_avg_sq f4 [50]
0	0x38a022d9	7.6358854e-05
1	0x2f0f59e2	1.3037707e-10
2	0x3cb85bac	0.02250465
3	0x3e8e95b0	0.27848577
4	0x370da11b	8.441765e-06
5	0x3f091001	0.53540045
6	0x374c3c77	1.2173426e-05
7	0x383406f8	4.2921834e-05
8	0x38e83963	0.00011073311
9	0x3fc9ab67	1.5755433
10	0x3f1fe13f	0.62453073
11	0x3d226b15	0.039652903
12	0x3ede33c1	0.4339886
13	0x37147451	8.848569e-06
14	0x000001f4	7e-43
15	0x3bde37ab	0.0067815385
16	0x3959afda	0.00020760242
17	0x3c8b358b	0.016993305
18	0x3cb07203	0.02153874
19	0x3d1bfcaf	0.038082775
20	0x3802de9f	3.1201747e-05
21	0x3ec1539a	0.37759095
22	0x3842313d	4.629906e-05
23	0x35aa538e	1.2690305e-06
24	0x37743bd7	1.4557466e-05
25	0x3c37a0aa	0.011207739
26	0x3868225f	5.534512e-05
27	0x3a9cba5f	0.0011957398
28	0x38137b81	3.5162553e-05
29	0x36311055	2.6384562e-06
30	0x3cbe1eac	0.023207985
31	0x36d98502	6.482588e-06
32	0x383c24a3	4.4856813e-05
33	0x3d6e0307	0.058108356
34	0x37fabb8d	2.9889658e-05
35	0x3a3bfd6c	0.00071712467
36	0x388873c9	6.506552e-05
37	0x39976674	0.00028877298
38	0x33eed92d	1.1122243e-07
39	0x38561bfa	5.104763e-05
40	0x4075f7b8	3.8432446
41	0x3b7fc563	0.0039027564
42	0x3a080b71	0.0005189693
43	0x3bc7db01	0.0060991053
44	0x3bd0b448	0.0063691474
45	0x3829e6b7	4.050761e-05
46	0x3f24bb2b	0.64348096
47	0x37cfa72d	2.475417e-05
48	0x31a420b2	4.776745e-09
49	0x39ea6d62	0.00044713455

exp_avg f4 [4, 50]
0	0xb75915c3	-1.2939275e-05
1	0x00000004	6e-45
2	0x406e1fab	3.7206829
3	0xbd88223c	-0.06647155
4	0xb7504ff9	-1.2416386e-05
5	0x40ab5c19	5.3549924
6	0xb67a9fbc	-3.734588e-06
7	0xbe212db4	-0.1574009
8	0xbd26ca43	-0.040720236
9	0x3eea658f	0.45780608
10	0x3ff77140	1.9331436
11	0x3fa21352	1.2662146
12	0x40824b8b	4.0717216
13	0xb6917299	-4.3346777e-06
14	0x80000004	-6e-45
15	0xbe9f2bfe	-0.3108825
16	0xbe889e8f	-0.2668347
17	0xbdb31a30	-0.08745229
18	0x3f6a234a	0.91460097
19	0xbc1b9416	-0.009495756
20	0xb48b1f11	-2.591337e-07
21	0x4020e6c8	2.5140858
22	0xbd86825f	-0.06567835
23	0x80031fe1	-2.86942e-40
24	0xbe73da8d	-0.2381384
25	0x3ffa397b	1.9548792
26	0xb7852556	-1.5872221e-05
27	0xbf081aa9	-0.5316568
28	0xbd6b1504	-0.05739309
29	0xb747adca	-1.1901788e-05
30	0x3ddec528	0.10877448
31	0xb7be3e5b	-2.2678802e-05
32	0xbd5d9a28	-0.054102093
33	0x3f7f0b96	0.99627054
34	0xb7938c85	-1.75892e-05
35	0x3e01a21f	0.126595
36	0xaf8214fb	-2.366177e-10
37	0xbe4a8f57	-0.19781242
38	0x80000004	-6e-45
39	0xb6f7e04e	-7.387286e-06
40	0x4080ba60	4.022751
41	0x39f49112	0.00046647392
42	0xbbd9c03b	-0.00664523
43	0x3f1ecb7a	0.6202923
44	0x400937ca	2.14403
45	0xbf110335	-0.5664552
46	0xbe253711	-0.16134287
47	0x33451841	4.5889696e-08
48	0x00000004	6e-45
49	0x3e50e1d1	0.20398642
50	0x80000004	-6e-45
51	0x00000004	6e-45
52	0x00000004	6e-45
53	0x80000004	-6e-45
54	0x00000004	6e-45
55	0x00000004	6e-45
56	0x80000004	-6e-45
57	0x80000004	-6e-45
58	0x80000004	-6e-45
59	0x80000004	-6e-45
60	0x80000004	-6e-45
61	0x80000004	-6e-45
62	0x80000004	-6e-45
63	0x80000004	-6e-45
64	0x80000004	-6e-45
65	0x00000004	6e-45
66	0x80000004	-6e-45
67	0x00000004	6e-45
68	0x00000004	6e-45
69	0x80000004	-6e-45
70	0x00000004	6e-45
71	0x00000004	6e-45
72	0x80000004	-6e-45
73	0x00000004	6e-45
74	0x80000004	-6e-45
75	0x80000004	-6e-45
76	0x00000004	6e-45
77	0x80000004	-6e-45
78	0x80000004	-6e-45
79	0x00000004	6e-45
80	0x80000004	-6e-45
81	0x00000004	6e-45
82	0x00000004	6e-45
83	0x00000004	6e-45
84	0x00000004	6e-45
85	0x00000004	6e-45
86	0x80000004	-6e-45
87	0x80000004	-6e-45
88	0x80000004	-6e-45
89	0x00000004	6e-45
90	0x80000004	-6e-45
91	0x00000004	6e-45
92	0x80000004	-6e-45
93	0x80000004	-6e-45
94	0x00000004	6e-45
95	0x00000004	6e-45
96	0x00000004	6e-45
97	0x80000004	-6e-45
98	0x80000004	-6e-45
99	0x00000004	6e-45
100	0x80000004	-6e-45
101	0x00000004	6e-45
102	0xc096fc8e	-4.7183294
103	0xbe187411	-0.14888026
104	0x00000004	6e-45
105	0xc0f704f6	-7.7193556
106	0xb769e806	-1.3941904e-05
107	0x3bda426f	0.0066607515
108	0xbc72b098	-0.014812611
109	0xbf6f2c53	-0.9342701
110	0xc044bc3a	-3.0739884
111	0xbfd4c71b	-1.6623262
112	0xc0b7e758	-5.74699
113	0x38e78c5e	0.00011041084
114	0x00000004	6e-45
115	0x3d29910f	0.041398104
116	0xbe2e9498	-0.17048872
117	0xbaa69eb0	-0.0012712087
118	0xbfa7882f	-1.3088435
119	0xbdab944c	-0.08377895
120	0x80000004	-6e-45
121	0xc064f6bb	-3.5775592
122	0xbe94d920	-0.29071903
123	0xaf9e5ec0	-2.8807357e-10
124	0xbe197141	-0.14984609
125	0xc0447f64	-3.0702753
126	0x80000004	-6e-45
127	0x3d733bca	0.05938319
128	0x3b66a37c	0.003519266
129	0x80000004	-6e-45
130	0xbe833962	-0.25629717
131	0x00000004	6e-45
132	0xbc0a0e44	-0.008426253
133	0xbfe9ce88	-1.8266153
134	0x00000004	6e-45
135	0xbe14c16a	-0.14526907
136	0xb9db1021	-0.00041782952
137	0x3c625ef4	0.013816584
138	0x80000004	-6e-45
139	0x80000004	-6e-45
140	0xc0bcce0b	-5.9001517
141	0xbb5a0855	-0.0033269126
142	0xbc38db0e	-0.011282695
143	0xbfb272e5	-1.3941313
144	0xc04bc5d8	-3.1839504
145	0x3d12b8c0	0.035820723
146	0xbe3ff856	-0.18747076
147	0xb3282cde	-3.9156355e-08
148	0x00000004	6e-45
149	0xbeeaf13e	-0.45887178
150	0x1d1769a1	2.0039292e-21
151	0x00000004	6e-45
152	0xc0dcfd83	-6.9059463
153	0xbd926882	-0.071488395
154	0x1d5ff8c1	2.9642407e-21
155	0xc160709c	-14.027493
156	0x80000004	-6e-45
157	0xbc7e2de4	-0.015513871
158	0xbb7209fd	-0.0036932223
159	0xbf9b6272	-1.2139418
160	0xc0a536a8	-5.162922
161	0xc0269f06	-2.603456
162	0xc12b660b	-10.712413
163	0xbb1f2796	-0.002428507
164	0x80000004	-6e-45
165	0xbf1c9de8	-0.61178446
166	0xbea9fda6	-0.3320133
167	0xbf83fedd	-1.0312153
168	0xc0073f36	-2.113233
169	0xbd620136	-0.055176936
170	0x00000004	6e-45
171	0xc0d91319	-6.7835813
172	0xbed1c86d	-0.40973225
173	0x28cb5513	2.2574422e-14
174	0xbe1388d2	-0.14407662
175	0xc068dc1c	-3.6384344
176	0x1d851ff0	3.523783e-21
177	0xbf5026a0	-0.8130894
178	0xbb8ddf1f	-0.0043295766
179	0xb9f94aa4	-0.00047548593
180	0xbfa5d77b	-1.2956384
181	0xba8bf428	-0.0010677623
182	0xbb210bbe	-0.002457365
183	0xc06831d4	-3.6280413
184	0x1de7fbb3	6.140544e-21
185	0xbe895d16	-0.2682883
186	0x80000004	-6e-45
187	0xbc66ed47	-0.014094657
188	0x80000004	-6e-45
189	0x1d500d04	2.75353e-21
190	0xc13538cf	-11.326369
191	0x802f99a1	-4.37138e-39
192	0xb8e704f0	-0.00011015858
193	0xbfd4e62b	-1.6632742
194	0xc0cc6e6c	-6.388479
195	0xbe244061	-0.16040184
196	0xc015a774	-2.3383455
197	0x80000004	-6e-45
198	0x00000004	6e-45
199	0xbf38d62d	-0.72201806

exp_avg_sq f4 [4, 50]
0	0x38e1ae61	0.00010761317
1	0x32172fe3	8.800245e-09
2	0x42a24ed8	81.15399
3	0x3ca3aba0	0.019979298
4	0x38ba7f85	8.8929235e-05
5	0x43c7a62f	399.2983
6	0x37d424a1	2.5289426e-05
7	0x3db94968	0.09047204
8	0x3d655467	0.055988695
9	0x408023cb	4.0043693
10	0x423213c9	44.51932
11	0x41d9214c	27.141258
12	0x436c7933	236.47343
13	0x3a72d4df	0.00092632876
14	0x000001f4	7e-43
15	0x40075428	2.1145115
16	0x3ec8367e	0.39104074
17	0x3eaa280c	0.33233678
18	0x41011f5d	8.070157
19	0x3cfbd0a6	0.03073914
20	0x36f50be6	7.302954e-06
21	0x42fe61bd	127.190895
22	0x3f562080	0.8364334
23	0x365b07d4	3.26381e-06
24	0x3ec9227c	0.39284122
25	0x41996266	19.173046
26	0x391fcc0e	0.00015239438
27	0x3fba1146	1.4536521
28	0x3c05190f	0.00812365
29	0x38acb7f8	8.235866e-05
30	0x413e2918	11.885033
31	0x39908640	0.00027565844
32	0x3baa4c67	0.005197096
33	0x42413054	48.297195
34	0x39286ed6	0.00016063018
35	0x3dc01351	0.09378684
36	0x33c1d31b	9.025663e-08
37	0x3df97d52	0.12182106
38	0x261e85ee	5.499877e-16
39	0x37f0cc90	2.8705486e-05
40	0x4323b6f1	163.71461
41	0x3986ee74	0.00025736133
42	0x3b2e7af8	0.0026623588
43	0x4092fb49	4.5931745
44	0x425a82e4	54.627823
45	0x3fa0119e	1.2505376
46	0x40c0c458	6.0239677
47	0x342944d4	1.5764391e-07
48	0x359d36cc	1.171336e-06
49	0x3f2c4971	0.6729956
50	0x000001f4	7e-43
51	0x000001f4	7e-43
52	0x000001f4	7e-43
53	0x2711c258	2.0228146e-15
54	0x000001f4	7e-43
55	0x158f027a	5.776115e-26
56	0x267ff7d8	8.880679e-16
57	0x24b30025	7.762912e-17
58	0x249fc60b	6.9290756e-17
59	0x257188d2	2.0949774e-16
60	0x2383391a	1.4227232e-17
61	0x192388e3	8.4545465e-24
62	0x143fa5cd	9.675734e-27
63	0x22ed3ced	6.4303486e-18
64	0x000001f4	7e-43
65	0x165b82f8	1.7732006e-25
66	0x253e0752	1.6482353e-16
67	0x000001f4	7e-43
68	0x17a0dc71	1.0395405e-24
69	0x243c5431	4.0837315e-17
70	0x000001f4	7e-43
71	0x000001f4	7e-43
72	0x251b1405	1.345089e-16
73	0x000001f4	7e-43
74	0x1675bc2b	1.9850318e-25
75	0x2602fe08	4.5447087e-16
76	0x000001f4	7e-43
77	0x23124a24	7.930376e-18
78	0x13a5e886	4.188114e-27
79	0x000001f4	7e-43
80	0x000001f4	7e-43
81	0x000001f4	7e-43
82	0x000001f4	7e-43
83	0x189a2b08	3.9851517e-24
84	0x000001f4	7e-43
85	0x000001f4	7e-43
86	0x22a97be2	4.5938708e-18
87	0x20dec1d2	3.7736522e-19
88	0x2550918a	1.8090435e-16
89	0x000001f4	7e-43
90	0x000001f4	7e-43
91	0x1c3ce6a1	6.2502063e-22
92	0x269f1833	1.10394e-15
93	0x23f9e4f0	2.7093593e-17
94	0x17e98835	1.5091656e-24
95	0x000001f4	7e-43
96	0x000001f4	7e-43
97	0x25c27403	3.3732248e-16
98	0x000001f4	7e-43
99	0x000001f4	7e-43
100	0x28a54747	1.8349592e-14
101	0x2279d947	3.3860818e-18
102	0x423cea12	47.228584
103	0x3e36ea26	0.17862758
104	0x1891233a	3.751719e-24
105	0x43951ca8	298.22388
106	0x3a95bf29	0.0011424768
107	0x3d1f00f0	0.038819253
108	0x3d9cdb22	0.07658984
109	0x40f4bc78	7.6480064
110	0x423c4528	47.067535
111	0x413af897	11.685691
112	0x4328afea	168.68716
113	0x3a537c78	0.00080675585
114	0x000001f4	7e-43
115	0x3f65ba90	0.89737797
116	0x3e8e0f4f	0.27746055
117	0x3cf1352c	0.0294443
118	0x40cf179e	6.471633
119	0x3e858857	0.26080582
120	0x2a9f5db0	2.8309083e-13
121	0x42ceecaf	103.46227
122	0x3fa9ab65	1.325543
123	0x3814ad85	3.5447552e-05
124	0x3e33ec0b	0.17570512
125	0x41ab989e	21.44952
126	0x272e595d	2.4195795e-15
127	0x3f0a768f	0.54087156
128	0x3bc8f4ad	0.0061326833
129	0x000001f4	7e-43
130	0x40e38f38	7.1112328
131	0x000001f4	7e-43
132	0x3a824c38	0.0009940928
133	0x421d99cd	39.400196
134	0x000001f4	7e-43
135	0x3d7efe46	0.062254213
136	0x3b27192b	0.002549718
137	0x3dc0fc29	0.09423096
138	0x3513e162	5.508974e-07
139	0x17413e57	6.2440347e-25
140	0x42cb8dc9	101.776924
141	0x3b12b7e9	0.002238745
142	0x3c85fd42	0.016356114
143	0x4068bcf7	3.6365335
144	0x42274f89	41.82767
145	0x3ee887fa	0.45416242
146	0x40180bca	2.3757195
147	0x38ce49bb	9.836579e-05
148	0x3104b4c6	1.9311286e-09
149	0x3f2983f5	0.66216975
150	0x3693d834	4.4061107e-06
151	0x3170ff43	3.5069696e-09
152	0x42ae50a0	87.15747
153	0x3d41cbcc	0.047313496
154	0x3725a74e	9.87372e-06
155	0x444335ba	780.8395
156	0x3408f767	1.2755991e-07
157	0x3cd4214c	0.025894783
158	0x3d722130	0.05911368
159	0x41727f30	15.156052
160	0x43004aad	128.2917
161	0x4200447d	32.066883
162	0x43df9189	447.137
163	0x3a97d7aa	0.0011584659
164	0x000001f4	7e-43
165	0x40be752b	5.9518027
166	0x3e5c09a0	0.21488047
167	0x3f614aeb	0.8800494
168	0x40d99bce	6.800269
169	0x3e17b522	0.1481519
170	0x24bdf801	8.238582e-17
171	0x43844546	264.5412
172	0x4028fde1	2.6404955
173	0x38d48bd1	0.000101349906
174	0x3eb07cf2	0.34470326
175	0x418ae022	17.35944
176	0x376aa04b	1.3984808e-05
177	0x4003e21f	2.0606763
178	0x3b3ef5f2	0.0029138294
179	0x37069963	8.0227355e-06
180	0x419d28a9	19.644854
181	0x38349a04	4.3058782e-05
182	0x3ad6d5ee	0.001639066
183	0x42bc9d4b	94.30721
184	0x383c0bfb	4.483385e-05
185	0x3dad0de5	0.08449916
186	0x2f69cbac	2.1263585e-10
187	0x3ce2e8ae	0.027698841
188	0x2714963a	2.0620564e-15
189	0x37177a63	9.028797e-06
190	0x439b7291	310.89505
191	0x33ede800	1.1078373e-07
192	0x3b395cc7	0.002828406
193	0x40c388e1	6.110459
194	0x4303eb27	131.91856
195	0x3e43d962	0.19125894
196	0x4188ef69	17.1169
197	0x26b6366a	1.2643536e-15
198	0x000001f4	7e-43
199	0x3f6803eb	0.9063098

exp_avg f4 [4]
0	0x3d3a246b	0.045444887
1	0x80000004	-6e-45
2	0xbd6bbfce	-0.057555966
3	0xbdf2851c	-0.11841795

exp_avg_sq f4 [4]
0	0x3cd4ca83	0.025975471
1	0x20c0747f	3.2603156e-19
2	0x3d5ff079	0.054672692
3	0x3db696c8	0.08915478
