last_brain3.pth (torch, 11261 bytes, 12 tensors)

fc1.weight f4 [50, 6]
-2.930982 -2.577598 0.3025552 -0.024853297 -0.68843675 0.35068008 0.032972474 -0.07440799
-0.13850856 0.12698884 0.24149026 6.7680125 0.084059455 -0.14331399 0.26402187 0.24350502
-0.35053125 1.937972 -0.51288134 0.08351961 -0.12145186 0.39205712 0.17281461 -3.4987748
-0.069625996 0.30372313 0.18797065 0.08272655 -0.06002097 1.8987166 0.053174578 0.08646859
-0.031064468 0.052415952 -0.19426481 -2.15721 -0.045066815 0.07571216 -0.00064582546 -0.2659199
0.24362716 -0.21576798 0.20286174 -0.05949744 -0.054795235 -0.13588604 0.00076137856 -2.704925
-0.24543236 -0.27251342 0.24809949 0.38462192 -0.23027371 -1.2800336 -4.5206876 -4.177594
-4.502747 -4.486218 -4.7445526 -0.24713409 0.08455828 -0.1204872 0.20137712 -0.011989167
0.17917866 -2.4220762 -0.85288 0.16584657 0.1824902 -0.42944837 -0.36336058 0.20108503
0.26658672 0.025118664 0.28502792 -0.28731704 -0.1299082 -1.3973359 -0.19881588 -0.09897846
-0.04981622 0.25603765 0.4017993 2.085226 0.041037124 -0.41725343 0.34414786 0.22447589
-0.20163727 -1.4990989 0.030993538 -0.12372847 0.04620048 0.14515993 -0.020047186 -5.3376822
0.05989889 -0.072486445 0.13432541 -0.08744867 0.0013740568 5.1596265 -0.007045554 0.097412065
-0.11079688 0.08017237 -0.012770284 3.6457357 0.06391755 -0.011857298 -0.068342224 -0.09973623
0.19413795 -0.6535015 0.17102326 -0.28344283 -0.044076446 0.23797694 -0.18553661 4.7844667
-0.06473634 -0.60407376 -0.09784348 0.35667524 -0.120996535 2.3351982 0.14488797 -0.08687614
-0.4350849 0.35503322 0.2153624 -1.6609366 -0.82372457 -0.41619858 0.21463317 -0.13234283
-0.21264696 0.07812558 0.0354363 -0.36533028 0.092632145 0.18256596 0.2295402 -0.7908793
-0.10310886 -0.07291909 -0.26738247 0.21676962 0.120456204 3.4989297 -0.16054349 -0.04975752
-0.362901 -0.5627963 -0.39886767 -4.810044 0.06999398 -0.07102413 0.08068995 0.021543112
-0.3546305 -4.4919987 0.102106296 0.0060270624 0.13758424 0.1060184 -0.46491545 3.995848
0.15289515 -0.12861885 0.14658087 0.07528778 -0.4969385 -3.0395267 0.20860223 -0.00048188653
0.20346689 -0.07419743 -0.036669865 -1.6047736 -1.0315439 0.29322603 0.18352154 -0.20496371
-0.05339558 4.511648 -0.09148132 -0.040581394 -0.1633098 -0.011013319 0.41137585 2.5176697
0.020566579 0.04428122 -0.047081094 0.18179984 -0.29289818 2.5549574 -0.9458471 0.35871452
-0.16933984 -0.046016417 -0.3956643 0.5908281 -0.18625706 -0.012957999 0.058634695 -0.07624935
-0.003985697 -6.7187696 -4.717566 -4.4538274 -4.436694 -4.702047 -4.6385875 0.09094781
0.044885557 -0.0983004 0.07285313 0.08703762 0.12819181 2.6918712 -2.0457587 -1.9664254
0.0131527325 -0.29253846 -1.064211 0.27351567 0.30576867 0.11902048 -0.36280555 0.2926934
-0.040671214 -1.3961052 0.0020943247 -0.07313778 0.000114577924 0.037626047 -0.016386146 -4.109085
0.04234133 0.022219464 -0.33277762 0.1647474 0.14594558 -4.5459604 0.280448 -0.3444994
-0.040658392 0.093256325 -0.030754212 1.0797294 -0.13159284 -0.5558516 -0.079532206 0.35752794
00000000: 3695 3bc0 5ef7 24c0 84e8 9a3e 2499 cbbc
00000010: 643d 30bf 578c b33e 250e 073d 3763 98bd
00000020: 30d5 0dbe 5d09 023e 3949 773e 8f93 d840
00000030: 5d27 ac3d e7c0 12be e02d 873e 6159 793e
00000040: d578 b3be 770f f83f 314c 03bf 540c ab3d
00000050: c1bb f8bd b6bb c83e 50f6 303e edeb 5fc0
00000060: 1398 8ebd 9981 9b3e 617b 403e 8a6c a93d
00000070: 8cd8 75bd 2509 f33f 96cd 593d 7216 b13d
00000080: e97a febc 1cb2 563d 5bed 46be bb0f 0ac0
00000090: fb97 38bd fa0e 9b3d 9d4c 29ba a726 88be
000000a0: 6679 793e 48f2 5cbe fdba 4f3e 96b3 73bd
000000b0: f870 60bd b625 0bbe 4097 473a 7e1d 2dc0
000000c0: 9f52 7bbe e186 8bbe cb0d 7e3e 2aed c43e
000000d0: dfcc 6bbe 24d8 a3bf 79a9 90c0 daae 85c0
000000e0: 8116 90c0 198f 8fc0 60d3 97c0 b810 7dbe
000000f0: e42c ad3d fec1 f6bd ce35 4e3e 366e 44bc
00000100: 9c7a 373e 4c03 1bc0 5856 5abf afd3 293e
00000110: b6de 3a3e a8e0 dbbe 660a babe 3ce9 4d3e
00000120: 0e7e 883e a8c5 cd3c 2eef 913e 381b 93be
00000130: a806 05be e7db b2bf 6496 4bbe 38b5 cabd
00000140: 180c 4cbd 5e17 833e a3b8 cd3e 5874 0540
00000150: 8b16 283d 3ea2 d5be 2634 b03e 02dd 653e
00000160: 007a 4ebe 79e2 bfbf 29e6 fd3c 5a65 fdbd
00000170: b73c 3d3d cea4 143e ff39 a4bc 4bce aac0
00000180: 8a58 753d c673 94bd 9a8c 093e 4a18 b3bd
00000190: b219 b43a a91b a540 64de e6bb fa7f c73d
000001a0: 7ae9 e2bd 6931 a43d 743a 51bc bc53 6940
000001b0: 34e7 823d 1d45 42bc 02f7 8bbd 8242 ccbd
000001c0: 19cc 463e e04b 27bf b920 2f3e 6b1f 91be
000001d0: 8189 34bd 3ab0 733e 4ffd 3dbe 5a1a 9940
000001e0: 7c94 84bd 94a4 1abf 2a62 c8bd 239e b63e
000001f0: 08cd f7bd e373 1540 835d 143e 1eec b1bd
00000200: 73c3 debe eac6 b53e f687 5c3e 9299 d4bf
00000210: 9ddf 52bf fb17 d5be ccc8 5b3e e184 07be
00000220: 20c0 59be 4e00 a03d a725 113d 920c bbbe
00000230: ecb5 bd3d 92f2 3a3e 960c 6b3e 1177 4abf
00000240: bd2a d3bd 9b56 95bd 5be6 88be dbf8 5d3e
00000250: beb1 f63d 77ee 5f40 8365 24be 8bce 4bbd
00000260: 29ce b9be 6b13 10bf 6238 ccbe e1eb 99c0
00000270: 0159 8f3d 1975 91bd c640 a53d 2e7b b03c
00000280: 2192 b5be 74be 8fc0 1b1d d13d aa7e c53b
00000290: e2e2 0c3e 2d20 d93d 6609 eebe f9bb 7f40
000002a0: 8c90 1c3e a9b4 03be 4c19 163e 7b30 9a3d
000002b0: b96e febe 9b87 42c0 d39b 553e b7a5 fcb9
000002c0: a059 503e d2f4 97bd 2433 16bd 3969 cdbf
000002d0: a109 84bf b921 963e 12ed 3b3e 02e2 51be
000002e0: 53b5 5abd 6c5f 9040 8f5a bbbd ad38 26bd
000002f0: af3a 27be 3571 34bc db9f d23e 8021 2140
00000300: 3e7b a83c 3960 353d 1bd8 40bd bd29 3a3e
00000310: c0f6 95be 6c84 2340 0923 72bf 6ea9 b73e
00000320: 6c67 2dbe b67b 3cbd 8394 cabe 8340 173f
00000330: 2cba 3ebe c94d 54bc ef2a 703d 9f28 9cbd
00000340: 739a 82bb 2900 d7c0 4df6 96c0 c185 8ec0
00000350: 66f9 8dc0 2b77 96c0 4f6f 94c0 d842 ba3d
00000360: ebd9 373d b851 c9bd 0634 953d c840 b23d
00000370: b744 033e 9e47 2c40 b6ed 02c0 d4b3 fbbf
00000380: 8f7e 573c 9ac7 95be 1138 88bf 3f0a 8c3e
00000390: b68d 9c3e 02c1 f33d a6c1 b9be e9db 953e
000003a0: dc96 26bd 93b3 b2bf f040 093b 43c9 95bd
000003b0: 8e49 f038 c51d 1a3d 3d3c 86bc a07d 83c0
000003c0: 1a6e 2d3d 9805 b63c d461 aabe 8bb3 283e
000003d0: c272 153e 8278 91c0 e196 8f3e 3a62 b0be
000003e0: 6a89 26bd 2cfd be3d 42f0 fbbc 9334 8a3f
000003f0: 46c0 06be 4a4c 0ebf c8e1 a2bd e70d b73e

fc1.bias f4 [50]
3.7617838 -2.1251411 3.3762603 -1.9093106 3.9295547 -4.709153 3.8809898 4.673479
-3.0747678 5.6265063 -2.8383627 -0.43140578 -2.6853335 3.6460407 2.319182 -3.8781593
-3.9677806 -1.7298002 3.8153083 1.3024014 1.708669 4.4282465 0.64701784 1.533194
2.0655355 -1.6291466 4.447119 1.6604996 -4.1318436 -3.1031039 0.7452249 -2.2517993
3.7987754 -1.1286324 -0.522562 6.6404905 3.878547 3.603797 -3.110934 5.1328063
-3.5932958 -2.7105966 0.11696175 -1.7832963 0.6330826 3.1770923 -2.722699 -0.83128047
5.431679 2.9365506
00000000: 11c1 7040 5002 08c0 a614 5840 4a64 f4bf
00000010: d37d 7b40 62b1 96c0 2362 7840 248d 9540
00000020: ffc8 44c0 570c b440 bca7 35c0 38e1 dcbe
00000030: 81dc 2bc0 bb58 6940 7a6d 1440 c333 78c0
00000040: 1ef0 7dc0 186a ddbf 032e 7440 17b5 a63f
00000050: aab5 da3f 32b4 8d40 f6a2 253f b33f c43f
00000060: bc31 0440 e087 d0bf cd4e 8e40 408b d43f
00000070: 1038 84c0 4199 46c0 0fc7 3e3f 7b1d 10c0
00000080: 231f 7340 0777 90bf a0c6 05bf e67e d440
00000090: 1d3a 7840 9ca4 6640 8b19 47c0 f33f a440
000000a0: 8ff8 65c0 6a7a 2dc0 a489 ef3d 0e43 e4bf
000000b0: b411 223f 7b55 4b40 b340 2ec0 ccce 54bf
000000c0: 50d0 ad40 72f0 3b40

fc2.weight f4 [4, 50]
1.4491268 0.261595 -0.09322146 0.09258022 -0.17732312 0.35360017 -0.23101585 -0.24580942
0.07076997 4.2741394 0.059036005 -0.11015354 0.13059236 -0.1392135 -0.069549635 0.36217892
-0.2779243 -0.030461501 -0.1660822 0.30710223 0.26324123 -0.24695167 0.0910933 -0.08914306
-0.24910529 0.33874694 -0.49631283 -0.14982598 0.1804924 0.17669623 0.23993988 0.27093127
-0.07829078 -0.15101413 -0.60696983 5.2296367 -0.10921629 1.6978359 0.10519414 -0.40541518
0.211267 -0.1752653 -0.28169757 0.13792416 1.5352752 -0.15006779 0.25001103 -0.23842816
4.325746 -0.053997677 -0.13926816 0.18319008 -0.2720656 0.09570161 -0.17140241 0.17927906
-0.31551713 -0.27089942 0.1149564 -0.029161759 0.094936855 0.0055294307 0.048160497 -0.1300048
-0.04022039 0.17825899 -0.10457515 0.033153012 -0.17465493 0.20315407 0.062244836 -0.18568969
-0.14898908 -0.04320817 -0.13091964 -0.14141355 -0.35252887 -0.07235396 0.16909322 0.30142528
0.25450695 0.17685215 0.017819528 -0.16010882 -0.7255752 0.09384963 -0.1022146 -0.06444867
0.07484218 -0.43160942 0.1525246 -0.053006187 -0.1061262 0.12471768 1.0659558 -0.1502253
0.15250582 -0.06696105 0.058503285 -0.098378636 -0.023446463 0.25667787 -0.10741227 0.09480986
-0.21821198 0.14382757 -0.24451438 -0.24134925 0.10072761 -0.054169998 0.38755238 -0.152599
-0.11439947 -0.17346245 -0.11669201 0.23125035 -0.1852916 0.0066598235 -0.2452723 0.11028162
0.065894514 -0.26987678 -0.08943808 -0.11401421 0.070186846 -0.26223654 -0.2895993 -0.030257631
0.2911311 0.1250519 0.33887985 0.11538163 -0.035059344 -0.030413542 -0.49318042 -0.066201456
-0.16385889 0.12654926 0.16446437 -0.4014954 0.08514892 -0.10122321 -0.003824393 0.09644755
1.085014 -0.17554717 0.38812706 0.13158971 0.07639453 -0.0726825 0.9186109 0.1467083
-0.057429064 0.090495475 -0.13839632 0.2503584 -0.16373257 -0.20494123 0.06007735 4.2786317
0.11713265 -0.0115807345 0.05135101 -0.108235165 -0.0410415 0.23794346 -0.13057205 0.05191966
-0.10746546 0.1813373 0.16154459 -0.18190338 -0.20990957 -0.05625926 -0.1339548 -0.37456343
-0.3474228 -0.11733194 0.13242227 0.161429 0.20410043 0.22488032 -0.029755099 -0.17212945
-0.45043278 4.2767735 -0.20039065 1.132209 0.10019104 -0.3699245 0.117859766 -0.089386135
-0.16074301 0.07474774 1.3531799 -0.11566356 0.17888123 -0.05743158 4.183058 -0.07044547
00000000: fd7c b93f c8ef 853e e5ea bebd b39a bd3d
00000010: 3194 35be 150b b53e 6b8f 6cbe 77b5 7bbe
00000020: d9ef 903d c0c5 8840 bdcf 713d 2e98 e1bd
00000030: 01ba 053e fc8d 0ebe 0a70 8ebd 846f b93e
00000040: 184c 8ebe 668a f9bc 7411 2abe 813c 9d3e
00000050: 8ec7 863e e6e0 7cbe 208f ba3d a390 b6bd
00000060: 7515 7fbe 3d70 ad3e b71c febe fb6b 19be
00000070: 00d3 383e dbef 343e cdb2 753e 81b7 8a3e
00000080: eb56 a0bd 73a3 1abe 6062 1bbf 2f59 a740
00000090: caac dfbd b052 d93f 0670 d73d 9492 cfbe
000000a0: 6056 583e bf78 33be aa3a 90be fe3b 0d3e
000000b0: e683 c43f 5fab 19be 7201 803e 8326 74be
000000c0: 836c 8a40 ab2c 5dbd 509c 0ebe 2e96 3b3e
000000d0: 2f4c 8bbe 35ff c33d 1d84 2fbe ee94 373e
000000e0: 768b a1be 54b3 8abe 436e eb3d a4e4 eebc
000000f0: 416e c23d 3a30 b53b f143 453d fa1f 05be
00000100: 23be 24bd 8689 363e 7f2b d6bd 74cb 073d
00000110: bed8 32be 9f07 503e 71f4 7e3d 7025 3ebe
00000120: 9890 18be 0dfb 30bd cc0f 06be b7ce 10be
00000130: aa7e b4be 502e 94bd c626 2d3e 6a54 9a3e
00000140: bc4e 823e bb18 353e 42fa 913c 91f3 23be
00000150: 4cbf 39bf 3c34 c03d e355 d1bd aafd 83bd
00000160: db46 993d e9fb dcbe 692f 1c3e 041d 59bd
00000170: b158 d9bd fc6b ff3d 3d71 883f a9d4 19be
00000180: 7c2a 1c3e e022 89bd 24a1 6f3d bd7a c9bd
00000190: cc12 c0bc 486b 833e f7fa dbbd ac2b c23d
000001a0: f672 5fbe 8947 133e fa61 7abe 4224 77be
000001b0: 474a ce3d 5ce1 5dbd 446d c63e ea42 1cbe
000001c0: 454a eabd 24a0 31be 38fc eebd e4cc 6c3e
000001d0: 15bd 3dbe a63a da3b a928 7bbe 54db e13d
000001e0: b4f3 863d 4a2d 8abe 502b b7bd 4880 e9bd
000001f0: 1fbe 8f3d de43 86be 5c46 94be dade f7bc
00000200: 230f 953e 9b0d 003e a981 ad3e 344d ec3d
00000210: 639a 0fbd d225 f9bc 2582 fcbe a194 87bd
00000220: a0ca 27be 2196 013e 5969 283e ce90 cdbe
00000230: 8f62 ae3d 1d4e cfbd aba2 7abb 4b86 c53d
00000240: bde1 8a3f a3c2 33be 97b8 c63e 74bf 063e
00000250: bc74 9c3d 90da 94bd 152a 6b3f b33a 163e
00000260: bd3a 6bbd b155 b93d c4b7 0dbe fa2e 803e
00000270: 83a9 27be 1ddc 51be ab13 763d 8dea 8840
00000280: 3ee3 ef3d 1fbd 3dbc 7055 523d 66aa ddbd
00000290: 221b 28bd 73a7 733e aeb4 05be b6a9 543d
000002a0: da16 dcbd 7cb0 393e f26b 253e e144 3abe
000002b0: 89f2 56be 1c70 66bd 722b 09be c7c6 bfbe
000002c0: 67e1 b1be ba4b f0bd b499 073e a54d 253e
000002d0: b4ff 503e 0747 663e f7c0 f3bc b442 30be
000002e0: 209f e6be 54db 8840 3533 4dbe 39ec 903f
000002f0: f630 cd3d be66 bdbe 7660 f13d 1410 b7bd
00000300: d199 24be 5815 993d 0035 ad3f 04e1 ecbd
00000310: a42c 373e 603d 6bbd 9cdb 8540 b745 90bd

fc2.bias f4 [4]
-2.5158193 -2.7627728 -1.6640449 -4.6560974
00000000: 2f03 21c0 45d1 30c0 6cff d4bf c0fe 94c0

exp_avg f4 [50, 6]
2.6288344e-06 2.6288344e-06 2.6288344e-06 2.6288344e-06 2.6288344e-06 -2.9370419e-15 0.16352881 0.23941317
0.17603546 0.13753733 0.4139926 -0.0032683238 -0.1524545 -0.12355006 -0.17600645 -0.19640855
-0.18209034 0.0014188245 0.070495225 0.14801444 0.11382577 0.11996229 0.18570974 -0.00024451638
-0.037152536 -0.14196447 -0.20860164 -0.19507438 -0.38361064 0.0025636295 -0.06260646 0.13041063
0.37236136 0.26634654 0.11582318 -0.0025726522 -0.04610192 -0.01820819 -0.20356154 -0.21854305
-0.48023352 0.0027431205 -0.024276828 0.11580468 -0.105558425 -0.048212916 -0.30488142 0.0034929768
0.063353635 0.14280847 0.11213869 0.094302915 0.05339883 -6.862907e-05 1.2404702e-05 1.2404702e-05
1.2404702e-05 1.2404702e-05 1.2404702e-05 -6e-45 0.067204714 0.007593211 -0.010565795 -0.029198613
0.077496275 -0.0010421722 0.0021629266 0.0016991101 0.030558983 0.0021341052 0.0028158834 -7.0850597e-06
-0.054778483 0.04236204 0.12528808 0.12265612 0.034981795 -0.0024125236 -0.15251808 -0.26172346
-0.24075103 -0.19491947 -0.28463548 0.0013095684 -0.06918721 -0.109748736 -0.0594956 -0.0682847
-0.041732308 0.00027983237 0.5502015 0.8281665 0.57961625 0.5451177 0.32400903 -0.0025780208
0.18868494 0.2130854 0.16707969 0.12752824 0.054701317 0.0017004986 0.054561086 -0.0046506785
-0.007247378 -0.00084658526 0.015213263 0.0002685678 -0.027588824 0.032892905 -0.11412653 -0.10323818
-0.28258538 0.0017197819 -0.025495619 -0.06136686 -0.101577796 -0.15205947 -0.1503808 -0.0004376313
-0.03469337 -0.028300233 -0.09730213 -0.12056202 -0.092099994 -0.00012326965 0.052794527 0.13260157
0.074591346 0.07382323 -0.26639935 0.0034521816 -0.0017982337 -0.0017753472 -0.024617812 -0.0017512474
-0.0022487864 6.74741e-06 -0.05665593 -0.04078351 0.013892122 0.0028488655 -0.09441967 0.0004272792
-0.042405583 -0.07383829 0.012552798 0.03344489 -0.32447827 0.0003566121 6e-45 6e-45
6e-45 6e-45 6e-45 -6e-45 -0.40325645 -0.30860063 -0.36191776 -0.351776
-0.08916728 0.0009230028 0.06920485 -0.01915339 -0.16550456 -0.15516725 -0.04878949 0.0016155222
0.16417763 0.11833229 0.116821624 0.11049578 0.0323005 0.00022756186 0.17566428 0.19822246
0.32230338 0.27767903 0.3511408 -0.0032642921 0.014959008 0.07381827 -0.013348174 0.044379868
0.03055674 -0.00035760322 0.08281577 0.14410783 0.056120533 0.042091824 0.4058563 -0.00048902613
0.052374907 -0.038159475 -0.11188725 -0.09341062 -0.040200725 0.0011256947 -0.002268414 -0.024126606
-0.0028891463 -0.0065628625 -0.0058340062 -2.2791194e-06 -0.011344272 -0.045282036 0.10497911 -0.016130911
0.026944803 0.00082205026 1.23993e-05 1.23993e-05 1.23993e-05 1.23993e-05 1.23993e-05 -6e-45
-0.06807618 -0.08621384 -0.17632507 -0.13029806 -0.25825644 0.0018128771 3.2406183e-06 3.2406183e-06
3.2406183e-06 3.2406183e-06 3.2406183e-06 -6e-45 -0.001160156 0.050717004 0.10384214 0.100161046
0.15147725 -0.0020893537 -0.28129962 -0.15846609 0.04533775 0.0031470656 -0.29180452 0.0042883474
0.10324285 0.029646836 0.11757967 0.1188416 0.3404801 -0.0011869433 0.025402036 0.050315835
0.064751506 0.07315054 0.029087976 0.00081388 0.038346812 0.03105007 0.09541491 0.13314846
00000000: 086b 3036 086b 3036 086b 3036 086b 3036
00000010: 086b 3036 dca2 53a7 1974 273e ba28 753e
00000020: a442 343e 96d6 0c3e d7f6 d33e 6031 56bb
00000030: 081d 1cbe d007 fdbd 093b 34be 531f 49be
00000040: e475 3abe daf7 b93a cd5f 903d 1991 173e
00000050: 7c1d e93d caae f53d b22a 3e3e 6f32 80b9
00000060: 422d 18bd 225f 11be ab9b 55be 94c1 47be
00000070: 9d68 c4be 9102 283b d137 80bd 5d8a 053e
00000080: 26a6 be3e 935e 883e b434 ed3d f199 28bb
00000090: 5ed5 3cbd 5829 95bc 7072 50be c0c9 5fbe
000000a0: 2be1 f5be edc5 333b 33e0 c6bc 012b ed3d
000000b0: 042f d8bd e87a 45bd 6b19 9cbe 6dea 643b
000000c0: 8dbf 813d 623c 123e f8a8 e53d e321 c13d
000000d0: bbb8 5a3d f4ec 8fb8 ca1d 5037 ca1d 5037
000000e0: ca1d 5037 ca1d 5037 ca1d 5037 0400 0080
000000f0: a0a2 893d 78d0 f83b 281c 2dbc ee31 efbc
00000100: 5eb6 9e3d 7f99 88ba e3bf 0d3b adb4 de3a
00000110: d556 fa3c 58dc 0b3b af8a 383b 33bc edb6
00000120: 675f 60bd d283 2d3d 854b 003e 2233 fb3d
00000130: 1249 0f3d 6e1b 1ebb b32d 1cbe 9e00 86be
00000140: 7087 76be f898 47be bebb 91be d3a5 ab3a
00000150: 06b2 8dbd f2c3 e0bd a9b1 73bd d9d8 8bbd
00000160: 7fef 2abd 77b6 9239 01da 0c3f b802 543f
00000170: bb61 143f d58c 0b3f 83e4 a53e 03f4 28bb
00000180: a036 413e 0f33 5a3e f016 2b3e c396 023e
00000190: 7d0e 603d 44e3 de3a 727b 5f3d b864 98bb
000001a0: 6a7b edbb 60ed 5dba 0d41 793c 8fce 8c39
000001b0: f501 e2bc b6ba 063d 2cbb e9bd 8a6e d3bd
000001c0: 08af 90be 4e6a e13a 30dc d0bc d15b 7bbd
000001d0: 0508 d0bd 7ab5 1bbe 6dfd 19be e171 e5b9
000001e0: a31a 0ebd e4d5 e7bc 5746 c7bd 38e9 f6bd
000001f0: ec9e bcbd f241 01b9 133f 583d b5c8 073e
00000200: 59c3 983d a230 973d 7f65 88be ff3d 623b
00000210: b6b2 ebba c4b2 e8ba 4bab c9bc 1d8a e5ba
00000220: 6060 13bb d067 e236 0c10 68bd 9c0c 27bd
00000230: c89b 633c 08b4 3a3b 1a5f c1bd 7204 e039
00000240: 7ab1 2dbd 8838 97bd 40aa 4d3c 82fd 083d
00000250: 0422 a6be aaf7 ba39 0400 0000 0400 0000
00000260: 0400 0000 0400 0000 0400 0000 0400 0080
00000270: a177 cebe e700 9ebe 494d b9be fc1b b4be
00000280: 569d b6bd abf5 713a 46bb 8d3d 92e7 9cbc
00000290: 077a 29be 2ae4 1ebe 7dd7 47bd eebf d33a
000002a0: 2e1e 283e 3358 f23d 2d40 ef3d 9d4b e23d
000002b0: 874d 043d ac9d 6e39 56e1 333e d4fa 4a3e
000002c0: f304 a53e f22b 8e3e bac8 b33e bced 55bb
000002d0: a116 753c 082e 973d 4db2 5abc aac7 353d
000002e0: 2152 fa3c b17c bbb9 509b a93d 0191 133e
000002f0: a5de 653d 7a68 2c3d 66cc cf3e fd31 00ba
00000300: 1287 563d 1c4d 1cbd 2425 e5bd 114e bfbd
00000310: 84a9 24bd 0c8c 933a aca9 14bb 29a5 c5bc
00000320: d557 3dbb 480d d7bb 312b bfbb f9f2 18b6
00000330: 53dd 39bc a879 39bd 4aff d63d f924 84bc
00000340: 59bb dc3c dc7e 573a 9706 5037 9706 5037
00000350: 9706 5037 9706 5037 9706 5037 0400 0080
00000360: 866b 8bbd e290 b0bd 8f8e 34be db6c 05be
00000370: 303a 84be 109e ed3a 6679 5936 6679 5936
00000380: 6679 5936 6679 5936 6679 5936 0400 0080
00000390: 6010 98ba a2bc 4f3d 30ab d43d 3c21 cd3d
000003a0: da1c 1b3e 8aed 08bb 8106 90be ef44 22be
000003b0: 14b4 393d 003f 4e3b 6767 95be 4485 8c3b
000003c0: fd70 d33d ecdd f23c 9ccd f03d 3a63 f33d
000003d0: 6853 ae3e 3593 9bba ee17 d03c fa17 4e3d
000003e0: 709c 843d f3cf 953d e849 ee3c 905a 553a
000003f0: 8c11 1d3d b75c fe3c e468 c33d 1258 083e

exp_avg_sq f4 [50, 6]
1.1024974e-06 1.1024974e-06 0.0038392348 0.0014904417 0.00031951154 1.5042615e-07 1.3546585 2.3115544
2.1397262 2.0639393 1.822742 9.9969984e-05 0.453631 0.64313024 0.65983915 0.4639662
0.31975067 1.9071314e-05 0.055591907 0.3219126 0.3108747 0.30807558 0.26313758 1.1016473e-05
1.0303758 1.8530692 1.6299595 1.3626956 1.006126 6.268232e-05 1.9057298 2.4824479
1.5731109 1.1897619 0.37406653 6.605197e-05 0.7795124 1.1227313 0.94445354 0.6899001
1.3428501 5.645845e-05 1.4313959 0.90476614 0.4966346 0.30534616 0.4337998 3.228424e-05
0.025163224 0.15503764 0.18179584 0.16224703 0.06384496 5.454341e-06 1.849485e-05 1.849485e-05
1.849485e-05 1.849485e-05 1.849485e-05 0.0 0.3248675 0.40424332 0.5316521 0.7426565
0.8689871 1.33917265e-05 0.00015569104 0.0063414723 0.008708577 0.00015374275 0.00017580969 5.4129004e-08
0.43363628 0.803349 0.61806595 0.40046135 0.1821919 2.3772238e-05 0.2565338 0.78791195
0.78698367 0.74778974 0.6391387 3.3922428e-05 0.029867787 0.035242587 0.067629375 0.08839311
0.036154345 2.5838517e-06 1.550833 2.526729 2.7653618 2.6485453 1.4826117 8.506098e-05
1.5006027 2.1470354 1.9347757 1.2903416 0.83952576 0.00011535724 0.032994956 0.055702586
0.039504882 0.03626045 0.025301911 1.7432715e-06 0.7610336 0.66978604 0.47260842 0.4831695
0.8308951 3.1644533e-05 0.4351444 0.21007735 0.3836197 0.5559623 0.1617663 5.636242e-05
0.011339862 0.011333935 0.13530947 0.25576887 0.1063952 9.713423e-06 1.6213472 1.3038019
1.0071801 1.2944676 1.5520478 7.070556e-05 7.30081e-05 9.554593e-05 0.011653503 0.00051460863
0.00035454426 1.495551e-08 0.07788954 0.08694526 0.12941357 0.16523205 0.19038717 7.736103e-06
0.09925945 0.15412253 0.23417297 0.45337662 0.8250395 4.188945e-05 4.647609e-19 2.0255726e-19
9.525877e-20 6.531896e-20 1.4137079e-19 1.4681078e-20 1.4658422 0.81372523 1.251359 0.7833031
0.10402968 4.6771405e-05 0.58802694 1.0365735 0.83369344 0.5727292 0.20044039 3.3115153e-05
0.31967944 0.20313859 0.30525738 0.25946978 0.029213602 7.800363e-06 1.3081466 2.1573431
1.9369353 1.4115201 1.0585631 6.2630534e-05 0.06820474 1.1470962 0.96046245 0.5598314
0.2254439 3.1912252e-05 0.21115531 0.34058332 0.4346666 0.6591148 1.2766212 4.8690363e-05
0.15783897 0.2916152 0.2225936 0.1644336 0.0599646 9.892769e-06 0.0008779292 0.036895707
0.003255052 0.00404271 0.0013903164 5.3371917e-08 0.026906744 0.19823094 0.503527 0.102185436
0.10082186 4.375487e-05 1.8478659e-05 1.8478659e-05 1.8478659e-05 1.8478659e-05 1.8478659e-05 0.0
0.58699495 0.8757688 0.86588866 0.7728773 0.69016916 2.8178047e-05 1.2280872e-06 1.2280872e-06
1.2380368e-06 1.2296281e-06 1.2289019e-06 4.3678955e-13 0.3908495 0.66118693 0.5033464 0.4825014
0.3317789 2.0712487e-05 1.1067965 0.7463815 1.1741627 1.6495456 1.3078525 5.020657e-05
0.4359593 0.37999532 0.23365872 0.36661464 0.63595325 1.7907658e-05 0.15457772 0.06302019
0.07277456 0.11155152 0.048823424 9.323332e-06 0.007761726 0.0075136465 0.11514455 0.2004284
00000000: 86f9 9335 86f9 9335 ac9b 7b3b ed5a c33a
00000010: 1d84 a739 d384 2134 7365 ad3f 82f0 1340
00000020: 46f1 0840 9517 0440 9c4f e93f faa6 d138
00000030: 5342 e83e 2fa4 243f 38eb 283f fa8c ed3e
00000040: 5cb6 a33e 56fb 9f37 57b4 633d bad1 a43e
00000050: f82a 9f3e 15bc 9d3e f8b9 863e 64d3 3837
00000060: 5be3 833f 5f31 ed3f 83a2 d03f cf6c ae3f
00000070: bdc8 803f 5074 8338 f4ee f33f 6de0 1e40
00000080: b35b c93f 1e4a 983f a685 bf3e 6285 8a38
00000090: 208e 473f a9b5 8f3f b5c7 713f 4b9d 303f
000000a0: 83e2 ab3f cdcd 6c38 fb37 b73f c19e 673f
000000b0: e446 fe3e 5556 9c3e 021b de3e f068 0738
000000c0: 1b23 ce3c 30c2 1e3e b028 3a3e 1624 263e
000000d0: 25c1 823d 6f04 b736 6325 9b37 6325 9b37
000000e0: 6325 9b37 6325 9b37 6325 9b37 0000 0000
000000f0: 0855 a63e fbf8 ce3e 5a1a 083f bd1e 3e3f
00000100: f075 5e3f 07ad 6037 ff40 2339 20cc cf3b
00000110: 6bae 0e3c 0136 2139 8e59 3839 787b 6833
00000120: 9305 de3e 48a8 4d3f 9239 1e3f 4509 cd3e
00000130: 8390 3a3e 7e6a c737 6658 833e 99b4 493f
00000140: c377 493f 266f 3f3f 989e 233f ee47 0e38
00000150: 4aad f43c 885a 103d 4581 8a3d 7207 b53d
00000160: 9416 143d 3c66 2d36 b281 c63f eeb5 2140
00000170: b0fb 3040 c481 2940 38c6 bd3f c462 b238
00000180: c013 c03f 0769 0940 bba6 f73f ea29 a53f
00000190: 29eb 563f f2eb f138 b825 073d 6528 643d
000001a0: dfcf 213d d685 143d f445 cf3c 5afa e935
000001b0: 19d3 423f 1977 2b3f bbf9 f13e fe61 f73e
000001c0: 8bb5 543f 0fba 0438 3fcb de3e 841e 573e
000001d0: cd69 c43e 8c53 0e3f 11a6 253e b066 6c38
000001e0: d4ca 393c f8b1 393c 918e 0a3e 23f4 823e
000001f0: bae5 d93d d6f6 2237 4e88 cf3f fbe2 a63f
00000200: 47eb 803f 1db1 a53f 81a9 c63f c247 9438
00000210: ed1b 9938 d55f c838 56ee 3e3c cde6 063a
00000220: 20e2 b939 8477 8032 8d84 9f3d 5b10 b23d
00000230: fe84 043e 9732 293e dbf4 423e 4fca 0137
00000240: 8a48 cb3d 4cd2 1d3e 0acb 6f3e fb20 e83e
00000250: ca35 533f 74b2 2f38 572c 0921 2d23 6f20
00000260: 65ec e01f e33a 9a1f b3e6 2620 aba8 8a1e
00000270: b8a0 bb3f 4c50 503f 882c a03f 8d86 483f
00000280: 830d d53d 6a2c 4438 ef88 163f 71ae 843f
00000290: ef6c 553f 619e 123f 3f40 4d3e 20e5 0a38
000002a0: 06ad a33e 9003 503e b24a 9c3e 39d9 843e
000002b0: 5d51 ef3c 4ede 0237 5971 a73f e911 0a40
000002c0: 7fed f73f b1ac b43f ff7e 873f 8358 8338
000002d0: edae 8b3d 0cd4 923f dee0 753f 1c51 0f3f
000002e0: c4da 663e 85d9 0538 1939 583e f060 ae3e
000002f0: 9f8c de3e bfbb 283f 5368 a33f e138 4c38
00000300: 8aa0 213e 964e 953e 94ef 633e 4861 283e
00000310: 719d 753d 1ff9 2537 d524 663a f41f 173d
00000320: b652 553b b678 843b 473b b63a 0b3b 6533
00000330: 886b dc3c 0dfd 4a3e 25e7 003f 9946 d13d
00000340: b17b ce3d 6f85 3738 9e02 9b37 9e02 9b37
00000350: 9e02 9b37 9e02 9b37 9e02 9b37 0000 0000
00000360: 4d45 163f 6232 603f e1aa 5d3f 49db 453f
00000370: edae 303f e55f ec37 c1d4 a435 c1d4 a435
00000380: 9f2a a635 b309 a535 bff0 a435 02e4 f52a
00000390: 6d1d c83e 8c43 293f 4fdb 003f 6c0a f73e
000003a0: edde a93e babf ad37 82ab 8d3f dc12 3f3f
000003b0: f74a 963f 4f24 d33f b667 a73f e594 5238
000003c0: 0f36 df3e bf8e c23e 3b44 6f3e eab4 bb3e
000003d0: d5cd 223f 6738 9637 9f49 1e3e bb10 813d
000003e0: d40a 953d 2075 e43d 12fb 473d 686b 1c37
000003f0: 1456 fe3b 0935 f63b e8d0 eb3d 1a3d 4d3e

exp_avg f4 [50]
-2.6288344e-06 0.0045472034 -0.0013666195 0.0020203975 -0.0018188318 0.0017237988 -0.0025359192 -0.0015426418
0.0007363741 -1.2404702e-05 -0.0010556795 7.241289e-05 -0.00017435124 -0.001806187 -0.0002174243 0.006231252
0.001533007 0.00039569687 -0.0010287238 -0.0024807912 -0.00046737568 -0.0008607521 -5.7875375e-05 -0.0005427586
-0.0034234917 6e-45 0.00067838305 0.0005853888 0.0008924428 0.0020364786 0.00020375696 0.0043116347
0.00013144725 -5.4254317e-05 -6.846155e-05 -1.23993e-05 -0.0017231905 -3.2406183e-06 -0.000115277246 -0.0035269533
0.0031670565 0.000113508664 0.00066222314 0.00064589176 -0.008777229 -0.00062925334 0.0029992478 -5.3653486e-05
-1.2126356e-05 -0.00031620637
00000000: 086b 30b6 b500 953b 2420 b3ba a568 043b
00000010: de65 eeba 17f1 e13a aa31 26bb 7832 caba
00000020: 3b09 413a ca1d 50b7 ba5e 8aba 60dc 9738
00000030: 0ed2 36b9 94bd ecba 64fc 63b9 882f cc3b
00000040: 2eef c83a 8975 cf39 3ed6 86ba c594 22bb
00000050: 1a0a f5b9 18a4 61ba 36bf 72b8 ea47 0eba
00000060: a95c 60bb 0400 0000 84d5 313a c774 193a
00000070: d3f2 693a 7176 053b 98a7 5539 9d48 8d3b
00000080: 1ad5 0939 218f 63b8 0493 8fb8 9706 50b7
00000090: aedc e1ba 6679 59b6 00c1 f1b8 7524 67bb
000000a0: 648e 4f3b 800b ee38 0b99 2d3a 1051 293a
000000b0: 5ece 0fbc 7af4 24ba 078f 443b fe09 61b8
000000c0: 4d72 4bb7 80c8 a5b9

exp_avg_sq f4 [50]
1.6034356e-06 0.00021325109 5.221591e-05 1.9614221e-05 0.0001461815 5.9089845e-05 0.00017890711 0.00013950224
4.6209148e-06 2.3054092e-05 5.3485022e-05 9.254701e-08 3.7702597e-05 7.491559e-05 7.424775e-06 0.00013832121
9.556504e-05 2.8059815e-06 0.00010620335 6.227509e-05 5.492004e-06 0.00022094429 1.1810021e-07 2.2276432e-05
7.928056e-05 2.3544593e-21 0.00015791452 4.6492572e-05 7.4303057e-06 0.00015403164 2.00882e-05 0.0001108288
1.4606984e-05 2.8259905e-07 1.7104476e-05 2.533428e-05 7.299654e-05 1.9215324e-06 4.9060523e-05 0.00033522552
5.2238498e-05 1.002183e-05 3.194721e-06 1.3746157e-05 0.0015156403 7.947828e-05 4.7106365e-05 3.0504484e-07
2.2341526e-05 2.7055086e-07
00000000: a135 d735 279c 5f39 6802 5b38 3889 a437
00000010: 4c48 1939 3dd7 7738 0399 3b39 5947 1239
00000020: 5b0d 9b36 4964 c137 1b55 6038 42be c633
00000030: db22 1e38 001c 9d38 5522 f936 510a 1139
00000040: 176a c838 654e 3c36 7db9 de38 af99 8238
00000050: f547 b836 48ad 6739 479e fd33 46de ba37
00000060: 6d43 a638 dee5 311d db95 2539 0501 4338
00000070: d751 f936 8e83 2139 1583 a837 c26c e838
00000080: 8510 7537 1eb8 9734 957b 8f37 f484 d437
00000090: b815 9938 adf3 0036 56c6 4d38 35c1 af39
000000a0: a91a 5b38 6f23 2837 e464 5636 4b9f 6637
000000b0: 73a8 c63a 94ad a638 1394 4538 0bc5 a334
000000c0: 106a bb37 3a40 9134

exp_avg f4 [4, 50]
-4.040939e-14 0.05867587 0.10572682 0.35883135 0.36855745 -0.024165895 0.18914805 -0.049768317
0.014797658 -6.195981e-17 0.23189822 -0.019158151 -0.1885607 0.5159663 -0.075049 0.017567582
-0.07430382 -0.046497703 0.1313046 -0.032538336 -0.014844926 0.07546308 -0.026408292 0.07207769
0.077988796 6e-45 -0.005340376 -0.06516337 0.028720392 -0.028114446 -0.029302161 0.26649597
-0.030287823 0.00026598963 -0.012280978 -7.317329e-17 0.1566427 -3.9563562e-17 -0.21596272 0.03143169
0.079476275 -0.03220509 -0.0035976302 0.33888948 -0.020236373 -0.16606203 0.15906371 2.2849202e-08
-5.9802697e-17 0.00053494284 0.0 0.14238718 0.090060964 0.13188456 0.20525591 -0.001735799
0.03678926 0.08538797 0.015983302 0.0 0.2452077 7.807728e-16 0.13680224 0.28650093
0.076926 0.050751615 0.030544598 0.010265324 0.10542838 0.056708727 0.0016729542 0.20693979
6e-45 0.19664861 0.019227238 6e-45 0.008573642 0.020833775 0.025655203 0.20164558
-0.025998894 0.10780225 0.005941021 3.2390358e-15 3.0542903e-06 0.0 0.22578847 0.0
0.22185683 0.015194252 0.028761009 0.08774051 0.00038941632 -0.060753584 0.009773221 0.17157298
0.052544873 0.00076316256 0.0 0.0011459676 0.0 -0.042130955 -0.15184428 -0.14263265
-0.20082523 -0.0035709334 -0.06360749 -0.01175227 -0.10711077 0.0 -0.10692322 -2.9359775e-08
0.00396737 -0.22182733 -0.13151729 -0.044162255 -0.004887908 0.0016384539 -0.05458512 -0.00893529
0.012122845 -0.058070857 3.78675e-11 -0.14157473 -0.01081668 6e-45 -0.015476506 -0.04936575
-0.010951979 -0.045228202 -8.687961e-05 -0.07036473 -0.03961282 -7.389375e-05 0.00027696145 0.0
-0.13013619 0.0 0.018693883 -0.038663097 -0.0005562403 0.029502122 0.0073011788 -0.062488765
0.0038436013 -0.006384725 -0.001692012 9.486483e-06 0.0 0.0023583816 -2.8051829e-05 0.1317067
0.16666117 0.06493406 0.1342648 -0.011938911 0.16569555 0.03373812 0.0489397 -8.138445e-05
0.22990905 0.003289136 0.10111961 0.28216618 0.08086582 0.009957665 0.049991094 -0.030224562
0.15443121 0.022239543 -0.004987631 0.19656202 -5.921553e-06 0.17996672 0.047577728 6e-45
0.04268513 0.095541194 0.07443586 0.113115005 0.02800712 0.22725111 0.024507584 0.018623885
0.003593104 -8.584534e-05 0.17636412 -2.5763582e-05 -0.029112376 0.03304911 0.08694186 0.04265213
-0.006017108 0.09660097 0.0019771077 0.09862285 0.16015978 -3.1663612e-06 -8.044398e-05 0.0053214687
00000000: dbfc 35a9 1c56 703d 4e87 d83d beb8 b73e
00000010: 90b3 bc3e 8ef7 c5bc 07b0 413e ddd9 4bbd
00000020: e071 723c 9ede 8ea4 ba76 6d3e 8ef1 9cbc
00000030: 0e16 41be 5e16 043f 4ab3 99bd e4e9 8f3c
00000040: 9a2c 98bd 6074 3ebd b774 063e eb46 05bd
00000050: 2238 73bc 638c 9a3d 3456 d8bc 789d 933d
00000060: 97b8 9f3d 0400 0000 52fe aebb 5f74 85bd
00000070: 0747 eb3c 4450 e6bc 160b f0bc 2972 883e
00000080: 2b1e f8bc 8674 8b39 2836 49bc e3b9 a8a4
00000090: f266 203e 6974 36a4 5525 5dbe 84be 003d
000000a0: 75c4 a23d 7ce9 03bd 38c6 6bbb ec82 ad3e
000000b0: c0c6 a5bc 2a0c 2abe 99e1 223e ed45 c432
000000c0: 48e5 89a4 683b 0c3a 0000 0000 f2cd 113e
000000d0: e271 b83d bf0c 073e 9b2e 523e c083 e3ba
000000e0: 56b0 163d e3df ae3d 6aef 823c 0000 0000
000000f0: ba17 7b3e dd0a 6126 e315 0c3e 40b0 923e
00000100: 618b 9d3d ede0 4f3d aa38 fa3c e42f 283c
00000110: d6ea d73d 6947 683d 0747 db3a 06e8 533e
00000120: 0400 0000 415e 493e 7182 9d3c 0400 0000
00000130: 7678 0c3c 98ab aa3c dc2a d23c 2e7c 4e3e
00000140: a2fb d4bc 6dc7 dc3d e5ac c23b aa65 6927
00000150: 4ff8 4c36 0000 0000 1835 673e 0000 0000
00000160: 702e 633e 50f1 783c 359c eb3c 4cb1 b33d
00000170: 932a cc39 c0d8 78bd dc1f 203c d4b0 2f3e
00000180: 4b39 573d f90e 483a 0000 0000 4b34 963a
00000190: 0000 0000 8291 2cbd 117d 1bbe 4b0e 12be
000001a0: 21a5 4dbe 5206 6abb a544 82bd 988c 40bc
000001b0: e45c dbbd 0000 0000 90fa dabd d432 fcb2
000001c0: b600 823b b426 63be 78ac 06be 7be3 34bd
000001d0: bf2a a0bb 64c1 d63a a694 5fbd 5365 12bc
000001e0: e69e 463c b5db 6dbd 048b 262e f7f8 10be
000001f0: 7238 31bc 0400 0000 2c91 7dbc be33 4abd
00000200: ee6f 33bc 3541 39bd 2333 b6b8 621b 90bd
00000210: 0d41 22bd 68f7 9ab8 2335 9139 0000 0000
00000220: 6c42 05be 0000 0000 ea23 993c 325d 1ebd
00000230: a8d0 11ba 6fae f13c ba3e ef3b 38f4 7fbd
00000240: eee4 7b3b f536 d1bb 80c6 ddba 2228 1f37
00000250: 0000 0000 148f 1a3b d850 ebb7 1fde 063e
00000260: 3aa9 2a3e 26fc 843d b67c 093e 6c9b 43bc
00000270: 18ac 293e fc30 0a3d ff74 483d f2ac aab8
00000280: 476d 6b3e 8c8e 573b cc17 cf3d 1678 903e
00000290: fb9c a53d 7925 233c 76c3 4c3d 8099 f7bc
000002a0: 3723 1e3e b42f b63c 486f a3bb 8e47 493e
000002b0: c1b1 c6b6 3249 383e dde0 423d 0400 0000
000002c0: 9ad6 2e3d 1aab c33d d471 983d d7a8 e73d
000002d0: 306f e53c 84b4 683e 21c4 c83c 1e91 983c
000002e0: 487a 6b3b de07 b4b8 cc98 343e df1e d8b7
000002f0: 147d eebc 815e 073d 930e b23d 00b4 2e3d
00000300: 292b c5bb bbd6 c53d 5d92 013b c7fa c93d
00000310: ed00 243e ac7d 54b6 08b4 a8b8 b75f ae3b

exp_avg_sq f4 [4, 50]
2.4604653e-05 0.7456893 1.9814744 1.5096447 11.827374 0.039595637 0.2837667 0.17412864
0.6103089 7.897604e-06 2.138204 0.0047560805 1.6615227 4.405966 0.45801404 0.07297608
0.07950395 0.14054339 0.43347797 0.06843871 0.05120481 1.336969 0.006097855 1.0392799
0.13993882 6.7968655e-20 0.009699823 0.43520015 0.045261443 2.6206424 0.08902536 0.8490998
0.16148067 0.0050336476 0.001160615 1.1035268e-05 1.7963886 3.1884076e-06 2.2859752 0.020646002
0.13703963 0.025715413 0.028410487 1.4779435 0.025170686 1.6874177 0.16745034 0.00016505558
7.352686e-06 0.0037949914 0.0 0.10764105 0.121368214 0.106450714 0.69345874 0.003468621
0.017605014 0.037870284 0.010395562 0.0 0.27378765 0.00032553088 0.30449268 0.55408055
0.04255035 0.008294791 0.021385232 0.005411721 0.04438184 0.018233938 0.00043458186 0.20889574
3.6740093e-06 0.17633107 0.009341616 8.9658245e-26 0.0070127742 0.053586714 0.024421772 0.27657035
0.007016667 0.09064859 0.003451599 0.0011635819 1.054797e-05 0.0 0.1875337 0.0
0.20017725 0.0013939474 0.01987127 0.047746006 0.00028339674 0.03852708 0.00050673424 0.16584621
0.020022016 0.00055938034 0.0 0.00019926541 0.0 0.27901447 0.21617225 0.34599966
0.29602373 0.002633923 0.15842693 0.0063112318 0.2513251 0.0 0.24619842 0.00083931175
0.013809851 1.04594 0.18319151 0.039829567 0.0028218376 0.011396933 0.13328712 0.046883497
0.07014028 0.5044284 0.00015747639 0.4152644 0.09453617 4.4407162e-20 0.002134688 0.028998548
0.010652549 0.05413359 0.008423029 0.48876676 0.031915102 0.009676958 0.00023299511 0.0
0.22845067 0.0 0.18938991 0.0035417583 0.112254135 0.01335032 0.05426151 0.049577236
9.009487e-05 0.14392497 0.15647204 0.00026852608 0.0 0.003496599 0.00013799725 0.3742091
0.5168086 0.59103835 1.60133 0.01735978 0.15172857 0.08721672 0.3410361 0.00079593575
0.63777715 0.007829125 0.5376981 1.7013372 0.3125057 0.05504881 0.039620426 0.035115805
0.16922274 0.07917086 0.06472713 0.7350259 0.0005586421 0.6332145 0.107249506 3.0977262e-24
0.013032704 0.15110515 0.055551786 0.556178 0.063289516 0.50897086 0.059293944 0.020264043
0.0007121606 0.00088594574 0.4906368 7.804033e-05 0.6806694 0.005694428 0.12548691 0.094113715
0.046208248 0.18904428 0.0005728386 0.555521 0.12432443 0.0014590186 0.000777541 0.005209963
00000000: 1766 ce37 7ee5 3e3f f4a0 fd3f 0a3c c13f
00000010: ed3c 3d41 092f 223d de49 913e c74e 323e
00000020: 343d 1c3f f37f 0437 56d8 0840 e5d8 9b3b
00000030: c7ac d43f acfd 8c40 d180 ea3e 7c74 953d
00000040: f8d2 a23d 9bea 0f3e d3f0 dd3e 9829 8c3d
00000050: 23bc 513d cd21 ab3f 84d0 c73b 2007 853f
00000060: 1f4c 0f3e 887c a01f 02ec 1e3c 8ed2 de3e
00000070: 1064 393d 9bb8 2740 ee52 b63d 9b5e 593f
00000080: 305b 253e 4cf1 a43b c71f 983a 1d24 3937
00000090: 10f0 e53f 6df8 5536 6b4d 1240 ce21 a93c
000000a0: 1e54 0c3e 21a9 d23c 1cbd e83c 412d bd3f
000000b0: c132 ce3c 4efd d73f 1a78 2b3e c512 2d39
000000c0: 18b7 f636 64b5 783b 0000 0000 e972 dc3d
000000d0: e68f f83d d502 da3d 8386 313f ce51 633b
000000e0: 6438 903c df1d 1b3d 2652 2a3c 0000 0000
000000f0: e52d 8c3e 04ac aa39 77e6 9b3e 39d8 0d3f
00000100: 4749 2e3d e0e6 073c 1530 af3c ce54 b13b
00000110: bbc9 353d 575f 953c 97d8 e339 c4e8 553e
00000120: 008f 7636 2290 343e 940d 193c aafb dd15
00000130: 6acb e53b be7d 5b3d 2b10 c83c a19a 8d3e
00000140: 12ec e53b f8a5 b93d 3934 623b 5483 983a
00000150: 30f7 3037 0000 0000 d608 403e 0000 0000
00000160: 44fb 4c3e 1db5 b63a 13c9 a23c 5191 433d
00000170: de94 9439 92ce 1d3d 5cd6 043a 97d3 293e
00000180: 3605 a43c 61a3 123a 0000 0000 e7f1 5039
00000190: 0000 0000 fcda 8e3e 425c 5d3e de26 b13e
000001a0: 6c90 973e e59d 2c3b ab3a 223e 73ce ce3b
000001b0: afad 803e 0000 0000 701b 7c3e 4205 5c3a
000001c0: b742 623c 5de1 853f 8e96 3b3e 5424 233d
000001d0: 94ee 383b 34ba 3a3c 6b7c 083e e908 403d
000001e0: b5a5 8f3d 3822 013f 3f20 2539 899d d43e
000001f0: 2e9c c13d f7b4 511f 1fe6 0b3b 5d8e ed3c
00000200: 0788 2e3c 2fbb 5d3d bf00 0a3c a33f fa3e
00000210: 69b9 023d 1b8c 1e3c 2650 7439 0000 0000
00000220: f9ee 693e 0000 0000 6eef 413e d81c 683b
00000230: 7fe5 e53d 4dbb 5a3c 5141 5e3d 8011 4b3d
00000240: 51f1 bc38 1161 133e 353a 203e f6c8 8c39
00000250: 0000 0000 3227 653b 5bb3 1039 5698 bf3e
00000260: 924d 043f 4a4e 173f 62f8 cc3f 1936 8e3c
00000270: bc5e 1b3e ae9e b23d 499c ae3e 58a6 503a
00000280: 5d45 233f bb45 003c 95a6 093f 6bc5 d93f
00000290: bf00 a03e dc7a 613d 0749 223d 97d5 0f3d
000002a0: ba48 2d3e 5524 a23d a88f 843d a82a 3c3f
000002b0: d671 123a 581a 223f a1a5 db3d caac 6f18
000002c0: 1f87 553c 4fbb 1a3e 458a 633d ae61 0e3f
000002d0: ef9d 813d ea4b 023f 35de 723d c700 a63c
000002e0: 4ab0 3a3a d03e 683a bf34 fb3e 95a9 a338
000002f0: 5a40 2e3f 5398 ba3b a47f 003e b1be c03d
00000300: dc44 3d3d d394 413e 8c2a 163a a036 0e3f
00000310: cf9d fe3d 8a3c bf3a e5d3 4b3a 56b8 aa3b

exp_avg f4 [4]
0.0070378697 0.008264293 -0.008657675 0.008068317
00000000: ee9d e63b f566 073c ecd8 0dbc f930 043c

exp_avg_sq f4 [4]
0.003946526 0.00026616149 0.00022692757 0.00064293924
00000000: dc51 813b 978b 8b39 68f3 6d39 ec8a 283a
