last_brain.pth (torch, 8171 bytes, 12 tensors)

fc1.weight f4 [30, 5]
0.03163744 -0.33953643 -0.0007418767 -0.0983575 -0.22181158 -2.239016 -0.738136 -1.188907
-1.4050027 -1.2044648 -0.14773092 -0.29313502 -0.29626906 0.1590068 0.21007475 -0.18936041
-0.39276806 0.2392 -0.31750563 -0.30889294 0.017262343 -0.047122892 -0.2315634 -0.35110623
0.00037136048 -0.33865762 -0.30658132 0.027436215 -0.054240745 -0.08173081 -0.3979715 0.07553873
0.09360187 -0.032710765 -0.2353244 0.013773122 0.10374175 -0.16973798 -0.3061652 -0.48138478
-0.27190563 -0.051046524 -0.32941872 -0.011953415 -0.392439 0.116159566 -0.1254423 0.109316
0.057702336 -0.112223424 -0.014925599 -0.28023037 -0.31727827 -0.2785971 -0.18474771 -0.23586135
-0.34694186 -0.26417613 -0.012223074 0.30040595 -2.2810104 -2.2611625 -1.7067868 -1.1269238
-1.7394112 0.21079251 -0.060361274 0.18870862 0.11887695 -0.28699753 0.06841687 -0.32285088
-0.039191972 0.07670747 -0.006941265 -0.45830414 -0.42312872 -0.42196277 -0.08653259 -0.3956923
-0.67255723 -0.53503054 -0.13817455 -0.4873176 0.24802351 0.14842092 -0.035598714 0.16992702
0.075926155 -0.26823482 -0.012329515 -0.046339378 -0.31706187 -0.021673756 0.07623014 -0.21878535
-0.21682438 -0.45689932 -0.32004455 -0.49286297 -1.0386968 -0.91783017 -0.86574787 -0.7419106
-0.7294657 0.052920077 -0.13205425 -0.13170116 -0.22315793 -0.27260256 -0.014786393 -0.06286308
-0.09166095 -0.36009902 0.3187262 -1.0865616 -1.5154411 -1.8323789 -1.59695 -0.7287116
-0.2530496 0.018982306 0.17834261 0.05314325 0.03622926 -0.22807923 -0.067805775 -0.01579576
-0.13636705 -0.089760534 -1.5203575 -1.3883417 -1.0908992 -1.2245793 -0.6346041 -0.15752362
-0.42611748 -0.005166093 -0.14852688 -0.02143577 -0.39759263 0.257485 -0.048193093 -0.3219541
-0.2733015 0.00067629776 -0.0730754 0.0855699 -0.05304774 -0.09990741
00000000: 4396 013d b8d7 adbe 817a 42ba a86f c9bd
00000010: 9322 63be 0a4c 0fc0 7bf6 3cbf 1b2e 98bf
00000020: 21d7 b3bf e72b 9abf c646 17be cb15 96be
00000030: 94b0 97be aed2 223e d61d 573e b2e7 41be
00000040: e518 c9be d8f0 743e 1990 a2be 3727 9ebe
00000050: c269 8d3c ef03 41bd f51e 6dbe 32c4 b3be
00000060: 29b3 c239 8864 adbe 3af8 9cbe eac1 e03c
00000070: 8b2b 5ebd 7c62 a7bd ecc2 cbbe 0db4 9a3d
00000080: 56b2 bf3d b9fb 05bd e1f8 70be a9a8 613c
00000090: 8e76 d43d cbcf 2dbe afc1 9cbe 1178 f6be
000000a0: 3737 8bbe 2916 51bd 92a9 a8be 42d8 43bc
000000b0: c4ed c8be 11e5 ed3d f273 00be 11e1 df3d
000000c0: 4959 6c3d 65d5 e5bd 808a 74bc 5b7a 8fbe
000000d0: 4c72 a2be 47a4 8ebe 812e 3dbe a385 71be
000000e0: 5da2 b1be 1842 87be 4a43 48bc cfce 993e
000000f0: 13fc 11c0 e3b6 10c0 fd77 dabf 0a3f 90bf
00000100: 07a5 debf fed9 573e 623d 77bd d53c 413e
00000110: c275 f33d 57f1 92be 251e 8c3d b64c a5be
00000120: c387 20bd ce18 9d3d 8d73 e3bb d7a6 eabe
00000130: 54a4 d8be 810b d8be 0038 b1bd 2e98 cabe
00000140: b62c 2cbf c3f7 08bf a17d 0dbe b181 f9be
00000150: e0f9 7d3e a7fb 173e f5cf 11bd 5901 2e3e
00000160: 2c7f 9b3d 1356 89be bc01 4abc 5cce 3dbd
00000170: ef55 a2be 298d b1bc 8c1e 9c3d 4409 60be
00000180: 3607 5ebe b5ee e9be e1dc a3be 8958 fcbe
00000190: 04f4 84bf ebf6 6abf a7a1 5dbf daed 3dbf
000001a0: 44be 3abf b9c2 583d 3b39 07be abdc 06be
000001b0: 8383 64be 9092 8bbe a142 72bc 5cbe 80bd
000001c0: bcb8 bbbd e65e b8be 1530 a33e 7314 8bbf
000001d0: f9f9 c1bf 648b eabf dc68 ccbf d88c 3abf
000001e0: b88f 81be c880 9b3c 729f 363e bdac 593d
000001f0: 2265 143d 9a8d 69be c1dd 8abd 1c66 81bc
00000200: cea3 0bbe 5fd4 b7bd 139b c2bf 2eb5 b1bf
00000210: 96a2 8bbf 04bf 9cbf 6a75 22bf df4d 21be
00000220: 122c dabe 5448 a9bb 6e17 18be 119a afbc
00000230: 4391 cbbe 13d5 833e 1f66 45bd 2bd7 a4be
00000240: 2dee 8bbe 9349 313a 8ea8 95bd 463f af3d
00000250: 9648 59bd 429c ccbd

fc1.bias f4 [30]
1.540557 2.197988 0.27859983 3.1051846 -1.0431722 2.6644754 -0.47085252 0.2642045
2.0490057 1.2348182 3.067544 -0.64705604 1.6364985 0.10408246 1.501177 2.9581552
-0.9032953 -1.348844 3.2406323 2.9738767 6.1707 2.049669 1.6476581 3.9100397
-2.7443967 2.4002054 2.7050261 1.2140946 2.3861854 -0.2724992
00000000: f930 c53f d6ab 0c40 a3a4 8e3e 58bb 4640
00000010: ab86 85bf c486 2a40 9513 f1be d045 873e
00000020: e922 0340 860e 9e3f a452 4440 77a5 25bf
00000030: c878 d13f 2f29 d53d 9126 c03f 6a52 3d40
00000040: 5c3e 67bf eca6 acbf 8566 4f40 ff53 3e40
00000050: 6076 c540 c72d 0340 76e6 d23f 173e 7a40
00000060: 32a4 2fc0 f79c 1940 261f 2d40 7467 9b3f
00000070: 43b7 1840 0485 8bbe

fc2.weight f4 [4, 30]
-0.11595111 -1.6165315 0.14823788 1.9142168 0.0139567815 1.9623724 0.0282528 -0.1005249
1.5010408 -0.016205149 1.7895166 -0.27323222 -1.8226495 0.036247544 0.034720987 -0.64369786
-0.23147888 -0.038219627 -0.8675939 1.5300854 -1.5802637 0.6847507 -0.43787727 -1.7033273
-0.0024554313 1.5378317 -1.5863167 -0.54842836 1.7126385 -0.0024633273 -0.28309086 -0.7143068
0.24019459 1.6171476 -0.027245376 1.5478866 0.018729677 -0.08255079 1.6553489 0.062062588
1.5563098 0.14816046 -0.58382004 0.08786235 -0.284561 -0.6607839 0.22053598 -0.14650074
-0.9790621 1.4614865 -0.6831111 0.6338247 0.0075219907 -0.6726455 -0.086226776 1.4490725
-0.6925938 -0.20038538 1.6812818 -0.003630266 0.026712224 -0.03259908 0.13794331 0.11586726
0.013701301 0.0781163 0.008146103 -0.09465935 0.07398051 -0.079244114 -0.16335556 -0.051255185
0.021688202 -0.050139666 -0.01859994 -0.023338787 0.008091101 0.088485695 -0.3019583 0.03242238
-0.6697438 -0.1382555 -0.18347044 -0.031447023 -0.02781854 0.112492055 -0.07256424 -0.12121525
-0.17120627 0.0025624551 -0.0023516498 -0.13183159 0.12380007 -0.041424647 -0.005406842 -0.06349818
0.030426875 -0.1240964 -0.10847478 0.019531693 -0.17817612 -0.001807476 0.04968965 0.036024015
-0.23056205 -0.031632025 -0.35542002 -0.056847133 -0.2960913 -0.11993475 -0.6689384 0.2409428
-0.022749031 -0.25481996 -0.0093538435 -0.075882785 0.0153105995 -0.05327995 0.15318242 0.008782911
00000000: c777 edbd 81ea cebf accb 173e 0e05 f53f
00000010: fcaa 643c 052f fb3f 6b72 e73c 00e0 cdbd
00000020: 1b22 c03f a9c0 84bc e10e e53f 18e5 8bbe
00000030: 944c e9bf 4e78 143d 9837 0e3d 62c9 24bf
00000040: cd08 6dbe 2f8c 1cbd a21a 5ebf d7d9 c33f
00000050: 1546 cabf d24b 2f3f 7331 e0be a106 dabf
00000060: 4deb 20bb abd7 c43f 6d0c cbbf cd65 0cbf
00000070: bd37 db3f c66f 21bb 49f1 90be cfdc 36bf
00000080: 92f5 753e b1fe ce3f b231 dfbc 2621 c63f
00000090: fb6e 993c 6310 a9bd 79e2 d33f 5735 7e3d
000000a0: 2935 c73f 60b7 173e 3b75 15bf 2df1 b33d
000000b0: fbb1 91be 2229 29bf 2fd4 613e 4a04 16be
000000c0: d0a3 7abf fd11 bb3f 5ee0 2ebf 5642 223f
000000d0: 087b f63b 7f32 2cbf aa97 b0bd 357b b93f
000000e0: d44d 31bf d331 4dbe 3e34 d73f c2e9 6dbb
000000f0: 98d3 da3c 9d86 05bd 0341 0d3e d04b ed3d
00000100: 6c7b 603c 70fb 9f3d 3b77 053c c3dc c1bd
00000110: 1883 973d bd4a a2bd ae46 27be f5f0 51bd
00000120: 75ab b13c 405f 4dbd e75e 98bc fc30 bfbc
00000130: 8a90 043c fd37 b53d 479a 9abe 54cd 043d
00000140: 5474 2bbf da92 0dbe addf 3bbe 98ce 00bd
00000150: b5e3 e3bc 3c62 e63d 8f9c 94bd b33f f8bd
00000160: b250 2fbe ddee 273b 231e 1abb dcfe 06be
00000170: e48a fd3d e4ac 29bd e12b b1bb 550b 82bd
00000180: c841 f93c 4126 febd 0728 debd ee00 a03c
00000190: cd73 36be d5e8 ecba 6087 4b3d eb8d 133d
000001a0: 7518 6cbe 9590 01bd 9df9 b5be 8ad8 68bd
000001b0: 4799 97be 5aa0 f5bd 8c3f 2bbf b6b9 763e
000001c0: 2d5c babc c377 82be dd40 19bc 6f68 9bbd
000001d0: 4fd9 7a3c 143c 5abd dadb 1c3e 33e6 0f3c

fc2.bias f4 [4]
-0.50348896 -0.95200014 -1.1364762 -0.67412484
00000000: a7e4 00bf 48b6 73bf 0d78 91bf 7293 2cbf

exp_avg f4 [30, 5]
-2.4532894e-05 -2.4532894e-05 -2.4532894e-05 -2.4532894e-05 -2.4532894e-05 -6.1465755e-05 -6.1465755e-05 -6.1465755e-05
-6.1465755e-05 -6.1465755e-05 -1.93286e-05 -1.93286e-05 -1.93286e-05 -8.1781785e-05 0.0021803747 0.00013820958
0.00013820958 0.00013820958 0.00013820958 0.00013820958 6e-45 6e-45 6e-45 6e-45
6e-45 0.0001322767 0.0001322767 0.0001322767 0.0001322767 0.0001322767 1.131644e-06 7.6118e-05
6.531106e-05 5.5057735e-05 2.5683848e-05 -7.3460765e-06 -7.3460765e-06 -7.3460765e-06 -7.3460765e-06 -7.3460765e-06
0.00014148402 0.00014148402 0.00014148402 0.00014148402 0.00014148402 0.0044419467 0.004157726 0.0040325765
0.004088689 0.0036428377 0.0001329993 0.0001329993 0.0001329993 0.0001329993 0.0001329993 -2.5377949e-05
-2.5377949e-05 -2.5377949e-05 1.958344e-06 0.0013694132 -5.029023e-05 -5.029023e-05 -5.029023e-05 -5.029023e-05
-5.029023e-05 -0.0030461198 -0.0025594474 -0.0010583533 -0.00045032543 -0.00034195068 -0.001174423 -0.0006075995
-0.0004904763 -0.001260577 -0.004629834 -5.6882258e-05 -5.6882258e-05 -5.6882258e-05 -5.6882258e-05 -5.6882258e-05
-1.8255396e-05 -1.8255396e-05 -1.8255396e-05 -1.8255396e-05 0.0020312893 0.0038832743 0.0033021402 0.0036864856
0.0032104063 0.002906979 -0.0099001285 0.008657455 0.0035606949 0.0015947316 -0.0069353944 0.00012487758
0.00012487758 0.00012487758 0.00012487758 0.00012487758 -5.8793725e-05 -5.8793725e-05 -5.8793725e-05 -5.8793725e-05
-5.8793725e-05 5.3996187e-05 5.3996187e-05 5.3996187e-05 5.3996187e-05 5.3996187e-05 0.010116187 0.023856202
0.03056783 0.03655063 0.04530688 -5.789741e-05 -5.789741e-05 -5.789741e-05 -5.789741e-05 -5.789741e-05
-0.00046792245 -0.0004114701 -0.00042424706 -0.00042837585 -0.00044033965 0.00012381934 0.00012381934 0.00012381934
0.00012381934 0.00012381934 -5.960639e-05 -5.960639e-05 -5.960639e-05 -5.960639e-05 -5.960639e-05 1.6500284e-05
1.6500284e-05 1.6500284e-05 1.6500284e-05 -0.0018378198 0.00014370472 0.00014370472 0.00014370472 0.00014370472
0.00014370472 6e-45 6e-45 6e-45 6e-45 6e-45
00000000: fdcb cdb7 fdcb cdb7 fdcb cdb7 fdcb cdb7
00000010: fdcb cdb7 2de7 80b8 2de7 80b8 2de7 80b8
00000020: 2de7 80b8 2de7 80b8 da23 a2b7 da23 a2b7
00000030: da23 a2b7 4382 abb8 9ee4 0e3b 5aec 1039
00000040: 5aec 1039 5aec 1039 5aec 1039 5aec 1039
00000050: 0400 0000 0400 0000 0400 0000 0400 0000
00000060: 0400 0000 c2b3 0a39 c2b3 0a39 c2b3 0a39
00000070: c2b3 0a39 c2b3 0a39 fee2 9735 8aa1 9f38
00000080: 9cf7 8838 cbed 6638 a573 d737 517e f6b6
00000090: 517e f6b6 517e f6b6 517e f6b6 517e f6b6
000000a0: 545b 1439 545b 1439 545b 1439 545b 1439
000000b0: 545b 1439 c08d 913b 893d 883b b423 843b
000000c0: 69fa 853b adbc 6e3b ba75 0b39 ba75 0b39
000000d0: ba75 0b39 ba75 0b39 ba75 0b39 bbe2 d4b7
000000e0: bbe2 d4b7 bbe2 d4b7 186c 0336 e27d b33a
000000f0: b9ee 52b8 b9ee 52b8 b9ee 52b8 b9ee 52b8
00000100: b9ee 52b8 69a1 47bb 67bc 27bb 72b8 8aba
00000110: a819 ecb9 d847 b3b9 19ef 99ba 5047 1fba
00000120: 4f93 00ba f239 a5ba ddb5 97bb dc94 6eb8
00000130: dc94 6eb8 dc94 6eb8 dc94 6eb8 dc94 6eb8
00000140: 2a23 99b7 2a23 99b7 2a23 99b7 2a23 99b7
00000150: 611f 053b 887e 7e3b b868 583b f798 713b
00000160: ae65 523b 0483 3e3b 2634 22bc 00d8 0d3c
00000170: 8c5a 693b 5006 d13a 4e42 e3bb 92f1 0239
00000180: 92f1 0239 92f1 0239 92f1 0239 92f1 0239
00000190: 4899 76b8 4899 76b8 4899 76b8 4899 76b8
000001a0: 4899 76b8 f779 6238 f779 6238 f779 6238
000001b0: f779 6238 f779 6238 5dbe 253c 156e c33c
000001c0: 6369 fa3c 1db6 153d b593 393d dfd6 72b8
000001d0: dfd6 72b8 dfd6 72b8 dfd6 72b8 dfd6 72b8
000001e0: 7d53 f5b9 95ba d7b9 7a6d deb9 a297 e0b9
000001f0: 63dd e6b9 80d5 0139 80d5 0139 80d5 0139
00000200: 80d5 0139 80d5 0139 e001 7ab8 e001 7ab8
00000210: e001 7ab8 e001 7ab8 e001 7ab8 176a 8a37
00000220: 176a 8a37 176a 8a37 176a 8a37 00e3 f0ba
00000230: 71af 1639 71af 1639 71af 1639 71af 1639
00000240: 71af 1639 0400 0000 0400 0000 0400 0000
00000250: 0400 0000 0400 0000

exp_avg_sq f4 [30, 5]
2.7888566e-07 6.6776e-08 8.15969e-08 6.987856e-08 6.3469066e-08 3.8359897e-07 3.83605e-07 3.8359997e-07
3.8359954e-07 3.8359983e-07 1.357397e-06 1.8008558e-06 2.6776206e-06 0.001050159 0.00073587033 2.0340199e-06
2.0340199e-06 2.0340199e-06 2.0340199e-06 2.0340199e-06 1.508496e-11 3.1624313e-13 9.183518e-14 6.2352176e-14
6.446544e-13 1.8680981e-06 1.8680981e-06 3.2187343e-06 2.8171191e-06 2.349127e-06 9.237256e-06 9.893989e-05
8.1211576e-05 4.877316e-05 1.7465487e-05 3.269739e-07 6.410516e-07 2.5218643e-08 1.235063e-08 9.188209e-09
2.1291717e-06 2.1291717e-06 2.1291717e-06 2.1291717e-06 2.1291717e-06 0.00061439304 0.00037996084 0.0002834689
0.000638313 0.0003730597 1.8849128e-06 1.8849128e-06 1.8849128e-06 1.8849128e-06 1.8849128e-06 7.053771e-08
7.059931e-08 7.091849e-08 0.00014297687 0.00021475097 2.567323e-07 2.567323e-07 2.5673233e-07 2.5673285e-07
2.5673236e-07 0.0019514349 0.0013896328 0.0010493211 0.0009483228 0.00085862144 0.0007179472 0.00011438022
0.00015856086 0.00026224315 0.0006106064 3.305225e-07 3.3105087e-07 3.3138073e-07 3.7449882e-07 3.3862565e-07
1.6693794e-07 1.6693797e-07 1.6693828e-07 1.6693811e-07 0.0004115996 0.0028152526 0.0015774313 0.001235495
0.0010827936 0.0010010257 0.1712703 0.061192837 0.014359824 0.028443985 0.05717672 1.6640125e-06
1.6640125e-06 1.6640125e-06 1.6640125e-06 1.6640125e-06 3.5097264e-07 3.509766e-07 3.50991e-07 3.5117756e-07
3.511888e-07 1.5970112e-06 5.0904873e-07 3.6642106e-07 3.4761362e-07 3.5877085e-07 0.023624184 0.010082504
0.004635119 0.0070873974 0.013039334 3.4036168e-07 3.4036026e-07 3.4036023e-07 3.4036032e-07 3.4057555e-07
9.6536445e-05 0.00013545611 0.000114096096 0.00012791267 7.328709e-05 1.6350514e-06 1.6350514e-06 1.6350514e-06
1.6350514e-06 1.6740173e-06 3.6052865e-07 3.6052901e-07 3.605299e-07 3.6053015e-07 3.61142e-07 1.7800467e-07
1.7729272e-07 1.8453949e-07 1.8008741e-07 0.000422527 2.1962524e-06 2.1962524e-06 2.1962524e-06 2.1962524e-06
2.1962524e-06 1.6445451e-08 5.1162523e-09 9.729899e-09 3.0900884e-09 1.2800248e-09
00000000: c1b9 9534 7f66 8f33 5f3a af33 2510 9633
00000010: 7d4c 8833 71f1 cd34 45f2 cd34 94f1 cd34
00000020: 85f1 cd34 8ff1 cd34 ce2f b635 efb4 f135
00000030: 2cb1 3336 7da5 893a 6ce7 403a 3280 0836
00000040: 3280 0836 3280 0836 3280 0836 3280 0836
00000050: 4fb0 842d 7007 b22a 60cb ce29 9567 8c29
00000060: 3f74 352b 5dbb fa35 5dbb fa35 6f01 5836
00000070: bd0d 3d36 b2a5 1d36 b6f9 1a37 f37d cf38
00000080: 2250 aa38 c891 4c38 d982 9237 f38a af34
00000090: bb14 2c35 62a0 d832 a52e 5432 2cda 1d32
000000a0: e4e2 0e36 e4e2 0e36 e4e2 0e36 e4e2 0e36
000000b0: e4e2 0e36 380f 213a 7b35 c739 8d9e 9439
000000c0: 7654 273a 3a97 c339 1cfd fc35 1cfd fc35
000000d0: 1cfd fc35 1cfd fc35 1cfd fc35 847a 9733
000000e0: 629c 9733 da4b 9833 10ec 1539 c62e 6139
000000f0: 05d5 8934 05d5 8934 06d5 8934 18d5 8934
00000100: 07d5 8934 4ac7 ff3a 5724 b63a 6089 893a
00000110: de98 783a 1c15 613a 9f34 3c3a 6adf ef38
00000120: 5b43 2639 ae7d 8939 1a11 203a ab72 b134
00000130: 49bb b134 9fe8 b134 ba0e c934 5bcc b534
00000140: 8d3f 3334 8f3f 3334 a53f 3334 993f 3334
00000150: f7cb d739 1a80 383b d0c1 ce3a 55f0 a13a
00000160: 86ec 8d3a d934 833a 7b61 2f3e 57a5 7a3d
00000170: 7845 6b3c 5c03 e93c 2332 6a3d 0957 df35
00000180: 0957 df35 0957 df35 0957 df35 0957 df35
00000190: 506d bc34 db6d bc34 d66f bc34 7a89 bc34
000001a0: 058b bc34 e358 d635 90a5 0835 87b8 c434
000001b0: a79f ba34 179d c034 8187 c13c 1631 253c
000001c0: 32e2 973b 663d e83b eea2 553c f4ba b634
000001d0: c2ba b634 c1ba b634 c4ba b634 59d8 b634
000001e0: 9c73 ca38 3909 0e39 e046 ef38 4c20 0639
000001f0: b5b1 9938 f073 db35 f073 db35 f073 db35
00000200: f073 db35 ccae e035 ae8e c134 bb8e c134
00000210: da8e c134 e38e c134 fbe2 c134 8d21 3f34
00000220: da5d 3e34 d425 4634 0d5e 4134 9d86 dd39
00000230: 5463 1336 5463 1336 5463 1336 5463 1336
00000240: 5463 1336 ee43 8d32 08cb af31 8c28 2732
00000250: 6959 5431 deec af30

exp_avg f4 [30]
2.4515915e-05 6.1219806e-05 1.9351679e-05 -0.00013791648 6e-45 -0.00013197627 -1.131644e-06 7.331054e-06
-0.000141254 3.9649774e-05 -0.00013272522 2.5377949e-05 5.0012797e-05 -0.00014643908 -0.00017565412 5.6784833e-05
1.8255396e-05 0.00031571483 0.00019140204 -0.00012464312 5.855331e-05 -5.389079e-05 0.0021598777 5.7638208e-05
-2.5053437e-06 -0.0001235837 5.936506e-05 -1.6583155e-05 -0.00014344239 6e-45
00000000: 87a7 cd37 2263 8038 6a55 a237 ac9d 10b9
00000010: 0400 0000 1c63 0ab9 fee2 97b5 46fd f536
00000020: 951d 14b9 9f4d 2638 282c 0bb9 bbe2 d437
00000030: d5c4 5138 718d 19b9 cb2f 38b9 402c 6e38
00000040: 2a23 9937 8786 a539 18b3 4839 a2b2 02b9
00000050: 2397 7538 cc08 62b8 bc8c 0d3b 8ec0 7138
00000060: 7a21 28b6 3f96 01b9 bffe 7838 0e1c 8bb7
00000070: 0669 16b9 0400 0000

exp_avg_sq f4 [30]
6.1766364e-08 8.638501e-07 2.9894883e-07 2.6377704e-06 3.342298e-16 2.5153054e-06 5.2414375e-09 7.0841644e-09
2.4669534e-06 5.895354e-07 2.4082874e-06 6.919759e-08 8.9410673e-07 1.5781321e-06 1.7815131e-06 3.8821906e-07
1.6693754e-07 1.0430576e-06 0.0002293885 2.0355346e-06 8.10603e-07 3.985935e-07 4.5241977e-05 8.8169014e-07
5.3406843e-08 2.0122222e-06 8.232968e-07 2.2357295e-07 2.6563569e-06 5.1005955e-13
00000000: 6ba4 8433 54e3 6735 377f a034 8d04 3136
00000010: 9dab c025 9ecc 2836 2c18 b431 f868 f331
00000020: f08d 2536 9040 1e35 109e 2136 c799 9433
00000030: 8c02 7035 35d0 d335 531c ef35 6c6c d034
00000040: 713f 3334 30ff 8b35 0288 7039 389a 0836
00000050: 3798 5935 46fe d534 34c2 3d38 49ad 6c35
00000060: 7261 6533 b709 0736 8600 5d35 440f 7034
00000070: dd43 3236 aa91 0f2b

exp_avg f4 [4, 30]
2.3569301e-07 3.3533746e-07 4.1808125e-08 4.739737e-07 -6e-45 4.0672364e-07 0.00014806914 4.0463693e-08
3.126002e-07 -0.016611336 4.6821282e-07 6e-45 2.4945092e-07 -0.031321984 -0.0004516806 4.518457e-07
-6e-45 -0.017594941 -0.00055159564 4.5386824e-07 9.418569e-07 3.1278492e-07 -0.0015690365 5.966644e-07
-0.0035773544 3.6628933e-07 4.127427e-07 1.8524975e-07 3.641295e-07 6e-45 -0.0001873117 -0.0007701492
0.002004397 -0.00034725078 -6e-45 -0.00029120862 -2.0947418e-06 -9.542673e-05 -0.00026427282 0.0009339977
-0.0003531425 0.00277242 -0.00092240126 0.005452035 0.0007926636 -0.00040796658 0.0023603924 0.003927074
0.0016772368 -0.0003990381 -0.00089782075 -0.00023463799 0.002959359 -0.0009154287 2.7097374e-05 -0.00024992006
-0.0007350614 -4.7992362e-05 -0.00026975697 6e-45 6e-45 6e-45 -0.00012317824 0.0
6e-45 6e-45 -6e-45 6e-45 0.0 -1.830738e-05 0.0 -6.734471e-05
6e-45 -7.985117e-06 -3.497555e-05 6e-45 -6e-45 -6e-45 -2.9885236e-05 0.0
6e-45 6e-45 -2.8145163e-05 -6e-45 -2.3273169e-05 0.0 -6e-45 6e-45
0.0 6e-45 6e-45 -6e-45 -6e-45 0.0 -6e-45 -6e-45
6e-45 -6e-45 0.0 -0.001222674 0.0 -6e-45 6e-45 -0.0017394988
-0.00029066953 -6e-45 -6e-45 -0.000123158 -0.0003258158 0.0 -6e-45 6e-45
-0.00040290417 -6e-45 -0.0001367438 0.0 -6e-45 6e-45 0.0 -6e-45
00000000: cd12 7d34 6e08 b434 8590 3333 7376 fe34
00000010: 0400 0080 ac5b da34 0243 1b39 4dca 2d33
00000020: 72d3 a734 7f14 88bc ae5e fb34 0400 0000
00000030: 46ec 8534 7b4b 00bd 8bcf ecb9 3395 f234
00000040: 0400 0080 4423 90bc f598 10ba 2dab f334
00000050: ead3 7c35 d5ec a734 21a8 cdba 772a 2035
00000060: 0c72 6abb 6ca6 c434 ed96 dd34 10e9 4634
00000070: 947d c334 0400 0000 1a69 44b9 d7e3 49ba
00000080: 345c 033b 360f b6b9 0400 0080 5cad 98b9
00000090: 6493 0cb6 d61f c8b8 198e 8ab9 86d7 743a
000000a0: fc25 b9b9 7db1 353b 4dcd 71ba fca6 b23b
000000b0: c1ca 4f3a 59e4 d5b9 d0b0 1a3b afae 803b
000000c0: bad6 db3a fd35 d1b9 bb5b 6bba 2809 76b9
000000d0: cef1 413b 61f9 6fba 2b4f e337 b407 83b9
000000e0: 23b1 40ba 684b 49b8 2b6e 8db9 0400 0000
000000f0: 0400 0000 0400 0000 6829 01b9 0000 0000
00000100: 0400 0000 0400 0000 0400 0080 0400 0000
00000110: 0000 0000 cd92 99b7 0000 0000 6a3b 8db8
00000120: 0400 0000 d1f7 05b7 b6b2 12b8 0400 0000
00000130: 0400 0080 0400 0080 0eb2 fab7 0000 0000
00000140: 0400 0000 0400 0000 4719 ecb7 0400 0080
00000150: c03a c3b7 0000 0000 0400 0080 0400 0000
00000160: 0000 0000 0400 0000 0400 0000 0400 0080
00000170: 0400 0080 0000 0000 0400 0080 0400 0080
00000180: 0400 0000 0400 0080 0000 0000 2242 a0ba
00000190: 0000 0000 0400 0080 0400 0000 e5ff e3ba
000001a0: 0165 98b9 0400 0080 0400 0080 f923 01b9
000001b0: 42d2 aab9 0000 0000 0400 0080 0400 0000
000001c0: e23c d3b9 0400 0080 e262 0fb9 0000 0000
000001d0: 0400 0080 0400 0000 0000 0000 0400 0080

exp_avg_sq f4 [4, 30]
7.03352e-07 1.0227388e-06 5.7458138e-08 2.072779e-06 1.0043789e-12 1.5260329e-06 0.0012459045 1.03409015e-07
9.089375e-07 0.0058403 2.023388e-06 3.5262377e-09 5.760444e-07 0.01653272 4.2798256e-05 1.8561994e-06
9.373765e-28 0.0028000728 6.045222e-05 1.9045929e-06 8.068652e-06 9.053231e-07 0.000101952406 3.2403018e-06
0.006054421 1.2415957e-06 1.5475725e-06 3.124e-07 1.228081e-06 3.7439314e-08 3.6815832e-06 6.0599443e-05
0.00048024647 1.3349724e-05 8.913544e-12 9.293565e-06 1.6681413e-05 1.0455126e-06 7.892483e-06 0.001623976
1.3787027e-05 0.00082856225 8.73751e-05 0.004721095 2.4763121e-05 1.6985325e-05 0.00059885025 0.0010850427
0.00019791606 1.74622e-05 8.26129e-05 5.9899044e-06 0.0012066459 8.591452e-05 0.00010471228 7.0920746e-06
5.515929e-05 1.1739482e-05 8.214662e-06 9.344306e-08 1.7512995e-07 6.35876e-14 0.003817176 0.0
5.9380066e-12 6.890667e-31 1.1479265e-05 5.5453504e-09 0.0 5.5531473e-05 0.0 0.0009828646
1.2584654e-13 4.65593e-05 0.00029337723 2.172925e-08 2.0314769e-14 2.6158013e-05 7.084823e-05 0.0
1.1817679e-13 3.1728845e-14 5.727012e-06 2.4553961e-11 0.00022644593 0.0 1.3055551e-11 3.709135e-08
0.0 1.4315063e-07 6.0538774e-08 3.7563916e-13 5.481318e-11 0.0 5.0913196e-13 5.442443e-35
3.4892502e-05 3.074271e-08 0.0 0.00033044134 0.0 3.984543e-08 5.4579974e-14 0.0019483165
5.942151e-06 2.960089e-09 2.2303875e-22 0.0008875474 2.7741369e-06 0.0 9.954662e-14 3.3887663e-13
5.2304395e-06 2.236251e-14 8.033344e-05 0.0 6.4812224e-13 3.751415e-09 0.0 1.541912e-08
00000000: fbcd 3c35 0a45 8935 e4c7 7633 121a 0b36
00000010: 905a 8d2b 17d2 cc35 9e4d a33a b511 de33
00000020: b6fd 7335 fd5f bf3b 8bc9 0736 3b52 7231
00000030: 78a1 1a35 a06f 873c 4782 3338 8722 f935
00000040: 8288 9412 6d81 373b 148e 7d38 50a1 ff35
00000050: 995e 0737 5405 7335 48cf d538 f673 5936
00000060: 2a64 c63b e7a4 a635 30b6 cf35 eeb7 a734
00000070: 8bd4 a435 f6cc 2033 1e11 7736 282c 7e38
00000080: 97c9 fb39 a1f8 5f37 09cf 1c2d 8feb 1b37
00000090: 10ef 8b37 8a53 8c35 f569 0437 98db d43a
000000a0: d44e 6737 df33 593a 263d b738 6ab3 9a3b
000000b0: 66ba cf37 b57b 8e37 29fc 1c3a fe37 8e3a
000000c0: b087 4f39 ca7b 9237 7740 ad38 e3fc c836
000000d0: 5128 9e3a 022d b438 fa98 db38 75f8 ed36
000000e0: d65a 6738 b1f4 4437 b4d1 0937 deaa c833
000000f0: 5b0b 3c34 c12f 8f29 9629 7a3b 0000 0000
00000100: cfec d02c 6c9d 5f0d 1197 4037 6b89 be31
00000110: 0000 0000 77ea 6838 0000 0000 77d3 803a
00000120: ccb0 0d2a ab48 4338 6dd0 9939 20a7 ba32
00000130: abfa b628 e86d db37 5b94 9438 0000 0000
00000140: 240e 052a dee4 0e29 a92a c036 9bfa d72d
00000150: 1e72 6d39 0000 0000 faac 652d 5f4e 1f33
00000160: 0000 0000 f2b4 1934 8b01 8233 4f77 d32a
00000170: 2712 712e 0000 0000 d34e 0f2b 59af 9006
00000180: 8a59 1238 f809 0433 0000 0000 163f ad39
00000190: 0000 0000 8322 2b33 6dce 7529 a75e ff3a
000001a0: b062 c736 706a 4b31 93d1 861b 4caa 683a
000001b0: 4f2b 3a36 0000 0000 b828 e029 45c5 be2a
000001c0: 2281 af36 706c c928 b078 a838 0000 0000
000001d0: 216e 362b cce5 8031 0000 0000 0173 8432

exp_avg f4 [4]
-0.0063105514 -0.0008886947 -1.596524e-05 -0.00041529708
00000000: bec8 cebb 4bf7 68ba 18ed 85b7 3bbc d9b9

exp_avg_sq f4 [4]
0.00044373554 9.933898e-05 8.931789e-06 4.0155655e-06
00000000: 2da5 e839 3554 d038 bed9 1537 72bd 8636
