last_brain8.pth (torch, 11837 bytes, 12 tensors)

fc1.weight f4 [50, 7]
000000 a3 61 0b bf 9a ca 82 be 71 f5 be be 16 62 7f be
       -0.54445857 -0.25545198 -0.37296632 -0.2493976
000010 ea 4e c5 3d f8 f8 3d 3f 61 bc 31 3f 0f 4d ba be
       0.09634192 0.7420802 0.6942807 -0.36386916
000020 28 b0 55 3d 9d d6 11 3e 47 58 c2 3d c5 cf e6 be
       0.05216995 0.14242025 0.09489494 -0.4508039
000030 2b b0 62 40 7c ac 32 3f e5 8e 56 bd 3d ae 75 be
       3.5420024 0.6979444 -0.05238237 -0.23992248
000040 e5 50 fc 3c d2 37 28 3d 92 c8 f6 3e d6 f0 41 40
       0.030800292 0.04106886 0.48199898 3.0303245
000050 02 3e a7 bc 27 04 04 3c 83 88 f1 3c c6 38 10 be
       -0.02041531 0.008057631 0.02948404 -0.14084157
000060 39 82 2c 3e 58 49 69 be cc eb 05 c1 59 a2 09 bc
       0.16846551 -0.22781885 -8.370068 -0.008400523
000070 47 1a 10 bf 9f 9d 2f be 99 66 a4 be a9 75 77 be
       -0.56290096 -0.17149971 -0.32109526 -0.24165978
000080 48 40 be 3d 97 8c 18 3f 13 33 1e 3f 94 af 21 be
       0.092896044 0.59589523 0.61796683 -0.15789634
000090 f0 c6 30 3e e4 79 e1 be 48 10 ca 3e 84 62 85 3d
       0.17263389 -0.44038308 0.39465547 0.06512931
0000a0 b0 f5 5f 40 a6 e0 a4 be 6e f7 0b 3e e8 e7 38 be
       3.4993706 -0.32202643 0.13668606 -0.18057215
0000b0 f7 b6 a9 bc 56 da 28 be 0c ed 89 3e 53 2d 97 40
       -0.020717127 -0.16489539 0.26938665 4.7242827
0000c0 99 ed 45 3b fb 59 a1 3d fe f5 30 bd 14 bf ab bd
       0.0030201434 0.078784905 -0.043203346 -0.08386055
0000d0 a3 72 55 3e c7 73 89 be cb 6f 6c 40 9a 7d 13 3f
       0.20844512 -0.26846144 3.6943233 0.5761353
0000e0 ad 79 68 3e 48 d7 93 3e b6 10 eb be 8b ec 3e be
       0.22702666 0.28875184 -0.45911187 -0.18644921
0000f0 6a 53 61 be 04 fa 46 40 da a1 aa bd 1f be cd 3c
       -0.22004476 3.1090097 -0.08331652 0.02511507
000100 76 55 82 3e 9f ab 3e be c7 0b 0f 3e 78 e5 51 be
       0.25455827 -0.18620156 0.13969336 -0.20497692
000110 04 10 2d c0 92 9f df 3d 8d 4f 84 3d 87 ad 7f 3d
       -2.7041025 0.109191075 0.064604856 0.062421348
000120 71 7e a7 3d 5d 3f b7 bd f8 ca 2b 3f d4 c8 1b c0
       0.08178414 -0.089476325 0.6710658 -2.4341326
000130 25 cb 11 3e 29 1d 16 bf 62 81 f6 be 4e e2 98 be
       0.1423765 -0.58638245 -0.48145586 -0.29860157
000140 e1 e3 e4 be cd a4 41 3e c3 c7 0f 3f d3 aa 0a 3f
       -0.44705108 0.18910523 0.5616419 0.5416691
000150 76 6b 00 bc 4f f9 37 bd 7a 2f c3 bb fe ac 9f bb
       -0.007838121 -0.044915494 -0.0059565874 -0.004872917
000160 65 af 8f bd c9 ec 9d 40 99 b1 bc b9 e5 fc 05 bc
       -0.07015876 4.9351544 -0.00035990475 -0.008177971
000170 ca 19 96 3d 82 2f 44 be 15 15 d4 39 79 6e be 3d
       0.073291376 -0.19158748 0.00040451498 0.09298415
000180 fb 29 c2 40 46 34 73 bc 80 1a 7c bc d6 ce ec 3d
       6.0676246 -0.014844006 -0.0153871775 0.11562888
000190 57 68 84 bd d0 f2 cf bd 14 70 90 3d 02 94 35 c1
       -0.06465214 -0.10153735 0.07052627 -11.348635
0001a0 24 b0 b6 3c 97 25 c2 be ba dc a7 3c d9 08 81 bd
       0.022300787 -0.37919304 0.020490993 -0.06300516
0001b0 8d d3 ea 3e 1d ff 6b 3e 81 a1 01 40 13 57 50 3f
       0.45864525 0.23046537 2.0254824 0.81382865
0001c0 21 3f 26 be 6e 13 67 bd d2 b3 17 3e d8 9a ba 3e
       -0.1623502 -0.056415014 0.1481469 0.3644626
0001d0 66 c6 ae bc 53 60 8d c0 80 6e 2b 3f d4 82 cc be
       -0.021334838 -4.4180083 0.66965485 -0.39943564
0001e0 a3 ff 28 3e cd 72 01 bd ff 35 57 3c a6 72 b0 be
       0.16503768 -0.031603623 0.013135432 -0.3446247
0001f0 f5 c8 c1 40 1f b2 99 bd 80 f0 fb be 4f a5 cb be
       6.055781 -0.07504677 -0.49206924 -0.39774558
000200 60 a6 68 be cd 28 d0 be f4 4b 09 bf e9 b0 09 3e
       -0.22719717 -0.4065613 -0.5363152 0.13446392
000210 f6 df 56 3e 9e 55 41 3d 03 0e a6 3d 92 cc a5 3d
       0.20983872 0.04720079 0.08108141 0.08095659
000220 9a ac 59 3d 9f 3b 7f 3d c0 06 50 c0 34 c9 40 3e
       0.05314312 0.06231272 -3.250412 0.18826753
000230 c1 1d 13 be d1 7a 87 3c 91 a5 a0 3d 94 b7 2d 3d
       -0.14366819 0.016538056 0.07844079 0.042411402
000240 3f a7 7c be 39 f4 74 40 09 e7 e7 3e 32 22 8c 3c
       -0.24673174 3.8274062 0.45293453 0.01710615
000250 0f da 05 3e bb fd 90 b9 fa 3b ae bd 27 2e 22 3e
       0.13071464 -0.00027654864 -0.08507533 0.15837918
000260 0f e5 80 c0 cf 2b ac bd f3 8f 41 3c f0 28 9e 3d
       -4.0279613 -0.08406793 0.011814105 0.07722652
000270 f1 fa 5a bd 4c 2a 95 3e 56 37 bf be 41 01 70 c0
       -0.053461973 0.29133832 -0.37346905 -3.7500765
000280 96 ee 10 3e 37 5e bf 3d 0e 16 93 be 4b 23 69 3e
       0.14153513 0.09344142 -0.28727764 0.2276737
000290 24 33 20 3e 46 76 42 be dc 5e 28 c0 33 b0 b7 bd
       0.15644509 -0.1899043 -2.6307898 -0.08969154
0002a0 92 9d 38 3b 85 93 4d bf 61 cf 04 3f 94 b8 85 be
       0.002817009 -0.8030322 0.51878935 -0.26117384
0002b0 5d 00 26 3b 5f 7d a8 3d 0b e1 84 be ba 04 ca be
       0.0025329806 0.08227038 -0.25952944 -0.3945673
0002c0 9d fd 55 be 2f bf 0c bf eb 9f 61 3e ae c9 59 3e
       -0.20897527 -0.54979223 0.2203366 0.21268341
0002d0 69 df 04 40 5a 6f 65 3e ed bf 9e 3e 2e 43 f7 be
       2.0761359 0.22405759 0.31005803 -0.48293442
0002e0 bb 42 5d be e1 69 f9 3d 93 5f a7 3c 01 c7 3e 3f
       -0.21607487 0.12178398 0.020431316 0.74522406
0002f0 9d 22 59 be e6 dc 7c be c1 0f fb be 2e 28 40 bc
       -0.2120461 -0.24693641 -0.49035457 -0.01172833
000300 13 2d c6 be 11 16 3c be 2f 68 b1 3e e4 a8 a8 3d
       -0.38706264 -0.18367793 0.34649798 0.08235338
000310 0e 1f 96 bd 30 c3 8e 3e 60 9e 9e 3c 82 a4 11 be
       -0.07330142 0.2788329 0.019362628 -0.14222911
000320 cd b5 c6 bd ab 9c 9d c0 c0 f2 70 bd b5 8f 29 3e
       -0.097026445 -4.9253745 -0.058825254 0.16558726
000330 a2 77 1c be b5 fc 4e 3d bb 3b cd 3e 9d 82 2b be
       -0.15280011 0.05053397 0.40084633 -0.16749044
000340 26 5f 66 40 11 38 f6 3c fa 6e 9c 3b 6d 0f 04 3d
       3.5995574 0.030056031 0.0047739716 0.032241274
000350 24 ca a6 3d b6 d6 be be d9 3a 8c 3e c7 7d 96 40
       0.08144024 -0.37273186 0.27388647 4.7028537
000360 46 e4 76 3e 2b 39 5d be d5 15 a0 be 01 aa 00 be
       0.24110517 -0.21603839 -0.31266657 -0.12564851
000370 4f 11 11 bf 07 3f c1 be 93 4f 73 3e 38 20 db 3d
       -0.56667036 -0.377434 0.23760824 0.106995046
000380 1a bc a9 bd e7 37 ac 3e cd b6 81 3e 43 a3 f4 3e
       -0.08287831 0.336364 0.25334778 0.4778081
000390 96 c1 c2 be 55 66 cf 3f ab ce 88 3e fc ab 20 3e
       -0.3803832 1.6203104 0.26720175 0.15690607
0003a0 9a 34 93 3e ed 5d 11 be 9a 50 89 bd 5c 53 28 bf
       0.2875107 -0.14195986 -0.06704827 -0.65752196
0003b0 ff 4b b3 c0 eb 27 b0 bc 25 4b 29 bf 02 86 d6 bd
       -5.603027 -0.02150341 -0.66130286 -0.10474779
0003c0 06 58 53 be 6c 2e 91 3e b4 8f cc bb bb 80 6b bd
       -0.20639047 0.2835573 -0.0062427167 -0.057495814
0003d0 32 2b 15 be c2 7b 2a be 4f 92 2b be bf 95 63 bd
       -0.14567259 -0.16648772 -0.16755031 -0.05556273
0003e0 3b 45 8b be 31 da 02 3f 57 ff 44 40 8a 17 ff bd
       -0.27201256 0.51114184 3.0780847 -0.124556616
0003f0 14 35 3f be bd 14 de bd 7a 58 cc 3d 35 5b 07 3f
       -0.18672591 -0.10843799 0.09977813 0.52873546

fc1.bias f4 [50]
000000 0c d4 a0 be 8c 32 19 40 e9 ae c5 3f f8 d9 57 bf
       -0.3141178 2.3937101 1.5444003 -0.8431697
000010 35 65 38 3f ac fa 7b 3e 3d 04 87 3f ac 97 c3 3f
       0.7202943 0.24607342 1.0548168 1.5280662
000020 85 51 cd be 93 0b 54 bf 62 a8 7b bf 96 92 2c 3e
       -0.40101257 -0.8283016 -0.98303807 0.16852793
000030 3c 7d 4a 3f 8e 1c 09 3f ec 4f dd 3f c7 cc f6 3f
       0.7909734 0.53559196 1.7290015 1.9281243
000040 7a b7 34 c0 4d 53 1a c0 67 55 b7 3f 90 a6 14 c0
       -2.8236985 -2.4113343 1.4322938 -2.3226662
000050 41 7e 21 be c7 16 aa bf f2 e9 6c bf 2d 19 c3 be
       -0.15770818 -1.3288201 -0.9254447 -0.38105145
000060 07 1e b2 bf 1f 56 37 3d 20 2e 29 40 f9 9e 0d be
       -1.3915414 0.044759866 2.6434402 -0.13830175
000070 f6 40 82 bf 66 0a 06 3f 2e 37 99 3f 3e cb 08 40
       -1.0176075 0.52359617 1.1969965 2.137405
000080 e4 bc 0e 3f c2 99 9a bf 1f 4f 2f bf 01 5d 64 3f
       0.55756974 -1.2078173 -0.68480104 0.8920441
000090 6d b7 cf bf 02 59 29 3f 51 9f 65 3f 8e a0 44 bf
       -1.6227852 0.6615144 0.8969622 -0.76807487
0000a0 14 2c 9a bf b4 44 b8 3e 79 f4 0a be 4e e8 d1 3f
       -1.2044702 0.35989916 -0.13569821 1.6399019
0000b0 03 28 e6 be e4 b4 2e 40 b8 e3 9f 3f c1 51 a1 be
       -0.44952402 2.7297907 1.2491369 -0.31507686
0000c0 f1 cc e1 be 54 72 a8 3d
       -0.4410167 0.08224931

fc2.weight f4 [4, 50]
000000 40 6f 6e 3f 7d e0 23 bf 26 1b ab 3e 7e 15 8d 3f
       0.93138504 -0.64014417 0.3341915 1.1022184
000010 f2 ec 2f 3f 7d f9 7d be 19 52 6d 3e ec 37 b6 3d
       0.68720925 -0.24802203 0.23175849 0.08897385
000020 c4 64 aa 3e 27 7e 75 bc 79 9c ad be 47 35 b0 bf
       0.33280003 -0.01498369 -0.33908442 -1.3766259
000030 34 e5 58 bf 25 29 88 3f 53 ef ab 3f 6c ee 80 3e
       -0.84724736 1.0637556 1.3432411 0.251819
000040 1c 36 25 bf 16 0c f1 3f a8 b7 16 3f f4 0e d9 be
       -0.6453569 1.8831813 0.5887399 -0.4239422
000050 9f 53 4a 3f 0c e6 0a be 2e cf 50 3f 98 ff c4 bd
       0.79033846 -0.13564318 0.8156613 -0.09619063
000060 70 6c 9b 3e 3b e0 90 3e 9b 8c 88 be d8 5e a8 3e
       0.3035617 0.28296074 -0.26669773 0.3288486
000070 e3 f5 01 bf 17 c7 bd 3e 3d b4 31 3f b4 53 9b 3f
       -0.5076582 0.37065956 0.69415647 1.2134919
000080 44 4c ac 3e a4 58 1a bf 35 d6 8d be 48 09 c9 be
       0.33651936 -0.60291505 -0.2770249 -0.39264894
000090 32 ce d8 3e cc 4b 38 bc c6 83 d5 3e 5a e7 bb 3e
       0.42344815 -0.01124854 0.41702098 0.36699945
0000a0 53 05 39 3f 67 0b 32 3e 9a 0c cf be fc a7 19 c0
       0.7227375 0.17387162 -0.40439302 -2.400878
0000b0 5f 8d 91 3e f3 c8 b2 3f e4 46 a9 bf 1d ac 47 3e
       0.2842817 1.3967575 -1.3224759 0.1949925
0000c0 17 bd 90 bf 37 fe 38 3e c2 69 ac be 6a 3f 06 bf
       -1.1307706 0.18065725 -0.33674437 -0.5244051
0000d0 5c 33 4d 3d 92 6e 76 3f bf 0e f2 3e 7b a3 fb bd
       0.05009781 0.96262467 0.47276875 -0.12287041
0000e0 35 38 08 3e 6f 60 77 3d 9b 87 af 3d 49 a1 0a bd
       0.13302691 0.0603947 0.085707866 -0.03384522
0000f0 39 97 2e bd 3d 92 a2 be 16 5c 6f be 59 4e d5 3e
       -0.042624686 -0.31752196 -0.23374972 0.41661337
000100 19 09 1a 3f bc 36 06 3e e5 a7 9d be b5 12 04 bf
       0.6017013 0.13106817 -0.30792156 -0.51591045
000110 9c 90 ef bc 0c 61 83 be a3 54 3b 3f 3f 60 4a be
       -0.02924376 -0.25659978 0.7317602 -0.19763277
000120 68 e8 37 3e a0 e2 06 be bc 93 0d 3e 3e fe b9 3d
       0.1795975 -0.13172388 0.13825887 0.09081696
000130 c6 c3 16 be c8 f9 39 3d d7 f9 2e be 75 90 3c 3e
       -0.14723119 0.045404226 -0.17087494 0.18414481
000140 71 5a 81 3e 9c d0 4a bd 54 c9 75 3d 87 8a 45 be
       0.25264314 -0.04951535 0.060006455 -0.19291125
000150 6e 49 47 3e 13 41 f4 bd 8c 04 46 3e 3e 5c 91 3d
       0.19461605 -0.119264744 0.19337672 0.07097672
000160 65 d7 07 3e 8a b5 de bd f8 ff 86 3e 4e ab 4a 3e
       0.1326576 -0.108744696 0.26367164 0.1979191
000170 bb 29 0b be 29 64 af be 12 99 80 3d 14 ce 36 bd
       -0.13590138 -0.34256104 0.06279196 -0.044630125
000180 7a 2f 2d bd 80 ba c4 3d 54 b8 c8 be 06 0d 50 3e
       -0.042281605 0.096058846 -0.3920313 0.20317468
000190 72 c3 6c be 67 4f e8 be 52 0a 2a 3e 40 10 83 3f
       -0.23121431 -0.4537308 0.166055 1.0239334
0001a0 22 8a 3f be 7b b4 28 be 6e ac 0e 3e a3 ec 0b 3e
       -0.18705037 -0.16475098 0.13932964 0.13664488
0001b0 17 37 09 3e c6 af e6 bc 4f 56 fc bd 81 91 54 bd
       0.13399921 -0.028159987 -0.123211496 -0.051896576
0001c0 ce 75 24 bf 12 df 1c 3f f3 fc 46 3f eb 3d 15 3e
       -0.64242256 0.6127788 0.7772972 0.14574401
0001d0 86 d5 c3 be b7 04 34 3f 62 ec b4 bd 4f 6c ab be
       -0.38248843 0.70319694 -0.08834149 -0.3348107
0001e0 a0 d8 10 3f 4f 4a 98 bd 4a 30 d4 3e 56 f3 9a bd
       0.56580544 -0.07436048 0.41443092 -0.07565944
0001f0 94 2b 81 3e 22 ff a1 bc dc 96 1b be 5b 08 08 3e
       0.2522856 -0.019774977 -0.15194267 0.13284437
000200 8f 62 8e be 34 47 6f 3e f5 a5 b4 3e 74 fc 5f 3d
       -0.2780957 0.23367006 0.35282865 0.054684117
000210 46 50 23 3e dd 17 8d be 26 3e 29 bd 60 e7 61 be
       0.1594859 -0.2755727 -0.041319035 -0.22060919
000220 ad 9c 86 3e 42 5a d0 3d 88 f6 54 3e ed 93 f9 bc
       0.2629141 0.10173465 0.20797169 -0.030466044
000230 e8 31 a2 3d 06 4e 02 3e b6 e9 71 be a3 be fa be
       0.07919675 0.12725076 -0.2362431 -0.4897357
000240 41 2f 1a 3e 4e 77 f3 3d e8 01 5a be 9d 38 e1 3d
       0.15057088 0.1188799 -0.2128979 0.10997126
000250 70 98 18 bf 46 56 31 3e 35 91 83 3e 7d e2 0c bf
       -0.596076 0.17318067 0.25696722 -0.55033094
000260 25 cc 2d 3e cd ff 81 3f 31 af 39 bd 0c 8d 2d be
       0.16972406 1.0156189 -0.04533309 -0.16948336
000270 1e f6 3f 3e 8e b0 15 3e aa 79 0b 3e 34 2b e6 ba
       0.1874623 0.14618132 0.1362063 -0.0017560483
000280 4c 81 18 be c2 f6 b1 be 89 91 0b bf f1 fa 32 3f
       -0.14893073 -0.34758574 -0.54518944 0.69914156
000290 e2 e1 2d 3f 40 91 25 3e 94 05 cb be 79 34 86 3e
       0.67922795 0.1616869 -0.39652693 0.26211908
0002a0 5c 18 4c 3d ca f3 b8 be 2e ac 28 3f e5 7c 8d bd
       0.04982792 -0.36123496 0.65887725 -0.06908587
0002b0 b4 20 bd 3e 08 ac f6 bd 57 d1 8c 3e 28 ba 21 3e
       0.36939013 -0.12044531 0.27503464 0.15793669
0002c0 b3 79 34 be 02 21 d8 3d 21 6c a1 be d7 de 86 3e
       -0.1762455 0.10553171 -0.31527808 0.26341888
0002d0 fb 5a bf 3e f4 7f 04 3d aa 84 28 3e 07 cc 8a be
       0.373741 0.032348588 0.16456857 -0.27108786
0002e0 9a 99 3d be 6b 09 35 be 93 3a 93 3e 76 ba 39 3d
       -0.18515626 -0.17679374 0.28755626 0.04534384
0002f0 58 d6 36 3e 5c 80 bf 3e 04 c9 a5 3d 50 1d 1f 3e
       0.17855203 0.37402618 0.08094981 0.15538526
000300 b8 e8 40 be 40 0f 9d bf d6 73 bb 3e 00 cf 9a bc
       -0.18838775 -1.2270279 0.36611813 -0.018897533
000310 d1 66 4f be 62 58 1d 3e fb 61 26 bf 86 86 5f 3e
       -0.20254065 0.15365747 -0.64993256 0.2182866

fc2.bias f4 [4]
000000 24 be a4 3e ef 77 70 3f 11 7e 47 3f b3 bd 25 3f
       0.32176316 0.93933004 0.7792674 0.64742583

exp_avg f4 [50, 7]
000000 a6 ee 8e bc 5e e7 53 bc 38 68 0f bc c6 33 84 bc
       -0.01744778 -0.01293358 -0.008752875 -0.016137969
000010 2a 62 0a bd 81 dc dd ba a0 11 39 bd 78 5d 24 3e
       -0.033785023 -0.0016926677 -0.045182824 0.1605128
000020 96 d0 72 3e 07 60 0b 3e 87 ac d8 3d c8 e5 04 3e
       0.23712382 0.1361085 0.10579782 0.1297828
000030 aa 74 9f 3b 46 4e ad 3d 22 4c b5 3e 15 a9 c2 3e
       0.0048662024 0.08462195 0.35409647 0.38019624
000040 03 87 b5 3e 2f 7f a8 3e ba 31 95 3e fe 03 4c 3b
       0.35454568 0.32909533 0.291395 0.003113031
000050 f1 8b 84 bd a2 64 d2 3d f9 9e 1c 3e 42 a1 e9 3d
       -0.06472004 0.102731004 0.15295018 0.114077106
000060 1a 60 09 3e 3d d9 45 3d 48 69 96 b9 5c 45 85 bc
       0.13415566 0.048302878 -0.0002868867 -0.016268425
000070 54 b5 52 bc 48 3b 1c bc 44 7c d3 bb e5 ea 42 bc
       -0.012860615 -0.009535618 -0.0064540226 -0.0118968235
000080 73 b9 cb bc 64 6c a3 ba 0b 64 08 bd b5 0d 2d be
       -0.024868703 -0.0012468216 -0.033298533 -0.1689976
000090 f8 cf 82 be 11 a3 85 be c6 60 80 be e0 cd 7f be
       -0.25549293 -0.26100972 -0.25073832 -0.24980879
0000a0 1e cc a8 3a db 99 84 3d b7 62 b3 be b2 69 a5 be
       0.0012878214 0.06474658 -0.3503625 -0.32307202
0000b0 5f 0e 6d be 73 99 ca bd d4 36 93 bd 54 10 cb bb
       -0.23150013 -0.09892549 -0.07188192 -0.006197015
0000c0 46 46 a2 bc 46 7c 37 be f7 8d fa bd fe 54 c5 bd
       -0.0198089 -0.179185 -0.12234109 -0.096353516
0000d0 06 d7 98 bd eb 72 47 bc 2c 48 c6 ba a2 0d 7b 3c
       -0.074628875 -0.012173395 -0.001512771 0.015323075
0000e0 55 5a 3c bf 57 dc 1f bf bb 77 03 bf 13 f3 b2 be
       -0.73575336 -0.62445587 -0.5135457 -0.34951076
0000f0 90 b2 46 be 8a 35 25 bc 43 82 9b bd 00 03 77 bb
       -0.19404054 -0.0100835655 -0.07593205 -0.0037690997
000100 cc 41 0c bc 11 c2 30 bc 7c a8 8a bc 2c af a3 bc
       -0.008560609 -0.010788457 -0.016926043 -0.01998099
000110 10 a1 e7 39 da b5 ba 3a 61 90 c9 3e c0 13 56 3e
       0.00044179754 0.001424487 0.39367965 0.20905972
000120 d6 70 cb 3d 64 37 83 bc a4 26 c3 bd 8e ee bc 3b
       0.09933631 -0.016017623 -0.095288545 0.0057657426
000130 91 71 c1 bd 00 02 47 3a d0 ae 36 ba b9 ef 10 bc
       -0.09445489 0.00075915456 -0.0006968798 -0.008846217
000140 e7 a5 fc bb 1f 97 0b 3b e2 51 28 3a 23 bb 58 3c
       -0.007710207 0.0021299792 0.0006420893 0.013228211
000150 00 04 60 3f 95 ec 29 3f 92 27 fc 3e d3 e2 a1 3e
       0.87506104 0.6637662 0.4924894 0.31618366
000160 7a 1d ec 3d e9 eb 88 3b b4 2a 2e 3e 5c ce c7 bf
       0.1152906 0.0041785133 0.17008477 -1.5609851
000170 7e f9 98 bf 3c 9a 6c bf 4d 83 ec be dc e4 cd be
       -1.1951139 -0.9242284 -0.46193925 -0.40213668
000180 e5 e9 b8 bc 94 c5 a0 bd 6c 0f 93 3f eb 50 a3 3f
       -0.022572467 -0.07850185 1.1489081 1.2759069
000190 a6 93 86 3f 03 2e 7d 3f d0 fc 56 3f 9d b5 f2 3a
       1.0513809 0.98898333 0.8397951 0.001851726
0001a0 d1 38 27 be 95 cc a2 3e 02 7a b9 3e 02 9c b1 3e
       -0.16330267 0.3179671 0.36225897 0.34689337
0001b0 b1 ae aa 3e f9 8f 8a 3e 3d 85 26 3b 84 e9 5e bc
       0.33336404 0.27062967 0.0025409006 -0.013605479
0001c0 e0 88 67 bc 18 8e 8d be 2c f5 b4 be c1 66 e0 be
       -0.014131755 -0.2764747 -0.353433 -0.43828395
0001d0 cd 24 da be da 15 4c 3b 66 77 1f 3d 7a 40 66 3d
       -0.42606202 0.0031140954 0.038932227 0.056213833
0001e0 34 ac 19 3d 48 6a 08 3d 7b 26 f5 3c b9 a9 ab 3c
       0.03751774 0.033304483 0.029925575 0.020954954
0001f0 b3 4c af 3a ba 5b c1 be d3 52 0c b5 d3 52 0c b5
       0.0013374299 -0.37765294 -5.227459e-07 -5.227459e-07
000200 d3 52 0c b5 d3 52 0c b5 d3 52 0c b5 20 28 e3 a9
       -5.227459e-07 -5.227459e-07 -5.227459e-07 -1.00877856e-13
000210 04 00 00 80 46 59 57 3e f0 77 d0 bc f0 d7 b7 bd
       -6e-45 0.21030149 -0.025447816 -0.08976734
000220 4e 94 50 be 3f e5 a9 be 24 dc ca 3b 56 86 53 3e
       -0.20369074 -0.33182713 0.0061907936 0.20656714
000230 f6 36 68 bd a0 29 8b be b2 bb a3 bd d0 66 b2 bd
       -0.05669304 -0.27180195 -0.079947844 -0.08711016
000240 bc ea a9 bd a4 e4 2c ba 2d 68 78 bd 1d 71 05 3e
       -0.08296725 -0.00065953494 -0.060646225 0.1303143
000250 e3 d8 45 3d a3 bd d1 3c 20 d7 f3 bc 8f b7 40 bd
       0.048302542 0.025603121 -0.029765666 -0.047050055
000260 41 10 4e 3b 0e 5c 2f 3d 98 15 b8 bf d1 c3 8f bf
       0.0031442794 0.0428124 -1.438159 -1.1231633
000270 46 15 6d bf 40 cc 40 bf 56 2d bc be 0e 67 9b bc
       -0.92610586 -0.7531166 -0.3675334 -0.018970039
000280 ca e2 0d bd 4f 34 a2 bd 9c 27 8e bd 73 d0 86 bd
       -0.03464011 -0.07920133 -0.06941149 -0.06582727
000290 9a b9 46 bd 6a 2e 31 bd 5c af f6 b9 70 5b cc 3b
       -0.048516847 -0.043257155 -0.0004705143 0.006236486
0002a0 98 a9 1e bb 1a 62 ec bc 8a 7a 3d bd 06 4d 80 bd
       -0.0024209972 -0.028855372 -0.04625944 -0.06264691
0002b0 d3 e9 ad bd 56 18 eb 39 54 b3 aa 3c e5 c4 dd bb
       -0.08491864 0.00044840825 0.020837463 -0.0067678564
0002c0 a8 84 05 bc 56 68 41 bb e4 dc 11 bc bb 79 3f bd
       -0.0081493035 -0.0029511652 -0.008902762 -0.04674695
0002d0 17 6a ad ba d2 a4 b3 bc dd 74 98 bd 56 b7 1f bd
       -0.001323047 -0.021929178 -0.07444165 -0.038993202
0002e0 f4 76 4d bc 94 e9 14 3c ff b2 10 3d be fa 0e bb
       -0.012540568 0.0090888925 0.035326954 -0.0021816934
0002f0 a4 d2 eb 3b f7 08 a1 b4 f7 08 a1 b4 f7 08 a1 b4
       0.007196741 -2.999511e-07 -2.999511e-07 -2.999511e-07
000300 f7 08 a1 b4 f7 08 a1 b4 22 f5 80 a9 04 00 00 00
       -2.999511e-07 -2.999511e-07 -5.7268657e-14 6e-45
000310 ce 23 48 3f 34 49 f5 3e 22 2b c9 3e 6d d8 a2 3e
       0.78179634 0.47907412 0.3929072 0.31805745
000320 c8 f0 a3 3d 6a 77 1f 3c 21 d7 2c 3e 56 2f 91 be
       0.0800491 0.00973306 0.1687894 -0.28356427
000330 63 fd bc bd d4 8e 99 bc 07 83 b3 3d 32 fd 2b 3e
       -0.09228017 -0.018744864 0.08765226 0.16795805
000340 eb 5f cf bb c7 76 09 be 8c 9d 31 bf a0 10 eb be
       -0.006328573 -0.13424216 -0.6938102 -0.4591112
000350 0b 38 61 be f0 19 49 3d 30 f9 21 3e a2 dc 88 bc
       -0.21994035 0.049097 0.15817714 -0.016706768
000360 dc d4 9a bb 92 24 8e b5 92 24 8e b5 92 24 8e b5
       -0.004725082 -1.0590468e-06 -1.0590468e-06 -1.0590468e-06
000370 92 24 8e b5 92 24 8e b5 96 71 67 aa 04 00 00 80
       -1.0590468e-06 -1.0590468e-06 -2.055633e-13 -6e-45
000380 ab a4 8c be c6 ba d5 bd 10 d2 5e bc 25 62 cd 3d
       -0.27469382 -0.10436015 -0.0135998875 0.10028485
000390 30 7c 48 3e 45 81 bc bb 38 da bd bd 01 9d ab 3d
       0.19578624 -0.005752715 -0.092701375 0.083795555
0003a0 ce 64 e8 3d 55 24 4e 3d e2 3a 2d 3d 3a 85 49 3c
       0.11347352 0.050327618 0.042292483 0.01229983
0003b0 3a 2c 3a 3b d9 6f 4b bc 84 5e 2a bc 95 29 d9 bc
       0.0028407709 -0.012416803 -0.010398511 -0.026509086
0003c0 31 83 26 bc d9 4e a2 bb f5 60 a3 bb 1b 6c 97 38
       -0.010163114 -0.004953247 -0.0049859234 7.220377e-05
0003d0 fc c7 75 3d e5 3c 7f 3d 57 4b 0e 3d d8 ff c0 3c
       0.060005173 0.062313933 0.03473982 0.023559496
0003e0 1e 61 36 3c 60 95 fd 3d e6 c5 25 3b 2a 1d be 3d
       0.011131553 0.12382007 0.0025294959 0.09282906
0003f0 e9 50 b6 bd 08 f5 61 bc b1 aa 0b 3d 62 0a b5 bc
       -0.08902151 -0.01379133 0.03409833 -0.022099677

exp_avg_sq f4 [50, 7]
000000 98 72 c3 3b 30 1a 83 3b 77 1e 92 3b 76 bc 0d 3c
       0.0059645884 0.0040009245 0.004459198 0.00865089
000010 a0 84 d9 3d 3d 9d 8a 38 0d 37 ec 3c 1a 59 a9 3e
       0.10620999 6.609641e-05 0.028834844 0.33075792
000020 50 6e 04 40 29 b4 04 40 30 61 c8 3f b7 95 2b 3f
       2.069233 2.073496 1.5654659 0.6702532
000030 3e 41 50 3a d9 45 6a 3d 71 0f db 40 09 56 b4 40
       0.0007944292 0.05719552 6.845635 5.6355023
000040 95 ad 90 40 40 2a 6d 40 66 dd 2f 40 7d 5f 3d 3b
       4.521189 3.7057037 2.747888 0.0028896027
000050 a7 80 ca 3f 58 d6 70 3f a6 a2 86 3f 79 61 00 3f
       1.5820512 0.9407706 1.0518386 0.5014873
000060 46 35 70 3f cb 72 26 3e 77 da 44 38 ee d1 39 40
       0.9383129 0.16254728 4.6933503e-05 2.903438
000070 16 ba 64 3b c5 c3 1c 3b 30 38 30 3b 0b e4 aa 3b
       0.0034900955 0.0023920399 0.002688896 0.005215173
000080 21 43 77 3d dd 90 1b 38 a4 53 84 3c 53 f2 0a 40
       0.060366753 3.7089794e-05 0.016153164 2.1710403
000090 4a bb 13 40 56 04 f5 3f 01 74 f0 3f 7e fd 95 3f
       2.3083062 1.9141948 1.8785402 1.1717985
0000a0 29 3f 2b 3a 4e 56 83 3f 59 bd b4 40 fa 3c 63 40
       0.0006532544 1.0260713 5.6481137 3.5505967
0000b0 af d7 29 40 4a cc f1 3f f7 62 a8 3f 79 0d e8 3a
       2.6537893 1.8890469 1.3155202 0.001770421
0000c0 ab 77 32 3f 16 f6 80 3f 35 7e 4e 3f cf 5b 1e 3f
       0.6971385 1.00751 0.80661327 0.6185884
0000d0 92 a4 e2 3e cd a7 1b 3e a5 61 aa 39 e7 5e 44 3b
       0.44266182 0.1520073 0.00032497678 0.0029963793
0000e0 c0 2c 01 41 3f 84 96 40 70 35 41 40 52 af cb 3f
       8.073425 4.7036433 3.0188866 1.5912879
0000f0 af 26 3a 3f fa e7 50 3b 4f d8 b3 3f d7 bd 63 3d
       0.72715276 0.003187655 1.4050387 0.055600967
000100 2e c0 41 3d b1 21 12 3d 69 a4 dc 3c 87 16 4e 3c
       0.047302417 0.035676662 0.026933866 0.012578613
000110 05 65 49 37 35 68 1d 3b a9 6f 96 41 e2 b9 71 41
       1.2004054e-05 0.002401841 18.804522 15.107882
000120 f0 9d 3c 41 23 ec 0c 41 4c 31 86 40 9e fc a7 3b
       11.788559 8.807651 4.1935177 0.00512655
000130 d5 14 d6 3e b2 2e c8 3b 5f e4 68 3b 82 d3 8a 3b
       0.4181277 0.006109082 0.003553651 0.0042366395
000140 e3 ec 25 3c ff e8 48 3e 62 36 eb 38 94 ae 1c 3d
       0.010127279 0.19620131 0.00011215803 0.03825243
000150 c4 8e 46 42 0a f4 03 42 b7 63 b4 41 48 51 4e 41
       49.63942 32.98832 22.548689 12.894844
000160 c2 b1 d7 40 16 8e d0 3c 4f 0a 6b 40 55 c5 c3 42
       6.740449 0.025458377 3.6725042 97.885414
000170 c0 09 94 42 37 43 48 42 fb 20 ff 41 a8 30 83 41
       74.01904 50.06564 31.891104 16.398758
000180 ea da 30 3d f0 7d 68 41 10 68 6e 41 81 df 50 41
       0.043177523 14.530746 14.900406 13.054566
000190 80 60 2c 41 60 bd 22 41 1c e8 20 41 a1 f7 a8 38
       10.77356 10.171234 10.056667 8.056989e-05
0001a0 f4 2e 78 40 fe a6 32 40 d0 83 4e 40 24 f2 3a 40
       3.8778658 2.7914424 3.2267952 2.921029
0001b0 63 ca 2d 40 f8 bb ac 3f 7a 4a 0c 3a 54 fa c8 3c
       2.7154777 1.3494864 0.0005351674 0.024533428
0001c0 1e 7d c6 41 01 cf d0 41 85 64 b7 41 0f 38 a2 41
       24.811092 26.101076 22.924082 20.277372
0001d0 89 3d 18 41 9f 33 52 3b 46 43 10 3e 61 9c ec 3d
       9.515023 0.0032074226 0.14088163 0.115532644
0001e0 73 23 dd 3d 6e 10 a6 3d 7e 67 71 3d 70 e8 2d 3d
       0.10797777 0.081086025 0.05893659 0.042457998
0001f0 c2 55 8a 39 d4 c0 82 40 0e b6 b0 33 0e b6 b0 33
       0.00026385306 4.0860386 8.228754e-08 8.228754e-08
000200 0e b6 b0 33 0e b6 b0 33 0e b6 b0 33 e7 80 b1 31
       8.228754e-08 8.228754e-08 8.228754e-08 5.1660325e-09
000210 52 56 a3 08 c3 f1 e7 41 f2 ed bc 41 56 62 94 41
       9.8304995e-34 28.993048 23.616184 18.548016
000220 e2 9e 5e 41 90 1a d5 40 a6 86 f0 3b a3 79 d0 3e
       13.91379 6.6594925 0.00734027 0.407178
000230 f0 20 ba 3f fb c3 b1 40 31 1f a0 40 3f fb 84 40
       1.4541302 5.5551734 5.0038075 4.1556697
000240 1f 93 f4 3f 4c 9a 50 3b d9 99 0c 3e 7e df 33 40
       1.9107398 0.003183025 0.13730563 2.8105159
000250 ef 9e 16 40 fa a9 ea 3f 18 26 ad 3f 19 80 20 3f
       2.3534505 1.8333123 1.352725 0.6269546
000260 e3 26 1b 3a 3e a7 97 3e 26 c0 15 42 df 96 08 42
       0.00059185753 0.29619783 37.437645 34.147335
000270 14 25 da 41 59 ad a7 41 93 62 96 40 d2 0e 9d 3b
       27.268105 20.959642 4.699533 0.0047930265
000280 a2 83 fc 3d f9 e3 0b 3f f2 c6 e0 3e 0c 00 cb 3e
       0.123297945 0.54644734 0.43901783 0.39648473
000290 27 8f ac 3e 3f 09 11 3e 17 ee 23 38 46 b7 2b 3e
       0.33702967 0.14163683 3.9083967e-05 0.16769132
0002a0 b4 0f 49 3e 92 0c aa 3d 43 70 12 3e 74 15 c3 3d
       0.19634897 0.08303179 0.14300637 0.09525576
0002b0 17 03 c6 3d 0e dc a8 37 3b 83 b6 3f 97 3b 6a 3b
       0.09668558 2.0129632e-05 1.4258798 0.0035741085
0002c0 8c 3b 93 3b 2f 11 09 3c 04 d4 8b 3d 75 93 88 3d
       0.0044931825 0.008365913 0.06827548 0.0666875
0002d0 4c 12 d3 37 73 13 d2 3b 40 8f 02 3f d9 a9 32 3e
       2.516168e-05 0.00641101 0.5099983 0.17447604
0002e0 ea 00 e6 3d d1 ee 0b 3e a1 11 00 3e 1f 93 e3 39
       0.11230643 0.1366532 0.12506725 0.00043406428
0002f0 34 49 8c 3f 2c a8 e9 32 2c a8 e9 32 2c a8 e9 32
       1.095984 2.7201246e-08 2.7201246e-08 2.7201246e-08
000300 2c a8 e9 32 2c a8 e9 32 b0 b2 e5 30 78 d9 88 09
       2.7201246e-08 2.7201246e-08 1.6712729e-09 3.2945316e-33
000310 7c 99 2d 41 be 19 33 41 a1 34 0a 41 ed c4 cd 40
       10.849972 11.193785 8.637849 6.430289
000320 89 20 d8 3f 3e cc a4 3a f6 cd 75 40 47 71 b6 41
       1.6884929 0.0012573076 3.8406959 22.805311
000330 40 a7 92 41 27 13 65 41 34 81 2b 41 db e8 a2 40
       18.331665 14.317176 10.719044 5.0909247
000340 27 34 cb 3b e6 90 12 40 3f 53 5c 42 df 60 2a 42
       0.0062012854 2.290094 55.081295 42.5946
000350 e0 2f fb 41 79 64 ad 41 66 42 5c 41 4d 7c 9b 3c
       31.398376 21.674059 13.766211 0.01898017
000360 12 84 30 3e 32 8e bb 34 32 8e bb 34 32 8e bb 34
       0.17237881 3.4934925e-07 3.4934925e-07 3.4934925e-07
000370 32 8e bb 34 32 8e bb 34 53 cb c1 32 0d 21 e5 0a
       3.4934925e-07 3.4934925e-07 2.2560618e-08 2.206433e-32
000380 52 6d 91 41 68 c1 6a 41 ba 38 37 41 47 04 09 41
       18.17838 14.672218 11.451349 8.563544
000390 0e 4a 81 40 58 1d a3 3b 3e 90 32 3e 9d b0 dd 40
       4.04029 0.0049778633 0.17437837 6.9278092
0003a0 eb c1 9e 40 50 6b 55 40 44 d6 00 40 9f b8 01 3f
       4.9611716 3.3346748 2.0130777 0.50672334
0003b0 d4 a6 57 3a 64 c5 3f 40 a7 46 02 3c 00 af f7 3b
       0.00082264584 2.9964228 0.007951415 0.0075587034
0003c0 51 ed 1d 3c 3d 7f 86 3d b5 7e 46 3d 04 27 a2 37
       0.0096391 0.065672375 0.04846068 1.9330073e-05
0003d0 3b 3d 59 3e 45 d4 82 3e 4b d8 1a 3e 20 56 4e 3e
       0.21214764 0.25552574 0.15121572 0.20150042
0003e0 3d 92 ae 3e 70 74 c1 3e a9 ab ce 39 30 d4 ed 3f
       0.34095946 0.37784147 0.0003941928 1.858038
0003f0 ec ae 98 40 a0 c9 bf 40 85 08 b0 40 e5 fa 9e 40
       4.771353 5.9933624 5.50104 4.968127

exp_avg f4 [50]
000000 a4 11 54 ba f6 bf 45 3b b2 76 28 3b 96 65 fb 39
       -0.0008089787 0.0030174232 0.0025705514 0.00047950138
000010 fa 3e 1c ba da 9e 8b ba 08 64 35 bb 73 37 6e ba
       -0.0005960312 -0.00106522 -0.0027678031 -0.0009087242
000020 5f a9 94 bb 29 b2 5f b7 8a 2c 10 3b 45 f6 85 39
       -0.004536792 -1.3333317e-05 0.0021999204 0.00025551222
000030 a4 60 6e 3b d0 48 1e bc f1 3b f2 3b 85 83 15 3b
       0.003637352 -0.009660915 0.0073923995 0.0022813987
000040 b4 6e 73 ba 10 5c 8b 3a d3 52 0c 35 5a 9e d1 39
       -0.00092862104 0.0010632295 5.227459e-07 0.00039981568
000050 75 33 bc ba 83 3e 5a 3a ec 05 11 bc 49 85 d1 b9
       -0.0014358597 0.0008325355 -0.00885151 -0.00039962892
000060 24 1f 1b b9 30 54 0b ba fe 1e 53 ba f7 08 a1 34
       -0.00014793553 -0.0005314974 -0.00080536294 2.999511e-07
000070 46 17 8a 3b aa bb b5 ba 65 49 8d bb 92 24 8e 35
       0.0042142 -0.0013865132 -0.004311728 1.0590468e-06
000080 a7 2a 8b ba dc fa 4d 3a b8 1c 46 b8 7b 36 ad 3a
       -0.001061757 0.00078575104 -4.7233625e-05 0.0013215089
000090 48 6f c0 38 74 85 7c b8 28 72 93 ba 78 3d 79 ba
       9.176001e-05 -6.020577e-05 -0.0011249231 -0.0009507756
0000a0 b6 a7 24 3a e0 ba 42 ba c6 bb 02 ba 1b 46 27 bb
       0.00062810944 -0.0007428359 -0.0004987087 -0.0025523964
0000b0 8d 40 ea 38 94 3b a3 35 d2 73 92 bb 88 a1 f9 b8
       0.00011170013 1.2161786e-06 -0.0044693733 -0.00011903333
0000c0 e1 31 11 3b 1a ec 7e ba
       0.0022154974 -0.0009724513

exp_avg_sq f4 [50]
000000 ee 7b 4b 37 3d 3f 2e 39 fe 50 31 3a 10 40 9b 38
       1.21285975e-05 0.00016617491 0.0006764083 7.4029085e-05
000010 de 33 ea 36 91 29 67 39 37 98 cd 39 1b 32 9b 38
       6.9797816e-06 0.00022045361 0.00039214056 7.400309e-05
000020 a2 d9 17 3a be ab 67 36 f6 d7 ae 3a 4a 2a a3 37
       0.00057926227 3.452165e-06 0.0013339508 1.9450807e-05
000030 fb f0 8c 3b 15 f2 05 3c d1 df 38 3a 97 4e 6b 39
       0.004301188 0.008175393 0.0007052394 0.00022440623
000040 dd 22 d6 3a b5 7e a1 38 c0 ec 04 34 ee 39 02 3b
       0.0016337294 7.700679e-05 1.2379587e-07 0.0019870955
000050 bd 03 23 3a c2 8d 3a 39 25 d2 00 3b 7e 5a f1 37
       0.00062185136 0.00017791151 0.0019656506 2.8771577e-05
000060 10 54 fe 37 5a 42 a6 36 cf 12 c4 38 2c a8 e9 32
       3.0318304e-05 4.95491e-06 9.349512e-05 2.7201246e-08
000070 37 ac 2a 3a f6 79 d6 3a 5b 39 86 3b 84 05 0e 35
       0.00065106474 0.0016363251 0.004096193 5.290715e-07
000080 a9 ef a8 3a 6c 89 a3 39 a2 85 d4 36 6a f0 dc 38
       0.0012888807 0.0003119217 6.3336493e-06 0.00010535198
000090 e6 85 d8 39 cc 8b 11 35 0e 24 ca 3a e3 d4 b5 36
       0.00041298493 5.422014e-07 0.0015422122 5.4190036e-06
0000a0 cd 3a b9 38 2e 21 bd 39 2b 52 20 3a 44 0d 98 3b
       8.83244e-05 0.0003607361 0.00061157596 0.0046402533
0000b0 f4 ed b7 36 e8 21 3c 35 98 81 a8 3a 6d 20 29 37
       5.4815264e-06 7.00848e-07 0.0012856005 1.0080735e-05
0000c0 b8 a6 4e 3b 29 36 cd 39
       0.0031532478 0.00039141

exp_avg f4 [4, 50]
000000 e4 dd 85 bc a8 68 e8 bb 8c d2 84 3e 1f d8 fe 3a
       -0.016341157 -0.007092554 0.25941885 0.0019443071
000010 cc 0e 6f bc 5e 14 1e 3e f4 42 2c bd a0 cd fd bd
       -0.01459093 0.15437457 -0.04205604 -0.123927355
000020 f0 68 ac bd fc db 2b be e4 d8 8f 3d 84 74 2d bc
       -0.08418453 -0.16783136 0.070237905 -0.0105868615
000030 6a b2 d9 3c e6 c5 53 bd 2a 87 a4 bb d1 7b 97 3e
       0.026574332 -0.051702403 -0.0050209956 0.29586652
000040 b6 b6 75 3e 83 84 be 3b 23 55 50 36 1a 98 83 bd
       0.2399548 0.0058141365 3.1043971e-06 -0.064254954
000050 08 2c 26 bc 90 93 6c 3c 78 4e 9a bd c5 3c 0a 3d
       -0.010142334 0.0144394785 -0.07534498 0.03374936
000060 73 d6 50 3d 9b aa 42 bd aa 8a 6b 3c 37 82 96 35
       0.050985765 -0.047525983 0.014376322 1.1213768e-06
000070 00 39 ce b9 04 0a 4c be 5f 50 ef bd f7 44 5e 36
       -0.0003933385 -0.19925696 -0.116852514 3.312072e-06
000080 56 fa c2 be 68 75 b8 bc 07 00 ca bb 4b 74 39 bd
       -0.38081616 -0.022516921 -0.006164554 -0.04527692
000090 0e fd 67 3d 20 f3 3d 3d 99 ff c6 3a 7a e5 54 bd
       0.056637816 0.04637444 0.0015182375 -0.05197666
0000a0 16 81 1f 3d 40 43 d9 be f5 76 aa bc fd f3 57 bc
       0.038941465 -0.4243412 -0.020808676 -0.01318073
0000b0 d0 ed 32 3c 6e f2 7b 36 99 f6 e3 3c 46 83 a3 bc
       0.010920957 3.7543027e-06 0.027827548 -0.019960057
0000c0 22 b5 28 bc fb 0b f4 bd 02 46 59 0c e8 38 05 bc
       -0.010297092 -0.119163476 1.6738139e-31 -0.008131243
0000d0 88 23 4c bd 43 a2 89 b8 60 14 4f 0c 85 80 25 bc
       -0.049838573 -6.562893e-05 1.5952831e-31 -0.010101442
0000e0 7b e8 c6 bc af d2 8b bc d2 35 57 b9 f0 be 8b 3c
       -0.024280777 -0.017068235 -0.00020524047 0.01705882
0000f0 a0 00 92 bd db 2b 7e 0c a4 10 11 bc 26 0a 79 bc
       -0.071290255 1.9580646e-31 -0.008854065 -0.0152001735
000100 f7 7e d9 3b 9f 09 50 bd bd cb f2 bc 04 00 00 80
       0.00663745 -0.050790425 -0.029638166 -6e-45
000110 00 00 00 00 91 7a 84 bc 70 0c 0e bc 88 71 10 bb
       0.0 -0.016171725 -0.0086699575 -0.0022040326
000120 13 d6 ac 3c 83 9f d3 bb ab 42 bf b7 42 60 b2 aa
       0.021098172 -0.0064582243 -2.2800019e-05 -3.1685944e-13
000130 5f 96 c7 bb 00 00 00 00 0d 3c 1f 3c 12 8c 05 bd
       -0.0060909237 0.0 0.009718907 -0.032604285
000140 5c 6c b8 bc 00 00 00 00 12 0d ec bc d9 0f 20 3c
       -0.022512607 0.0 -0.028814826 0.009769403
000150 3b 03 a9 b5 e6 9d 90 bb 59 2b b5 3b 62 8a 00 bc
       -1.2592421e-06 -0.004413354 0.005528849 -0.007845493
000160 a6 c8 75 bc e0 43 b5 0c 44 39 77 ba d0 e5 0a bd
       -0.015001452 2.7928316e-31 -0.00094308355 -0.033910573
000170 88 93 58 3a ab 8a a5 bb f1 3f 94 b6 00 00 00 00
       0.000826173 -0.005051931 -4.4181875e-06 0.0
000180 7f d0 8f bb cb 10 b1 bb ba 04 d6 3c 02 e1 70 bc
       -0.0043888683 -0.005403613 0.0261253 -0.014702084
000190 80 b7 5b b5 6d 84 a1 ba bd 87 0c 3e a4 75 38 39
       -8.1850885e-07 -0.0012322791 0.13723655 0.00017591432
0001a0 34 92 4a b5 80 40 33 3e 00 75 00 3d ac 47 cb 3c
       -7.546362e-07 0.17505074 0.03136158 0.02481445
0001b0 d4 22 2a 3d a4 2d 83 3d 38 fd 1e 3f 83 dc 61 b5
       0.04153712 0.0640519 0.6210513 -8.413992e-07
0001c0 30 82 00 bb f6 d7 d0 bb 67 bb 05 3d 22 b2 1b 3e
       -0.0019608848 -0.006373401 0.032649424 0.15204671
0001d0 d5 61 24 3e 04 00 00 00 00 00 00 00 a0 c8 61 3e
       0.16052945 6e-45 0.0 0.22049189
0001e0 1a 69 16 ba 4e 4c 90 3e a5 a5 ff 3c 0e 07 3e 3d
       -0.0005737707 0.28183216 0.031206915 0.046393447
0001f0 c0 9f ac 3c 24 c6 8e b5 fa 22 0e 3d 00 00 00 00
       0.021072268 -1.0637491e-06 0.034701325 0.0
000200 24 0c e1 3d 73 20 97 3e 43 db b4 3b 00 00 00 00
       0.10988644 0.29516944 0.005519302 0.0
000210 d9 9a 0f 3f 6c a8 a0 3c 24 50 7a bb e0 d2 f7 bb
       0.56095654 0.01961156 -0.003819474 -0.00756298
000220 cb 2d 92 3b ee 81 af 3b c8 91 2c 3e 9d 3e a9 b5
       0.0044610254 0.005356065 0.16852486 -1.2609704e-06
000230 b9 5b 24 bc 46 d1 2a 3f 64 08 b0 3b 40 9d e7 ba
       -0.010031634 0.66725576 0.005372094 -0.0017670766
000240 ab e5 c7 bb 00 00 00 00 fe 1f 37 bc c0 36 8f bb
       -0.0061003766 0.0 -0.011177061 -0.0043705404
000250 3e 01 43 3c 27 0d a2 3d db 5f a8 b0 3e f4 ac b8
       0.011902152 0.07912665 -1.2250853e-09 -8.247093e-05
000260 a8 2d 5f be 91 9d 37 3b 23 07 98 b0 33 71 41 be
       -0.2179476 0.00280175 -1.1061484e-09 -0.18890838
000270 70 14 51 bd 66 c4 75 bc 2e 0e f2 bb 11 82 15 bd
       -0.05104488 -0.015000438 -0.0073869443 -0.036500994
000280 7a b4 b1 be ad df a7 b0 5c 76 38 39 27 71 74 bb
       -0.34708005 -1.2214422e-09 0.000175917 -0.003729889
000290 06 82 87 bb 86 c7 86 bd 89 e4 c6 bd 4f b3 b3 ad
       -0.004135373 -0.06581025 -0.09711558 -2.0429573e-11
0002a0 00 00 00 00 78 8c b4 bd be 2e 72 b8 b8 c8 03 be
       0.0 -0.08815855 -5.774083e-05 -0.12869537
0002b0 ab 8a 21 bd d1 e3 38 bd 2d 6d 0f bd 02 03 1b b8
       -0.039438885 -0.045139138 -0.035016228 -3.695768e-05
0002c0 98 ec 9a bc 00 00 00 00 8f f2 ee bb e8 bf 24 be
       -0.018911645 0.0 -0.007292099 -0.16088831
0002d0 2e 4c 9f bc 00 00 00 00 d1 de 63 be 50 45 d8 bc
       -0.019445505 0.0 -0.22252966 -0.026400238
0002e0 38 28 c3 ba ab 50 f3 bd 93 21 9c bd e6 fe 92 bb
       -0.0014889305 -0.118806206 -0.07623591 -0.0044859527
0002f0 97 e4 11 be 3d 9a ef b7 68 50 91 ba cc e1 95 be
       -0.14247356 -2.8562843e-05 -0.0011086585 -0.29273832
000300 b9 f7 3a bb 12 54 e4 38 ea e8 b1 3b 00 00 00 00
       -0.0028529002 0.000108875465 0.005429377 0.0
000310 ab db 41 ba bb 44 00 bc 10 e5 ab bd d7 a2 26 3c
       -0.0007395099 -0.007828887 -0.083932996 0.01017066

exp_avg_sq f4 [4, 50]
000000 fd 60 67 3b f8 69 da 3c 0c 91 ef 3f 67 8c bd 3a
       0.0035305612 0.026661858 1.871614 0.0014461399
000010 78 3c 54 3b 30 bd b0 3f 7d 6a 8e 3f 87 cd 8f 3f
       0.0032384675 1.3807735 1.1126248 1.1234597
000020 22 cc 31 3f 22 7d e2 3f c4 ca d0 41 56 96 23 3b
       0.69452107 1.7694438 26.099007 0.0024961433
000030 d9 62 41 3e b3 6a 46 3f ed 89 ac 3b 63 14 94 40
       0.18885364 0.7750656 0.0052654655 4.6274886
000040 a1 4b 3c 40 99 73 ee 3a d7 e4 59 36 b1 38 bc 40
       2.942116 0.001819241 3.2468722e-06 5.8819203
000050 01 a1 01 3d 33 e5 ac 3f 1c c3 f1 3e c2 4a 98 3e
       0.031647686 1.3507446 0.4721917 0.29744536
000060 cb a1 8b 3e ee 34 4e 3d 99 1a 10 3f a9 64 d4 34
       0.27271876 0.050343446 0.56290585 3.9561317e-07
000070 bd b7 c3 3d 16 95 88 41 fd a7 9c 3f df a9 86 36
       0.0955653 17.072796 1.2238766 4.013287e-06
000080 bf 93 75 42 63 2c 1a 3d a4 b2 b8 3b d0 7a e8 3d
       61.394283 0.037639987 0.00563653 0.113515496
000090 91 76 dc 3e 88 76 e1 3d 35 f4 cd 3f 89 8c 63 3c
       0.4305921 0.11008936 1.6090151 0.013888487
0000a0 a1 0e 62 3d 39 67 4f 42 63 df 7f 3d 65 6f 8c 3c
       0.055189732 51.850803 0.062468898 0.01714296
0000b0 b0 7f 6d 3c 47 a3 b5 36 08 66 23 3d eb 76 0f 3d
       0.014495775 5.4132283e-06 0.039892226 0.03502552
0000c0 36 5b 5e 3f 36 0f f6 3f da e3 5d 38 97 11 85 3a
       0.86857927 1.9223392 5.290271e-05 0.0010152337
0000d0 7b b5 06 3d e9 02 83 38 b3 a5 4a 38 5d 86 22 3c
       0.032887917 6.247109e-05 4.8314872e-05 0.00991973
0000e0 f0 c2 2f 3b f4 29 a5 3b 99 eb 91 3b 52 36 e6 3c
       0.0026819073 0.0050404016 0.0044531343 0.028102074
0000f0 c3 d3 a4 3e 70 8e 8e 38 ab c7 05 3a 44 7f 9f 3a
       0.3219281 6.797619e-05 0.00051033 0.0012168665
000100 f2 95 2e 3b cd 6a ed 3d 6c 90 cf 3d 37 ac a8 33
       0.0026639667 0.11592636 0.10134968 7.854435e-08
000110 00 00 00 00 fe da b3 3d e7 b1 12 3a 34 3b f3 3c
       0.0 0.08782004 0.00055959675 0.029691316
000120 ec 96 72 3c 66 73 b5 3b fb f4 95 3a 28 8b fe 39
       0.01480649 0.005537438 0.0011440808 0.00048550335
000130 4c f8 2e 3b 00 00 00 00 3b c0 1e 3c 0c eb cf 3d
       0.002669829 0.0 0.009689386 0.101522535
000140 4d 4b 4d 3b 00 00 00 00 fc 12 12 3f b1 83 c0 3b
       0.00313254 0.0 0.5706022 0.005875074
000150 52 1a 90 39 f4 8c 2e 3a 93 b1 13 3c 26 91 29 3b
       0.0002748543 0.0006658577 0.009014505 0.0025873869
000160 ff 87 7f 3b 8a 48 0e 39 f5 59 bb 39 90 c6 b6 3e
       0.0038990972 0.00013569198 0.00035734443 0.35698366
000170 7d 77 1c 3b 6a 55 4c 39 97 2f ee 38 00 00 00 00
       0.0023874932 0.00019486775 0.00011357589 0.0
000180 1f 80 8a 39 13 ad da 3a af 32 c2 3c e8 1c 12 3c
       0.0002641687 0.001668366 0.023705808 0.008918025
000190 e5 a7 7f 39 1d c5 f8 39 5c 8e 4c 3e 99 db 21 3a
       0.0002438124 0.00047449107 0.19976181 0.0006174385
0001a0 85 fb 74 39 a2 65 d1 3e dc 44 8f 3c 1d d2 f0 3b
       0.00023363352 0.40897852 0.01748889 0.007349266
0001b0 0d ee 71 3d aa 3a 64 3d 7c 00 a2 3f 71 f1 9e 39
       0.059064914 0.05572001 1.2656398 0.00030315996
0001c0 09 47 39 3a 9e e0 91 3b a6 83 73 3b 23 c4 4e 3e
       0.0007067775 0.0044518253 0.0037157326 0.20192008
0001d0 b4 bd 32 3e 6c 09 b8 32 00 00 00 00 e1 f3 62 3e
       0.17455178 2.1424704e-08 0.0 0.22163345
0001e0 22 e5 a4 39 b8 86 53 3e 35 eb aa 3c 32 a8 80 3d
       0.00031451235 0.2065686 0.020864109 0.06282081
0001f0 2a 9f 20 3d 58 ea f4 39 66 83 f4 3d 00 00 00 00
       0.03921429 0.00046713906 0.11939125 0.0
000200 6c 3a 4c 3d 5f 11 b8 3e 32 b7 0f 3c 00 00 00 00
       0.049860403 0.35950753 0.0087717045 0.0
000210 1d 78 a2 3f 46 50 ee 3c 12 58 65 3b ab 88 b0 3c
       1.2692906 0.029091012 0.003499512 0.021549543
000220 8b eb 23 3d 68 52 9a 3b 73 1b 3a 3e c7 ea 05 3a
       0.040019553 0.0047095306 0.18174534 0.0005108532
000230 a0 1f d3 3a 28 7f ae 3f 87 dd 35 3b eb 0c 95 39
       0.0016107447 1.3632555 0.0027750449 0.0002842912
000240 9a 13 a6 3a 00 00 00 00 d3 d7 e7 3a 64 d3 2c 3b
       0.0012670637 0.0 0.0017688222 0.0026371116
000250 b8 86 6a 3d 38 2c ec 3c 74 10 ab 39 a0 7f e7 38
       0.057257384 0.028829679 0.0003262792 0.0001103871
000260 de a7 93 3e 24 e2 53 3a 4b 51 98 39 96 8f 09 3f
       0.2883901 0.0008082709 0.00029052267 0.5373472
000270 6f 2b 03 3d cc 01 79 3b 0f 37 4e 3d b9 6f 40 3d
       0.032023843 0.0037995456 0.050345477 0.046981547
000280 e6 ce 8d 3f e8 33 d5 39 21 88 bb 39 06 56 c8 3b
       1.1078765 0.000406652 0.00035768843 0.0061137704
000290 b0 48 8f 3b fb fd f4 3d eb 08 bd 3d 84 3d 12 38
       0.0043726787 0.119625054 0.092302166 3.4866403e-05
0002a0 00 00 00 00 c6 7f 08 3e 77 fa 8b 38 0d 48 6e 3e
       0.0 0.13329992 6.674689e-05 0.23269673
0002b0 b4 a7 7b 3c e5 10 84 3d 17 cc 12 3d cf 64 f4 3a
       0.015359808 0.06448535 0.035839166 0.0018645766
0002c0 9c 6f a1 3d 00 00 00 00 9e 15 97 3d fd 1b 9c 3e
       0.07882616 0.0 0.0737717 0.30490103
0002d0 81 1f e7 3b 00 00 00 00 36 66 86 3f c4 27 04 3d
       0.007053316 0.0 1.0499942 0.032264486
0002e0 e0 a9 a2 3a 26 1e d4 3d 26 9a af 3d 7c 53 0b 3c
       0.0012410246 0.10357313 0.08574323 0.008503791
0002f0 39 f8 7f 3e 2a 6b 6c 3a d7 3b 4b 3a 0a eb a6 3f
       0.24997033 0.0009018654 0.0007752752 1.3040478
000300 1f 9f 21 3b 68 d4 40 39 03 a8 04 39 00 00 00 00
       0.0024661494 0.00018389674 0.0001265109 0.0
000310 30 4c 35 3a da fe 8e 3a e9 db bd 3d 84 0e 44 3d
       0.0006915955 0.0010909692 0.0927046 0.047865406

exp_avg f4 [4]
000000 e6 b8 a4 bb bc 37 da ba e6 f4 0c 3c 67 38 a7 bb
       -0.0050269244 -0.001664869 0.00860331 -0.005103159

exp_avg_sq f4 [4]
000000 75 5d 41 3c 66 82 7b 38 76 ee 7d 39 f7 f7 7e 39
       0.011802067 5.9964506e-05 0.00024216794 0.00024315702
