last_brain_seninha.pth (torch, 12155 bytes, 12 tensors)

fc1.weight f4 [50, 7]
000000 77 95 77 3e 57 e6 7d be 7e 49 f2 3e 58 4c d0 3d
       0.2417811 -0.24794899 0.47321695 0.101708114
000010 6f a6 0c 3d 75 40 aa 3e 80 37 17 bf 41 a1 e9 3e
       0.03433841 0.33252302 -0.5906906 0.4563084
000020 a9 72 2a bd ab 64 8f be c0 d4 7e 3e 79 f0 83 be
       -0.041613255 -0.2800649 0.24885845 -0.25769404
000030 f2 5a 3d be c4 6b 94 3e 06 9b 30 3e 62 07 2c be
       -0.18491724 0.2898847 0.17246637 -0.16799691
000040 55 30 5e be 50 45 e5 bd 14 d5 ae 3e d5 f7 64 3e
       -0.21698125 -0.11194861 0.3414694 0.22360165
000050 55 cf cb be 1a 01 82 bc c1 11 bd 3e 65 3c 2d be
       -0.3980662 -0.015869666 0.36927608 -0.1691757
000060 db de b6 3e d1 37 2f 3e b3 87 c4 3e 4a 59 a9 be
       0.357169 0.17111136 0.3838478 -0.33075935
000070 db 5f 8c 3e 52 1e 60 be 59 eb de 3e df 79 ab 3e
       0.27416882 -0.21886566 0.4353893 0.33491418
000080 ea 6a a3 3e 91 da be 3d 14 b6 01 be 59 69 b4 be
       0.31917506 0.09319032 -0.12667114 -0.35236624
000090 dd b2 c0 bd 50 f3 3e 3e c5 e8 24 be 10 e0 45 be
       -0.094091155 0.18647504 -0.1610442 -0.19323754
0000a0 80 bf 47 be 8c ff 61 3e a1 7b 9d 3e c3 06 8a 3e
       -0.19506645 0.2207014 0.30758384 0.26958284
0000b0 1f 64 ed bd b6 f7 f6 bd 4e 10 42 3e 23 b5 e5 3e
       -0.11591362 -0.12058966 0.18951532 0.4486476
0000c0 9c 03 43 3d 1c d5 c2 bd 86 7c 19 be 6d 69 ad 3d
       0.047610864 -0.09513304 -0.14988908 0.08467374
0000d0 b9 e4 f4 3d 6f e8 fb bd 72 de 9f 3e 12 1c 3f 3e
       0.11957688 -0.123001926 0.312244 0.18663052
0000e0 99 ef 38 3e 7f 0c b0 be 50 01 07 bd b8 3c 92 3e
       0.18060149 -0.34384534 -0.032960236 0.2856195
0000f0 8f d6 0c 3d 6c 6a cf bd 5a 3b 82 3e 62 96 56 be
       0.034384307 -0.1012772 0.25435907 -0.20955804
000100 12 56 44 be 87 7a a1 be 17 77 eb 3d 46 d0 c1 be
       -0.19173458 -0.31538793 0.11497324 -0.37854213
000110 68 4a b7 be ad d1 3e 3e 30 a9 0d 3e b4 b1 1c be
       -0.35798955 0.18634672 0.13834071 -0.15302163
000120 82 31 b6 3e cf ff 6b be 3c db 94 3e a5 ce 21 3e
       0.35584646 -0.23046802 0.29073513 0.15801485
000130 1f ea 0c bf fb 19 19 3d 9e d2 21 be 83 0f 7c 3d
       -0.5504474 0.037378293 -0.15803 0.06153823
000140 a3 db 3d 3e 19 ab bb 3e 24 10 8e be 59 63 ed be
       0.18540816 0.36653975 -0.2774669 -0.4636486
000150 af ce 0e 3e a7 a6 d4 be 0c 9c ce be 27 5c f0 bc
       0.13946031 -0.41533396 -0.4035343 -0.029340817
000160 89 a8 83 3e fe 66 9c be 98 fb 1e be 63 e2 45 3d
       0.2571452 -0.30547327 -0.15525663 0.048311602
000170 59 e3 96 be e0 58 f4 bc 55 91 64 bd 68 fc 5a b9
       -0.29470327 -0.029827535 -0.055802662 -0.00020884129
000180 3b 38 97 3c d3 f2 59 3e 64 21 88 be 03 4c 14 be
       0.01845943 0.21284036 -0.26587975 -0.14482121
000190 47 c1 8b 3e 6f 6d 54 be d2 a7 00 bd e4 60 a9 be
       0.27295896 -0.2074487 -0.031410046 -0.33081734
0001a0 f4 bb ca 3d 81 cf d6 3e 84 05 ac 3e 57 5d 00 be
       0.098991305 0.41955188 0.33597958 -0.12535606
0001b0 8e c2 d1 3e 8d e0 9e 3e 2b 24 51 3e 02 85 22 bf
       0.40968746 0.31030694 0.20423953 -0.63484204
0001c0 ee 75 bf 3e fe 2b 08 3e 6b ad b9 be 36 f9 00 be
       0.3739466 0.13298032 -0.3626512 -0.12595066
0001d0 c1 31 82 be 93 37 a4 bd 27 0d 97 3e e0 bc 4b 3e
       -0.25428584 -0.080184124 0.29502222 0.19896269
0001e0 5e ac 69 3e 9c 31 d2 3d a5 0a 9f be ec 73 00 ba
       0.22819659 0.102633685 -0.3106281 -0.0004900086
0001f0 cc c7 bd 3e 67 4d 24 bf 74 28 77 be 95 97 2c be
       0.37066495 -0.64180607 -0.24136525 -0.16854699
000200 71 29 d3 bd c9 02 65 3e 38 b6 7f bc 7c 82 7d 3e
       -0.10310639 0.22364344 -0.015607409 0.24756807
000210 02 f2 83 3d 9c 42 c9 3e cc 7b 3c be 80 f7 6e be
       0.06442644 0.3930863 -0.184066 -0.23336601
000220 8e cd 95 be f8 74 c1 3d d8 54 d6 3e 29 a2 00 bf
       -0.29258388 0.09446138 0.41861606 -0.50247437
000230 46 2f 32 3e a5 2a 2a 3e fc 1a 4c 3d 8d 50 87 bd
       0.17400846 0.1661783 0.04983042 -0.06607161
000240 0c 05 48 3e db d2 b9 bc cb a3 aa be c9 27 35 3e
       0.19533175 -0.022683552 -0.3332809 0.17690958
000250 c4 02 b8 3e 24 17 1b bd 5a 2f 34 be 20 94 70 3e
       0.3593961 -0.037863865 -0.17596188 0.23494005
000260 38 51 a0 3e dd bb a8 be ed 0f 92 3e 19 8b 43 3e
       0.31311965 -0.32955828 0.28527775 0.1909603
000270 df f7 24 3e 46 de 89 bd 03 58 48 bd 72 f0 02 be
       0.1611018 -0.067318484 -0.04891206 -0.12787035
000280 1a 3d 54 be a8 ef c8 3c 70 2e f7 bd 86 a0 13 be
       -0.20726433 0.02452834 -0.12069404 -0.14416704
000290 53 e4 c6 be 30 1e 6f be 4d b4 8b 3e 3e dd 0e bd
       -0.38846073 -0.2335136 0.27285996 -0.03487896
0002a0 5f f1 8d be b0 a6 e2 3d 4b 53 a9 be f8 fb b3 3c
       -0.27723214 0.11066949 -0.3307136 0.021970734
0002b0 61 d4 8b bd c0 84 5f 3e cd 07 95 be 17 01 24 bd
       -0.068276174 0.21827984 -0.29107514 -0.0400401
0002c0 f6 22 08 be f3 f2 13 3d d5 40 1e 3e 1d d5 c5 3e
       -0.13294587 0.036120366 0.15454419 0.38639155
0002d0 0e 18 97 be b0 6d dc 3e 04 b9 bd bd 54 1a a4 be
       -0.2951054 0.43052435 -0.092638046 -0.32051337
0002e0 cc 83 96 3e 1d 70 a4 be 00 dd 2d 3e 2e 38 ea 3e
       0.29397428 -0.32116786 0.16978836 0.45745987
0002f0 b0 f0 0d be 9c 41 bc 3d 49 68 4b bd 78 b9 c0 be
       -0.13861346 0.091922015 -0.04966 -0.376415
000300 9a 4e cb 3d dd f5 8e be 60 ef 01 3e 0d 44 0e be
       0.099271014 -0.27921954 0.1268897 -0.13893147
000310 a3 b0 b5 be 11 6b 8d be 65 df 74 3e 53 9d 4f be
       -0.35486326 -0.27620748 0.23913343 -0.20274858
000320 78 ff 70 3e a8 0a e3 bc 71 a8 0a be 4e 50 6e be
       0.23534954 -0.027715042 -0.13540818 -0.23272821
000330 57 61 3f be 44 10 97 3e c1 cb d5 3d 4e 52 1c 3e
       -0.18689476 0.29504597 0.104392536 0.15265772
000340 f1 68 a7 3e e5 a5 67 3e ee be c8 be 63 84 ab be
       0.3269725 0.22621877 -0.39208168 -0.3349944
000350 13 c6 5b 3e 88 87 57 3e 8b 9e 9a be 84 21 0a be
       0.21462278 0.21047795 -0.30199084 -0.13489348
000360 df aa a0 bd 30 fb 53 bd fd 0a ec 3d 4c 1d 9e 3e
       -0.07845091 -0.051753223 0.11525533 0.30881727
000370 f9 ee 00 3e 65 c3 ea 3e 5f ae aa bd 3c da 1d bd
       0.12591161 0.458522 -0.0833404 -0.038538203
000380 48 32 45 3e 45 38 82 3e 11 7c 41 be e1 91 c5 3d
       0.19257462 0.25433555 -0.18894984 0.09646965
000390 6f d5 8d 3e d1 6c b8 3e f4 bf 46 be 2f 30 d3 be
       0.277019 0.3602052 -0.19409162 -0.412477
0003a0 83 08 b0 3d b3 0e d0 bd 13 6b 26 3e ea 68 16 be
       0.085953735 -0.10159054 0.16251783 -0.14688459
0003b0 cb f5 1e 3e 72 a0 65 bd 15 c2 99 bd 2b 0e 95 3d
       0.1552345 -0.056061216 -0.07507721 0.07278093
0003c0 d1 f7 89 bd a6 4d b3 be 45 b1 f6 bd 20 be 97 3c
       -0.0673672 -0.3502018 -0.1204553 0.018523276
0003d0 89 00 17 bd e8 a1 2b 3e d5 49 5a 3e 02 0f 93 3d
       -0.036865745 0.16760981 0.21317227 0.07180597
0003e0 94 58 ad be ad fb 8a bd 98 a9 7e bc 98 0a a8 3d
       -0.33856642 -0.067862846 -0.015543364 0.082051456
0003f0 82 81 97 bc aa 3b 4f be 76 3c 1a 3e e4 8b 85 be
       -0.018494371 -0.20237604 0.15062127 -0.2608329

fc1.bias f4 [50]
000000 95 12 8a 3d 27 d0 86 be b3 ad 87 3e d1 dc 1a 3e
       0.067418255 -0.26330683 0.2649971 0.15123297
000010 52 aa bc 3c c8 16 8e 3e 1f 1e cc 3d ab 86 20 be
       0.023030434 0.27751756 0.09966683 -0.15676372
000020 8b 2c 8e 3e 2f a6 b1 3e 2b db 23 3f 25 9c 42 3e
       0.2776836 0.346971 0.640063 0.19004877
000030 d3 f1 8f 3e be e4 22 be 47 2b c7 bd 45 91 7f 3d
       0.28114185 -0.1590757 -0.097250514 0.0623944
000040 4c ef 0a be cf e5 a6 3e c6 04 a8 be a2 5c 0e 3f
       -0.13567847 0.32597205 -0.32816142 0.55610096
000050 c6 d1 a2 3e 22 da 09 3e 00 6c 87 be 47 b6 5b 3e
       0.3180067 0.13462117 -0.26449585 0.21456252
000060 52 c7 a1 3d cf f6 22 be 5b fe a1 be 66 6a 9e bc
       0.078993455 -0.15914463 -0.3163937 -0.019337844
000070 a7 73 7c be 96 92 8b be a3 2b a0 be 0b 78 74 3e
       -0.24653493 -0.27260274 -0.31283292 0.23873918
000080 70 78 87 be 63 be 10 3e 53 de 8a 3e 26 16 bf 3d
       -0.26459074 0.14135127 0.27122745 0.09330396
000090 af c8 20 3f 89 f1 9e bd dc c7 99 3e 5c dc 69 3e
       0.6280622 -0.07760913 0.30035293 0.22837967
0000a0 61 62 c2 3e fb ab 6b 3d e0 40 2f 3e d3 73 0d 3f
       0.37965682 0.05753706 0.17114592 0.5525486
0000b0 9f 16 98 3e 09 71 07 3e fd 9e b6 be f7 31 ec be
       0.2970476 0.13226713 -0.35668173 -0.4613187
0000c0 25 29 c2 3d 2d cf 02 3d
       0.09480504 0.03193586

fc2.weight f4 [4, 50]
000000 6e 83 75 be 50 2c da ba 05 be 66 bd b8 b5 13 be
       -0.23975918 -0.0016645286 -0.05633356 -0.14424789
000010 0f e8 f6 bd ad 33 99 3c cb f8 0f be e1 58 02 3c
       -0.120559804 0.018701399 -0.1405975 0.007955761
000020 f7 5e f0 39 d8 9d bc bc e9 5d 79 be 2e 8a d0 b9
       0.00045847122 -0.023024485 -0.2435223 -0.00039775803
000030 bb bf 41 3d 59 06 a9 bd bf 2c 3a bd 15 07 87 bd
       0.04730199 -0.08253164 -0.04545283 -0.06593148
000040 81 0b 38 3c b1 3c 7f bd bb c2 87 3d c7 44 47 be
       0.0112332115 -0.06231374 0.06628939 -0.1945983
000050 7c 85 1f be 3d f6 df 3a 8a 73 6d 3d 5b e2 c1 bc
       -0.15578264 0.0017086935 0.057971515 -0.023667505
000060 ad 2b 31 3d cb 26 82 bd b3 37 00 be 43 7f 3a 3c
       0.043254543 -0.063550554 -0.12521248 0.011382881
000070 5d 35 cc bc 6d 54 58 3d dd d0 c0 3d 26 f6 26 be
       -0.02492779 0.05281489 0.094148375 -0.16304836
000080 ff 57 29 be 2f ed 5c 3d ce 1d 27 bd 7f 23 5c bc
       -0.16537474 0.053937133 -0.04079991 -0.013436197
000090 41 1c e5 bd fa 0d bd bd ca 4d 82 be 95 17 a0 bd
       -0.1118703 -0.092311814 -0.25449973 -0.07816998
0000a0 dc 5c 2d 3d 9f b3 b4 bd e0 7e ce 3c 82 d6 44 be
       0.042324886 -0.088233225 0.025206983 -0.19222453
0000b0 88 ed d8 bd 00 d8 31 be 6a e4 63 3d 75 42 96 3d
       -0.105921805 -0.17367554 0.055637754 0.073368944
0000c0 c4 d4 88 be 98 12 c4 bd 0c d3 44 be 87 a1 87 bd
       -0.26724827 -0.09573859 -0.19221133 -0.06622606
0000d0 7d 7d db bd b8 64 64 be 47 a8 21 be b8 74 59 bd
       -0.10717294 -0.22304046 -0.15786849 -0.053089827
0000e0 09 9d 06 3d 01 f5 01 3e e0 4d f4 3d 1b 57 fb bd
       0.032864604 0.12691118 0.11928916 -0.122724734
0000f0 0c 2c 83 be d8 c5 28 3b 15 6d 84 3d 10 ff 7d bc
       -0.25619543 0.002575269 0.06466118 -0.015502706
000100 ac 99 81 bd 1e 4a 2b be 6f 0e f6 bc 3a 9c 9d bd
       -0.06328139 -0.16727492 -0.03003618 -0.076958135
000110 92 9e 9c 3c cb 2b 17 be 51 ee 6f bd 6f 74 99 bd
       0.019118581 -0.147628 -0.058576886 -0.07492911
000120 06 8f 28 3c fc 75 4d 3d 40 ba ce bd 25 62 3b 3c
       0.010288006 0.050161347 -0.10094118 0.011436974
000130 70 aa 2d 3d d7 e3 b0 3d 09 8e 1f bc 61 4b 28 3d
       0.04239887 0.08637207 -0.009738454 0.041087512
000140 6b 58 d1 bc af c7 5c bd 52 85 1d bb 0f 6e 07 3d
       -0.025554856 -0.05390137 -0.0024035764 0.033063944
000150 9e 20 b7 3d ad ba 95 bd 00 72 71 be d8 9b b6 bd
       0.08941768 -0.07310996 -0.23578644 -0.089164436
000160 66 bd 36 be 33 a3 75 be b9 7b 23 bc 52 f4 e7 bd
       -0.17845687 -0.23988037 -0.009978228 -0.11325897
000170 c5 d9 25 3e 3c 7d 20 be 79 65 37 be 0c d1 e2 bc
       0.16196354 -0.15672773 -0.17909802 -0.027687572
000180 4d 43 a8 3d 85 2e 72 3c 9d 8d 7b be c9 b3 34 3d
       0.082159616 0.014781599 -0.2456574 0.04411677
000190 71 db cd bd 55 de 24 3e 0f 43 ee bd 32 61 0d be
       -0.10051621 0.16100438 -0.11633884 -0.13806608
0001a0 56 fa f5 bc 5f 8c 10 3e e0 74 40 be 72 5e 91 bd
       -0.030026596 0.14116047 -0.18794584 -0.07098092
0001b0 0f ed aa 3d 4f d5 fb 3d 44 fa 89 be ac a8 42 be
       0.083459966 0.12296545 -0.2694875 -0.19009656
0001c0 3a 85 ba 3d 95 92 a4 bd 58 2d 1c bd 48 88 c9 bd
       0.09107442 -0.08035771 -0.03812918 -0.09840447
0001d0 9b 8b 49 3d f1 a0 08 be 0f 03 5e bd 81 94 13 be
       0.049205404 -0.13342644 -0.054202136 -0.14412118
0001e0 86 c1 e0 bd d6 75 21 be d0 cb 67 3d 0d 66 f9 3d
       -0.10974412 -0.15767607 0.056590855 0.12177668
0001f0 44 3e 2d 3d 53 22 90 3e 50 d7 40 3b fc 8a b0 bd
       0.04229571 0.28151187 0.0029425211 -0.08620259
000200 88 6e 79 3d c4 74 5b 3e b6 a3 3e bc 5f da b8 bd
       0.060896426 0.21431261 -0.011635711 -0.09026026
000210 3e 5f e7 3c d3 13 40 3d 0b 49 2c 3c 9c 98 52 3e
       0.028243657 0.046893906 0.010515462 0.20566028
000220 63 57 15 be c0 85 25 be 8b 47 a0 bc ff 6b 1c be
       -0.14584117 -0.16164303 -0.019565364 -0.15275572
000230 9c a4 03 be 6c ba 38 be 30 3f 03 3e 9e 0b 02 be
       -0.12855762 -0.18039864 0.12817073 -0.12699744
000240 79 2d 87 bc cf a5 5c be cc 4b 4c bc 85 35 ae 3e
       -0.016501175 -0.21547626 -0.012469243 0.34025207
000250 4a bd 9c 3d 8f 3e 02 be 73 df 4d be 40 fe d2 bd
       0.076532915 -0.12719177 -0.2010477 -0.103024006
000260 96 6a 57 be 44 cd da bc 0d ee d4 bd 1e ed 88 3d
       -0.21036753 -0.026709206 -0.10396967 0.066858515
000270 71 65 ed bd a2 bf ec bc 5b 41 8c bd b8 17 32 3d
       -0.11591614 -0.028899971 -0.06848403 0.04347965
000280 10 be 2c be 83 4d 21 bd fc c3 b2 bd 24 be c1 bc
       -0.16869378 -0.03938056 -0.08728787 -0.023650236
000290 89 cb 18 be 3d df 61 be 00 37 23 3d 60 34 61 bc
       -0.14921393 -0.22057815 0.039847374 -0.013745397
0002a0 57 80 9f bd 5a d9 ef bc d2 5f 84 3c f2 30 3d be
       -0.07788151 -0.029278446 0.016158972 -0.18475702
0002b0 98 89 42 be 8e b5 b1 3d 65 cd d3 bd 2b f6 fb 3d
       -0.189978 0.08677207 -0.1034191 0.12302812
0002c0 47 9a bb bd fd 12 09 be 16 77 5d 3d 35 ca 38 3e
       -0.091602854 -0.1338615 0.054068647 0.18045886
0002d0 cf 6e 0d bd 0e 9e 15 be 7b 51 3e be 1c 22 9c 3c
       -0.034529503 -0.14611074 -0.1858577 0.019059233
0002e0 98 6b dd 3c 34 19 5c 3d b4 54 a4 bd 47 0e 10 be
       0.027028844 0.053734973 -0.08023968 -0.14067946
0002f0 ca ec 38 be 1e 0c 99 3c 8a 85 35 be f2 14 06 be
       -0.18059078 0.018682536 -0.17726722 -0.13093928
000300 de f8 f9 bd 4d 62 4c be 2c 7d 96 bb fe 2b 23 be
       -0.12205671 -0.19959374 -0.0045925584 -0.1593475
000310 aa 8d c6 3d c0 0a 7e 3e 7b 38 97 bd fb 34 52 be
       0.09694989 0.24808788 -0.0738382 -0.20528023

fc2.bias f4 [4]
000000 8c 02 8b bd 96 dd 0c bd c8 f8 27 bd 7c 9c 22 bd
       -0.06787595 -0.03439101 -0.04100874 -0.039700016

exp_avg f4 [50, 7]
000000 0c 06 34 40 8d 18 29 40 b8 8b 40 40 6f 91 2f 40
       2.812869 2.6421235 3.0085278 2.7432516
000010 12 24 3a 40 b4 f7 ed bb ed 78 f1 3f 13 30 91 c0
       2.9084516 -0.0072621945 1.8865029 -4.5371184
000020 b9 3a 82 c0 8c 9c 72 c0 4b 20 75 c0 bf a7 59 c0
       -4.0696683 -3.7908049 -3.830096 -3.4008634
000030 84 8e 7c ba 38 08 37 c0 d7 86 0d 3f a6 fb f1 3e
       -0.00096342736 -2.8598766 0.55283874 0.47262305
000040 ef 0b 11 3f 1d 82 15 3f 20 7e 8e 3f 9d ca b0 ba
       0.56658834 0.5840166 1.113224 -0.0013488118
000050 0a 69 8e 3e b6 c8 92 40 e5 15 8e 40 d4 a1 93 40
       0.27814513 4.587001 4.4401727 4.6135044
000060 d0 cf 8d 40 1f 9d 95 40 5c 30 9c bb 8f 65 57 40
       4.4316177 4.67543 -0.004766507 3.3655736
000070 ab 5b 89 3f f7 b1 84 3f 3d d4 93 3f 3d 33 8d 3f
       1.07311 1.036681 1.1549145 1.1031262
000080 f9 00 8f 3f 0d 42 86 bb cc 37 76 3f 16 74 3a bd
       1.1172172 -0.0040972293 0.9617889 -0.045520864
000090 53 17 2a bd f6 b0 56 be ad 76 53 bd 6e 88 96 bd
       -0.04152615 -0.20965943 -0.05162685 -0.07350241
0000a0 c0 2b 23 35 70 fb 7a bd 05 c4 db 40 e6 2e d3 40
       6.0785896e-07 -0.061274946 6.867678 6.599475
0000b0 c5 72 de 40 37 f1 ca 40 94 fc dc 40 45 50 2a bb
       6.95151 6.341945 6.9058323 -0.0025987786
0000c0 5d ce 8e 40 8f 3a a8 3f 1d 4c 97 3f e6 9c c8 3f
       4.462691 1.3142871 1.1820103 1.5672882
0000d0 e6 05 bc 3f f0 16 a9 3f 94 04 ff 37 95 87 94 3f
       1.46893 1.3210125 3.04005e-05 1.1603876
0000e0 99 97 16 c0 83 ac 02 c0 de fe 15 c0 8b 1e 0f c0
       -2.3530028 -2.0417793 -2.3436809 -2.2362392
0000f0 98 21 1a c0 84 f7 1f ba 3c ea d4 bf bd 79 f3 38
       -2.4083004 -0.00061022514 -1.6633983 0.000116098185
000100 bd 79 f3 38 bd 79 f3 38 bd 79 f3 38 bd 79 f3 38
       0.000116098185 0.000116098185 0.000116098185 0.000116098185
000110 00 00 00 00 29 8e 8f bb 6d 45 ac 40 ba a3 a5 40
       0.0 -0.0043809605 5.383475 5.176236
000120 0c 55 c4 40 68 71 98 40 f4 3d c0 40 d4 58 ee bb
       6.1353817 4.7638435 6.0075626 -0.0072737727
000130 c6 44 43 40 ed e6 a9 40 3f 31 a5 40 a6 72 b8 40
       3.0510726 5.309439 5.1622615 5.763995
000140 d3 f1 a6 40 07 8a b9 40 22 5e 1f 3a 76 c6 48 40
       5.2170196 5.798099 0.00060793955 3.137113
000150 b8 5b 10 be e0 c2 d7 bd 4d da df bd 90 fb 0b be
       -0.14097488 -0.10535216 -0.109303094 -0.13670182
000160 42 c4 f9 be 03 52 af b8 d7 ff 0d be 34 99 ea 3c
       -0.48782545 -8.359926e-05 -0.13867126 0.028637506
000170 0e d6 d3 3b e8 21 d2 3b 05 27 1f 3c 5e 7c 98 3c
       0.0064647263 0.0064127333 0.009713893 0.01861399
000180 19 61 87 38 2f 3c 98 3c e4 c4 20 3d e2 fa 2f 3d
       6.4553875e-05 0.018583385 0.03925027 0.04296387
000190 3a 56 1e 3e 4d 8d 63 3d 47 1c 00 3e 6b f2 77 b4
       0.1546258 0.055554677 0.12510787 -2.3091859e-07
0001a0 c4 d5 60 3d 30 67 54 40 3b b1 4e 40 3f d0 5d 40
       0.054891363 3.318798 3.2295673 3.4658353
0001b0 dc 0c 4f 40 0a 1e 5b 40 a4 43 2f bb 18 c1 1d 40
       3.2351599 3.4237084 -0.0026743198 2.4649105
0001c0 ed d8 5c bf ba fe 3b bf fb 3a 20 bf 8b d4 17 bf
       -0.862685 -0.73435557 -0.6259 -0.5930869
0001d0 50 25 0a bf 55 4c d4 38 6c 59 0c bf da 42 9e 3f
       -0.53963184 0.00010123166 -0.54823947 1.2364151
0001e0 2d bd bd 3f 55 7b 9c 3f f5 0c 73 3f fc f6 75 3f
       1.4823357 1.2225138 0.94941646 0.96079993
0001f0 05 71 e4 ba 56 39 db 3e 38 fc a4 3d 61 eb bd 3d
       -0.0017428702 0.4281718 0.080559194 0.092734106
000200 2d 13 3b 3e 39 5c 9b 3e 87 5c 36 3e 30 fc 6a b8
       0.18269034 0.30343798 0.17808734 -5.6024815e-05
000210 2f 52 b7 3d d1 90 8a 3e 18 d6 53 3e c7 fe 4a 3e
       0.08951222 0.2706361 0.20687139 0.19823752
000220 d4 83 39 3e f7 1c 3c 3d 1f cb 5f bb c6 15 d4 3d
       0.18116695 0.04592606 -0.003414817 0.103557155
000230 76 c3 7a 40 bd 30 70 40 7e b1 7f 40 98 f2 69 40
       3.91818 3.7529747 3.9952083 3.6554317
000240 1b 2d 7c 40 b5 e6 81 bb 51 01 2a 40 cd ed ab 40
       3.940253 -0.00396427 2.6563303 5.3727784
000250 89 14 a6 40 c5 3d ad 40 32 21 98 40 1f 74 ac 40
       5.1900067 5.41379 4.754052 5.389175
000260 a4 f7 de b8 1a ba 66 40 86 07 e4 bf 3c fd d7 bf
       -0.000106319116 3.6051087 -1.7814796 -1.6874156
000270 08 a8 e7 bf a2 05 c7 bf cf 0f d1 bf d9 5b a6 3a
       -1.8098154 -1.5548594 -1.6332949 0.0012692168
000280 c8 9b 96 bf 8d 5d f5 1b 8d 5d f5 1b 8d 5d f5 1b
       -1.1766291 4.0592306e-22 4.0592306e-22 4.0592306e-22
000290 8d 5d f5 1b 8d 5d f5 1b 00 00 00 00 cc a7 62 9d
       4.0592306e-22 4.0592306e-22 0.0 -2.99976e-21
0002a0 00 4b 37 39 86 a3 1e 38 85 8f 95 38 fd 26 41 b8
       0.0001748018 3.782243e-05 7.131606e-05 -4.6051096e-05
0002b0 1a 03 66 38 07 20 7f 37 58 59 8e b9 47 f0 11 c1
       5.483916e-05 1.5206641e-05 -0.00027150917 -9.121161
0002c0 02 39 0c c1 f9 26 15 c1 a6 56 09 c1 89 83 15 c1
       -8.763918 -9.322015 -8.583654 -9.344613
0002d0 95 b4 69 ba fc c4 c3 c0 ea 24 ca ba 74 4e c4 b9
       -0.00089151534 -6.117796 -0.0015422378 -0.00037442485
0002e0 82 db 11 bc a0 79 ad 38 6e b5 a5 3b 8f 52 50 b9
       -0.008902432 8.271937e-05 0.0050570285 -0.00019867181
0002f0 71 44 b0 bb fa d5 37 3a 2c 22 c1 39 a7 2d 65 39
       -0.0053792526 0.0007012781 0.0003683729 0.00021856149
000300 80 1f 5a 39 0c 89 75 39 fa 1f 16 38 97 78 26 ba
       0.00020801835 0.00023416075 3.5792567e-05 -0.0006350367
000310 7f c2 c5 bd ee d8 c9 bd c6 dc 82 be 03 b7 02 be
       -0.09656238 -0.09855829 -0.25559062 -0.12765126
000320 94 b2 cb be 36 2e ca b6 5a e3 f2 bd 86 f1 b6 c0
       -0.39784682 -6.025449e-06 -0.1185977 -5.716983
000330 7b 1d b7 c0 12 b0 cc c0 23 a7 b9 c0 8d 2c ce c0
       -5.7223487 -6.396493 -5.8016524 -6.4429383
000340 68 bd 17 b9 bf 7b 8c c0 e7 6a 0a 3b 5d 8c 11 3b
       -0.00014471042 -4.3901057 0.0021120848 0.0022208907
000350 dc ec 19 3c 74 71 ef 3b 92 b1 57 3b 16 05 b2 b6
       0.009394851 0.007307226 0.0032912237 -5.3054055e-06
000360 2d 5d 02 3b 5a c5 56 40 6e 01 4e 40 17 6e 5a 40
       0.0019891963 3.3557954 3.2188373 3.4129694
000370 4f 7c 48 40 28 ec 57 40 e9 d4 87 bb fa 85 12 40
       3.1325872 3.3737888 -0.004145254 2.2894273
000380 ad 49 3b bf 1c 2e 3b bf a4 01 47 bf f8 99 3a bf
       -0.73159295 -0.7311723 -0.7773688 -0.7289119
000390 3e 7d 4c bf 88 4e 89 bb 07 45 fd be 78 09 1d bc
       -0.79878604 -0.00419027 -0.49466726 -0.009584777
0003a0 f6 92 89 bc b4 fb 65 bc dc 08 5c bd 34 db cf bc
       -0.01679371 -0.0140370615 -0.053719386 -0.025373079
0003b0 2f e4 54 38 48 cf 82 bc 94 a0 87 18 94 a0 87 18
       5.075725e-05 -0.01596798 3.5058825e-24 3.5058825e-24
0003c0 94 a0 87 18 94 a0 87 18 94 a0 87 18 00 00 00 00
       3.5058825e-24 3.5058825e-24 3.5058825e-24 0.0
0003d0 ec 1a af 19 72 f6 af c0 a4 9e a9 c0 61 a5 a0 c0
       1.810545e-23 -5.4988337 -5.3006153 -5.020188
0003e0 c4 60 81 c0 f7 26 81 c0 38 45 a7 ba 0f 9c 5d c0
       -4.043062 -4.0360065 -0.0012761718 -3.46265
0003f0 cd e2 05 3f a8 d6 f1 3e d3 98 6d 3f 7f 4c 27 3f
       0.52299196 0.47234082 0.92811316 0.653511

exp_avg_sq f4 [50, 7]
000000 2e ce 25 40 37 22 3f 40 5f fa 13 40 d3 e5 12 40
       2.5907092 2.9864633 2.3121564 2.2952774
000010 d4 8e fa 3f c4 50 5a 39 98 d2 b4 3e ec 1d 48 3f
       1.9574838 0.00020820188 0.3531692 0.7817066
000020 38 a8 1c 3f ee 57 05 3f 8d 69 07 3f 1d 6f b9 3e
       0.6119418 0.52087295 0.5289543 0.36217585
000030 93 f2 79 37 92 cd 7b 3e d3 a2 b1 3e 09 0d 85 3e
       1.4898035e-05 0.24590138 0.34694538 0.25986508
000040 19 b8 85 3e 96 75 82 3e 9c db 99 3e a9 11 58 37
       0.26117018 0.25480336 0.3005036 1.2878715e-05
000050 15 4e 3c 3d 42 bf 2b 40 9d 3f 24 40 29 79 14 40
       0.045972902 2.6835485 2.5663826 2.319895
000060 72 2e 0c 40 80 80 25 40 f3 2e 81 38 9a fa 0e 3f
       2.1903348 2.585968 6.159944e-05 0.5585114
000070 b5 ac 68 3f 09 11 7d 3f c0 73 3a 3f 63 e8 3a 3f
       0.9088853 0.9885412 0.7283287 0.73010844
000080 09 4d 43 3f f0 cf 73 38 04 97 ee 3d c0 ea ee 38
       0.7628942 5.812937e-05 0.11649898 0.0001139245
000090 fa 88 d2 38 b8 3d 3f 3b e0 a2 1b 39 70 da 95 39
       0.00010039094 0.0029181074 0.00014842628 0.00028582243
0000a0 74 bc a1 2c 8f e7 64 39 ed 57 4c 40 90 ab 49 40
       4.5968177e-12 0.00021830037 3.1928666 3.1510963
0000b0 85 f1 4a 40 e7 df 2d 40 7a 77 20 40 34 3f 54 38
       3.1709912 2.716791 2.5072923 5.06036e-05
0000c0 3b 04 5d 3f 76 3e 94 3d 55 72 81 3d fc a8 24 3e
       0.8633458 0.07238476 0.06320635 0.16080087
0000d0 94 8e 03 3e 62 a3 bf 3d e5 27 de 34 95 6d 34 3d
       0.12847358 0.09357335 4.137975e-07 0.044049818
0000e0 8e ae 5b 3f 31 53 29 3f e3 b9 56 3f ce 14 56 3f
       0.85813224 0.66142565 0.8387739 0.83625495
0000f0 24 2f 9f 3f 9a 53 a9 36 b7 7a 24 3e 15 43 80 33
       1.2436261 5.046325e-06 0.16062437 5.9726666e-08
000100 15 43 80 33 15 43 80 33 15 43 80 33 15 43 80 33
       5.9726666e-08 5.9726666e-08 5.9726666e-08 5.9726666e-08
000110 00 00 00 00 68 ec 8c 38 d9 38 b0 40 44 dd aa 40
       0.0 6.719754e-05 5.5069394 5.33951
000120 30 c6 a6 40 f5 cf 8a 40 d7 a5 95 40 bf 22 1a 39
       5.211693 4.3378854 4.676494 0.00014699528
000130 c0 d0 65 3f 37 14 d6 3f 4f 93 a8 3f ac 3e e1 3f
       0.8977165 1.6724919 1.3169955 1.7597251
000140 25 0b b2 3f aa 6d b7 3f b2 eb da 36 91 9e d9 3e
       1.3909651 1.4330342 6.524345e-06 0.4250379
000150 a5 68 2d 3d c0 76 e5 3c 15 eb 07 3d c8 c5 af 3d
       0.042336125 0.028010726 0.033183176 0.08582646
000160 30 18 8b 3e 25 a0 ff 35 86 29 21 3c 38 f4 65 3b
       0.2716689 1.9045589e-06 0.00983656 0.0035088193
000170 64 39 f5 3a eb 18 38 3b 03 cb 0c 3c 57 0e 27 3c
       0.001870912 0.0028091024 0.008593324 0.01019629
000180 79 ba 1e 35 b7 11 22 3c 8e 51 9a 3a 69 15 ec 3a
       5.913094e-07 0.009891919 0.0011773573 0.0018011752
000190 52 6c 2f 3c 27 07 16 3b 57 6a 30 3b 1b 3a 9e 32
       0.010706978 0.0022892447 0.0026918852 1.8420044e-08
0001a0 19 ea 91 39 54 47 ae 3f e7 41 9c 3f 84 35 99 3f
       0.00027830972 1.3615518 1.2207612 1.1969457
0001b0 26 0b 8b 3f b8 4b a7 3f 2a 56 d4 37 77 bd 9d 3e
       1.0862777 1.3069983 2.5312493e-05 0.30808613
0001c0 61 78 d9 3c ed ac 90 3c 54 af 4c 3c ce e2 30 3c
       0.026546659 0.017660582 0.012492973 0.010796262
0001d0 8d ce 0b 3c 2f 79 3b 36 08 99 09 3c 35 00 eb 3e
       0.008533132 2.793571e-06 0.008398302 0.45898595
0001e0 49 73 d2 3e 04 f0 d0 3e 53 fb 9b 3e 2a 63 8c 3e
       0.4110358 0.40808117 0.30465183 0.27419406
0001f0 fe 57 19 37 44 8a 65 3d 69 f0 f9 3a 4b c0 49 3b
       9.139998e-06 0.056040064 0.001906884 0.0030784782
000200 b2 40 04 3c 94 2f f5 3c 8c 33 5c 3c 8e 9f 4c 35
       0.008072065 0.029929914 0.013440024 7.6228105e-07
000210 dc 4c 47 3a f4 bf 35 3e a0 a5 cb 3d 10 c2 a6 3d
       0.00076027005 0.17749006 0.099437 0.08142483
000220 11 44 6f 3d 90 34 55 3d 7d 58 4a 37 43 fb 6a 3c
       0.058414523 0.05205208 1.2060741e-05 0.014342132
000230 76 dc 9e 3f b0 a5 b4 3f c3 be 9f 3f 44 29 8d 3f
       1.2411029 1.4113064 1.2480091 1.1028218
000240 ae 36 6d 3f 32 3e 71 38 1e e5 99 3e b2 88 db 3f
       0.9266156 5.75168e-05 0.30057615 1.7151091
000250 f8 62 b0 3f fb c7 ce 3f 8a 7f a7 3f f2 62 b4 3f
       1.3780203 1.6154779 1.3085797 1.4092696
000260 0e da 5a 38 28 eb 01 3f 2d f4 fc 3f 30 a8 fb 3f
       5.217833e-05 0.50749445 1.9762017 1.9660702
000270 a5 7c fd 3f ec 59 fb 3f fe 1d 02 40 8f 51 9a 38
       1.9803663 1.9636817 2.0330806 7.358484e-05
000280 d8 5b 63 3e c9 fb 92 31 c9 fb 92 31 c9 fb 92 31
       0.22203004 4.277784e-09 4.277784e-09 4.277784e-09
000290 c9 fb 92 31 c9 fb 92 31 00 00 00 00 fa 89 16 35
       4.277784e-09 4.277784e-09 0.0 5.6080137e-07
0002a0 2c e9 86 38 f0 a9 b7 3a b8 99 eb 38 40 10 09 3a
       6.4330496e-05 0.0014012437 0.000112343056 0.00052285567
0002b0 54 d5 c7 39 f9 a0 34 33 43 3e ac 37 97 44 11 40
       0.0003811518 4.205592e-08 2.053299e-05 2.2698114
0002c0 92 6c 05 40 7d 89 1f 40 ac 5c 09 40 2e 5e 1a 40
       2.0847516 2.4927666 2.1462812 2.4119983
0002d0 95 bc 61 36 02 cc 8a 3f 75 02 ab 3c 88 90 92 3c
       3.3637382e-06 1.0843508 0.020875195 0.017891183
0002e0 32 31 ef 3c 75 79 f7 3c ab c2 fd 3d a5 1e 87 35
       0.029198263 0.030209282 0.123906456 1.0067203e-06
0002f0 a3 7d 87 3b e9 bd 98 3b fd fb 26 3a 83 71 95 39
       0.00413485 0.004661311 0.00063699466 0.00028504067
000300 06 8f a8 3a 14 91 a9 39 a9 58 e5 33 f7 04 c2 38
       0.0012860007 0.00032342284 1.0679771e-07 9.251566e-05
000310 8c 3d e7 3a 4a b5 0a 3b 2b 93 3a 3c e7 9b c3 3b
       0.0017642244 0.0021165186 0.011387627 0.0059695127
000320 ad f1 a6 3c 80 a7 c7 33 3f e2 65 3a a8 18 60 3f
       0.020378912 9.297128e-08 0.000876937 0.8753762
000330 ab 5b 5c 3f 68 e3 96 3f 56 14 73 3f 50 58 8d 3f
       0.86077374 1.1788149 0.94952905 1.1042576
000340 08 fe 1d 35 0e 0a 08 3f c1 47 2c 3a e7 cd 4b 3a
       5.885672e-07 0.5314034 0.00065719715 0.0007774517
000350 45 94 6d 3b 65 36 5f 3c c7 c3 36 3b 82 4b 85 34
       0.0036251706 0.0136238085 0.0027887688 2.482812e-07
000360 1c 24 17 39 4d 0c b2 3f a3 c9 d4 3f 77 39 b2 3f
       0.00014413934 1.3910004 1.6624035 1.3923787
000370 51 de a6 3f 66 22 87 3f 25 6f 90 38 34 5f 98 3e
       1.3036596 1.0557373 6.887157e-05 0.29760134
000380 06 e1 5a 3f 8f 5c 60 3f 87 31 55 3f 3e bb 38 3f
       0.8549961 0.87641233 0.832787 0.7216071
000390 bd 8a 3e 3f f1 62 bd 38 a0 e3 c3 3d c1 0d 23 3b
       0.7443045 9.0306516e-05 0.095649004 0.0024880024
0003a0 b7 91 4e 3c e0 69 10 3c 97 ef d0 3c fb f5 2b 3c
       0.012607983 0.008814305 0.02550487 0.010495658
0003b0 17 1d ab 35 d8 43 0f 3a bb e5 f9 2b bb e5 f9 2b
       1.2748959e-06 0.00054651266 1.7756277e-12 1.7756277e-12
0003c0 bb e5 f9 2b bb e5 f9 2b bb e5 f9 2b 00 00 00 00
       1.7756277e-12 1.7756277e-12 1.7756277e-12 0.0
0003d0 cf 13 fa 2e 47 00 7c 3f ea 1d 5d 3f f6 20 46 3f
       1.13722025e-10 0.98437923 0.8637377 0.77394044
0003e0 10 36 01 3f de 15 ec 3e 47 af 5d 36 2f 59 b0 3e
       0.5047312 0.46110433 3.303359e-06 0.34443042
0003f0 d7 b7 27 3f 27 bc 01 3f 4d c3 f7 3e 5f 9b d8 3e
       0.6551489 0.5067772 0.4839119 0.4230604

exp_avg f4 [50]
000000 63 53 d4 3c 9f 23 75 bd 2b bc 0e 3b 30 0a 6c 3d
       0.025918668 -0.059848424 0.0021779637 0.057626903
000010 4c 54 28 3c 5b 65 9f ba 5b 86 bc 3d 0f a7 bd 3c
       0.010274004 -0.0012160944 0.09205314 0.023150949
000020 54 04 09 bd bd 79 f3 b8 f3 b8 4c 3d 64 16 89 3d
       -0.033451393 -0.000116098185 0.04998107 0.06693724
000030 a9 e6 11 bb 24 80 d5 39 cc ff 8e 3a 87 89 2a 3d
       -0.0022262728 0.00040721998 0.0010909974 0.041635063
000040 02 f9 37 bc 68 5c e6 3b fa 77 03 3b f5 3e 86 bb
       -0.011228802 0.0070300587 0.0020060525 -0.0040968605
000050 86 b9 4e 3d f9 45 92 3d ba 0d c4 bc 86 26 11 9b
       0.050469898 0.071422525 -0.023932327 -1.2006566e-22
000060 13 58 c8 36 18 bd 04 be 9d 0a f8 38 62 e9 66 37
       5.9707177e-06 -0.12962759 0.000118275384 1.3763407e-05
000070 92 14 25 bb 9c 2f b8 bd 84 16 6c 38 08 81 2b 3d
       -0.0025189263 -0.08993456 5.6287754e-05 0.0418711
000080 58 1e 6b bc 08 eb 83 b9 6b 75 07 1c 43 a0 93 bd
       -0.014350496 -0.0002516138 4.481951e-22 -0.07208302
000090 d8 17 94 3a cc ad 95 3d f4 1e cc bb f5 d6 87 3d
       0.001129861 0.0730854 -0.006229276 0.06632797
0000a0 0e 7d 5a 3d c2 81 aa 3d 61 9c b4 b9 5e 16 61 3b
       0.053341918 0.083255306 -0.00034448787 0.0034345607
0000b0 ae ab 1b bb 0c a6 2f 3d 43 4a 0e 3c 95 c7 19 be
       -0.0023753452 0.042882964 0.008684698 -0.15017541
0000c0 15 13 a2 bb 61 98 7e 3d
       -0.0049461224 0.06215704

exp_avg_sq f4 [50]
000000 99 8e 0f 3a 26 3b f8 38 44 68 c6 38 9b a6 27 3a
       0.0005476266 0.00011836579 9.460797e-05 0.00063953706
000010 e9 7e 2f 39 4a ad 13 34 b2 3e 6a 3a 43 93 ad 37
       0.00016736578 1.3753484e-07 0.0008935734 2.0691781e-05
000020 9e 1d 53 39 80 5b 78 33 23 54 c2 3a 4f 06 ee 39
       0.00020133561 5.782522e-08 0.00148261 0.00045399598
000030 55 39 86 37 76 cb 83 36 86 47 a9 34 7a 0a be 39
       1.6000742e-05 3.92779e-06 3.1530743e-07 0.0003624743
000040 9e a0 89 36 e1 24 f4 38 da 76 8a 35 95 e6 c8 37
       4.1016165e-06 0.00011641696 1.0316392e-06 2.3949231e-05
000050 45 4f 9a 39 54 4c 01 3a 62 d6 e4 39 91 38 86 31
       0.0002943223 0.0004932333 0.00043647276 3.906344e-09
000060 45 b8 39 33 ea 87 07 3a d1 f0 10 37 42 0f 15 34
       4.324126e-08 0.0005170094 8.639138e-06 1.3882257e-07
000070 53 49 88 35 22 f1 68 39 39 8d c0 34 97 eb c0 39
       1.015413e-06 0.00022215073 3.586554e-07 0.00036796622
000080 3b b8 2b 39 59 c8 ad 35 8f 1c 3d 2f d7 80 29 39
       0.00016376462 1.2947813e-06 1.7199596e-10 0.00016165093
000090 a9 81 f2 38 9a c5 1c 3a 18 39 54 39 fb 05 65 3a
       0.0001156361 0.00059803727 0.00020239165 0.0008736548
0000a0 b4 2b 82 39 44 1d 87 3a c2 f6 92 34 15 1f 49 39
       0.00024828094 0.0010308404 2.737416e-07 0.00019180433
0000b0 7e c3 52 38 eb de 25 3a 0a 58 2e 38 01 a2 6a 3a
       5.0249968e-05 0.0006327468 4.1566826e-05 0.0008950532
0000c0 66 88 45 38 26 69 f8 39
       4.709549e-05 0.00047380588

exp_avg f4 [4, 50]
000000 7c 81 26 bd 9f 05 0e be 5a 5d fc 3d 21 dc 0c bc
       -0.04065083 -0.13869332 0.12322493 -0.008597405
000010 af f6 65 be c6 b9 39 9d d8 fd 60 be b4 a7 b0 3b
       -0.22457384 -2.4580589e-21 -0.21971834 0.0053910855
000020 b6 72 25 ba c6 68 74 9d f5 5f 5e 39 8b 36 ec 3c
       -0.0006311344 -3.2347298e-21 0.00021207317 0.028834602
000030 59 24 54 37 69 24 8c ba 1e ee 90 a8 81 df 11 be
       1.26446475e-05 -0.0010692003 -1.6090478e-14 -0.14245416
000040 fb 92 dd 3b ad 4a d7 3b be 75 05 3c 90 94 09 3e
       0.006761906 0.0065701813 0.008145748 0.13435578
000050 a4 97 b5 bd fc 77 b1 bd 6d 45 01 be 2e ce 1d 9d
       -0.08866814 -0.08665463 -0.1262414 -2.088537e-21
000060 e0 06 8d 39 55 e9 8d bd 2a 4a c1 3a fc 4d 8c 3a
       0.00026898738 -0.0692927 0.0014746834 0.0010704393
000070 9a cb 67 ba 75 a5 fc 3a 16 c9 a4 3a 29 45 1c be
       -0.00088422897 0.0019275384 0.0012572135 -0.15260758
000080 0f 92 ba bd 2c f3 01 3b 0e 20 4c 9d 7c 5b b3 bc
       -0.0910989 0.001982878 -2.7015747e-21 -0.02189421
000090 f0 53 1c 3e f5 d4 6d 3d 05 99 e2 3d 80 81 02 be
       0.15266395 0.05806442 0.110643424 -0.12744713
0000a0 15 28 d8 bc 8c 7b ab bd ca 0d f8 9c df b6 68 3d
       -0.0263863 -0.08373174 -1.6414828e-21 0.056815024
0000b0 cb f7 95 3c a3 93 d5 3c 81 1e 3a bd 5d 78 8b be
       0.018306633 0.026071375 -0.045439247 -0.27240267
0000c0 2c ee ca 3d f1 98 7c be 4a 93 84 3f 5e 31 df 3d
       0.09908709 -0.24667718 1.0357449 0.10898088
0000d0 3b f0 fe 3e 38 a1 76 3f 85 0c 97 3f 00 00 00 00
       0.49792656 0.9633975 1.1800696 0.0
0000e0 3f 9a 62 3f e6 f4 62 bb 79 1b 8c bd 00 00 00 00
       0.8851661 -0.0034630834 -0.068411775 0.0
0000f0 7f 21 7c 3f 24 4d 4f 3f c7 b4 2e 3d b6 52 00 bb
       0.9848861 0.8097708 0.04265287 -0.001958055
000100 b2 fc 0e af c8 b4 01 40 e0 8c 92 3c c9 f0 81 3f
       -1.30046e-10 2.026659 0.01788944 1.0151607
000110 ea 1a 9f bc e5 2f eb 3e 11 ea 80 3f 7d a1 96 3f
       -0.019422013 0.45934978 1.0071431 1.1768032
000120 25 6b 63 3f 00 00 00 00 2d cf ba 1f 28 07 4b 3c
       0.88835365 0.0 7.911681e-20 0.012391843
000130 db 6f 93 3c c4 fe 00 b6 ef 13 91 3c 3c 1f 31 bd
       0.017997673 -1.922178e-06 0.0177097 -0.043242678
000140 da 4b 36 1e 00 6b 81 3f 79 3b 6e 3f 0c 8d 8d 33
       9.6506855e-21 1.0110779 0.930595 6.5914804e-08
000150 00 00 00 00 bf f2 3c 3e 45 d2 0e 3f 44 c2 5b 3f
       0.0 0.18451975 0.55789596 0.858433
000160 4b 75 09 3f f7 fe c6 3f 43 17 67 3f 0b 2b 7a 3f
       0.536946 1.5546559 0.9026987 0.9772193
000170 a8 5b 84 36 77 61 3e 3f ca 40 b5 3e 3b 08 22 3f
       3.9445767e-06 0.7436747 0.35400993 0.6329381
000180 4a 6b 7d 3d 4d 13 83 3e b4 07 f9 3d 28 1b 76 3f
       0.061869897 0.25600663 0.121596724 0.9613519
000190 af 05 12 c1 6c ee 20 c1 38 08 c0 bf dc 64 85 c1
       -9.126388 -10.058208 -1.5002508 -16.674248
0001a0 dc 98 12 c2 de ef 7c bd 2c 28 a4 c1 6c e3 c9 bf
       -36.649277 -0.061752193 -20.519615 -1.5772529
0001b0 1c 71 18 c1 24 98 01 bc 2e cf b2 c0 7a 92 05 c1
       -9.527615 -0.007909808 -5.5877905 -8.348261
0001c0 d4 d8 c9 be c5 6b 00 bd 2f b6 d7 be 9a 33 fc c1
       -0.3942324 -0.031352777 -0.42131183 -31.525196
0001d0 34 fa 2a c0 0e 7a e2 bf ca ea aa be dc 82 2a be
       -2.6715212 -1.7693498 -0.33382255 -0.16651481
0001e0 30 4a 3a c1 34 7b 53 c1 bd 0f 4a c1 c7 57 44 9d
       -11.643112 -13.217579 -12.628842 -2.5985764e-21
0001f0 22 c9 ab 33 12 5f ab c1 4d 0b 49 bf d3 e4 be 25
       7.999394e-08 -21.421421 -0.7853287 3.3114803e-16
000200 56 12 55 bf 23 01 04 c1 93 5b 69 bd 89 b1 03 c2
       -0.83231103 -8.2502775 -0.056972098 -32.923374
000210 6e cc 82 c1 d8 67 be bb 36 d3 1c 9d 9f aa 80 c0
       -16.34982 -0.005810719 -2.0755622e-21 -4.020828
000220 03 ff bb bf 8e 33 57 c1 da 08 69 c0 99 cd 16 c2
       -1.4687198 -13.450087 -3.6411653 -37.70078
000230 bb b7 f4 c0 1d fb e7 c1 95 dc f4 bc 0a c2 98 bf
       -7.647428 -28.997614 -0.029890338 -1.1934216
000240 08 d5 9d c0 26 dd 93 c0 4c 9f 87 c0 44 96 c7 c1
       -4.932255 -4.6207457 -4.2381954 -24.948372
000250 74 ff 04 bd 97 35 93 c1 f0 22 2b 3c 34 ae 18 bd
       -0.03247018 -18.401167 0.0104453415 -0.037275508
000260 80 e1 92 3c e4 f9 c5 bd d3 62 d4 bd 00 00 00 00
       0.017929792 -0.096668035 -0.10370412 0.0
000270 f1 c6 aa bd c0 45 db ba f8 e8 00 bd 00 00 00 00
       -0.08338726 -0.0016729161 -0.031472176 0.0
000280 34 18 cc 3c bd 6e c7 bc 7a b1 ff ba 00 00 00 00
       0.024913885 -0.024344796 -0.0019507848 0.0
000290 23 63 69 3b 3b b1 09 be 00 00 00 00 77 ea f8 3c
       0.0035612069 -0.13446514 0.0 0.030385239
0002a0 82 2d 32 ba 4a 70 c9 3c e5 c3 27 bd 20 48 72 bd
       -0.00067969423 0.024589676 -0.040958304 -0.059150815
0002b0 d9 79 14 bd 00 00 00 00 b2 c5 a5 2f 7e d3 a0 bd
       -0.036249015 0.0 3.0153796e-10 -0.07852839
0002c0 9d 12 0e 3c 34 27 00 23 db 1a 7a 3a ec d8 5f bc
       0.00867143 6.9471955e-18 0.0009540745 -0.013662558
0002d0 48 57 f9 37 36 1e f2 bd ed 2b 9f bd 8b 0f 8a 31
       2.9723757e-05 -0.118221685 -0.0777205 4.0180956e-09
0002e0 00 00 00 00 ea 89 4c bc 19 83 6a 3d 27 55 a7 bd
       0.0 -0.012484053 0.05725393 -0.081705384
0002f0 4d 6e 8b 3b 4f aa 15 be 91 2c d9 bc 95 15 09 be
       0.0042550922 -0.14615749 -0.026510509 -0.13387139
000300 00 00 00 00 8b 33 83 3c 7a 5c 9a 3c 0c dd 2d bc
       0.0 0.016015789 0.018842924 -0.010611784
000310 61 01 04 bd 05 60 a0 bd ad a1 8e 3a c6 bb 8a bd
       -0.032227878 -0.07830814 0.0010881923 -0.06774096

exp_avg_sq f4 [4, 50]
000000 e3 8f c1 40 cb 51 bd 3e 8d e1 19 3e 5a bf 3f 41
       6.0488143 0.36976466 0.15027447 11.984217
000010 ae 60 81 41 b0 69 82 31 a8 77 7c 40 f9 83 80 3c
       16.172207 3.7955132e-09 3.9448032 0.01568793
000020 95 b5 49 3f 13 ad e4 31 28 d1 1a 40 54 8b 78 40
       0.787927 6.6553496e-09 2.419016 3.883504
000030 58 2b f2 3b b4 9c 6c 3a d1 5a 4b 39 10 10 24 42
       0.007390421 0.0009026036 0.0001939342 41.015686
000040 b3 37 9d 3c 27 68 4e 40 92 56 a1 3d 8c 93 13 3d
       0.019191599 3.225107 0.0787784 0.036029384
000050 6a 30 a7 40 69 75 06 41 a0 ee 6c 41 db 39 3d 31
       5.22466 8.403665 14.808258 2.7536007e-09
000060 08 e6 05 3a 4a 26 29 3e b8 ee 03 3a ec 54 a7 39
       0.00051078247 0.16518512 0.0005032825 0.00031915994
000070 b9 74 eb 38 e5 8e 5a 3c aa 5b 97 3b d6 a6 33 41
       0.000112274145 0.013339733 0.0046190815 11.228231
000080 50 0a 38 41 20 bf 5e 3c 73 4d ab 31 32 4d e1 3d
       11.502518 0.013595372 4.98556e-09 0.11001052
000090 ac 1c c0 3d 16 42 52 41 5b 25 68 40 98 6d 0a 42
       0.09380469 13.141134 3.62728 34.607025
0000a0 21 d7 c1 40 0d 60 83 41 6b 27 e3 30 65 c9 a5 3f
       6.057511 16.4219 1.6527627e-09 1.2952086
0000b0 d4 2f 0e 3e 11 ba 39 40 6a 8f 0b 40 bb c0 aa 3f
       0.13885432 2.9019816 2.1806283 1.3340067
0000c0 20 d7 c0 3d a1 80 94 40 31 97 c2 40 30 76 27 3f
       0.09416032 4.640702 6.080956 0.65414715
0000d0 ad de c1 3f 68 69 e3 40 52 1a 67 41 00 00 00 00
       1.514608 7.106617 14.443926 0.0
0000e0 7f ce 85 40 d2 6f 25 3b ee 86 a9 3e 00 00 00 00
       4.181457 0.0025243652 0.33110756 0.0
0000f0 66 fa 70 40 4f 60 ba 40 7c b5 a3 3e ff 37 32 3c
       3.765283 5.8242564 0.319744 0.010877608
000100 b6 68 63 38 b3 f4 e6 41 df 54 37 3d 2a e2 37 40
       5.4218537e-05 28.869482 0.044758674 2.873179
000110 64 a3 6d 3c c8 a5 85 3d 0e 34 a3 40 3a ec cc 40
       0.014504287 0.06525761 5.1001043 6.4038363
000120 19 17 b1 40 00 00 00 00 e6 e4 18 36 93 5c 1b 3f
       5.5340695 0.0 2.2783001e-06 0.6068813
000130 cf 17 66 3e 8b 11 a3 39 86 c0 cc 3d 40 87 d9 3c
       0.2247002 0.00031102853 0.099976584 0.02655375
000140 c1 ab 82 34 38 21 28 41 2a ef f9 40 de f7 5d 38
       2.4339354e-07 10.50811 7.810445 5.292135e-05
000150 00 00 00 00 a7 f0 3f 3e 79 48 57 3f d2 3e c4 40
       0.0 0.18744145 0.8409496 6.1326685
000160 67 ad f4 3f b6 05 bf 41 c5 bf 8a 40 10 38 23 41
       1.9115418 23.877789 4.3359094 10.201187
000170 2c d3 32 3a 85 7f 98 3f d3 4c 97 3f 72 fc 39 40
       0.0006821628 1.1913916 1.182032 2.906033
000180 84 0e 89 3e 8a 4e bf 3f 22 f7 19 3e 69 e9 94 40
       0.26768887 1.4945843 0.1503568 4.6534925
000190 b3 8e cc 41 20 e3 4c 40 88 bd 8b 3f 58 d0 c8 41
       25.569677 3.2013626 1.0917215 25.10173
0001a0 c8 ef c5 42 86 f2 1e 3a 0d 0e 7f 41 22 4b e1 3d
       98.96832 0.00060633605 15.94093 0.110006586
0001b0 b6 98 ca 40 3a be 8d 39 27 8f 1f 41 0d 35 90 41
       6.3311415 0.00027035346 9.972449 18.025904
0001c0 35 f6 26 3c 9a 39 c8 3b 29 3b ff 3c f1 c3 0b 43
       0.010190536 0.0061103823 0.03115614 139.7654
0001d0 90 bf 4b 3e 2f 9b 8d 40 ce 8a b6 3c 02 30 0e 3d
       0.19897294 4.4251933 0.022282984 0.034713753
0001e0 55 bd 69 41 be 09 9c 41 38 da 80 42 91 45 93 34
       14.608724 19.504757 64.42621 2.74315e-07
0001f0 06 d4 34 35 15 ea 3c 41 ee 84 9c 3e 11 f8 ca 39
       6.736376e-07 11.807149 0.30570167 0.00038713266
000200 e1 21 89 3d 45 14 eb 3f d0 16 20 3d ed da 60 42
       0.06695915 1.8365561 0.039084256 56.213795
000210 2c ad 47 42 61 c0 c6 39 59 07 44 34 64 e6 df 3e
       49.919113 0.00037908836 1.8256596e-07 0.43730462
000220 ce 5e 82 3f 45 63 bb 41 ec 74 2e 41 59 66 12 43
       1.0185182 23.423471 10.903545 146.3998
000230 3d 4b 9e 41 7f d2 5a 42 c6 43 38 39 12 ba e8 3f
       19.786737 54.705563 0.00017572855 1.8181784
000240 c5 be 17 40 50 cd fd 40 e7 a8 f9 40 10 43 85 41
       2.3710186 7.9313126 7.801868 16.657745
000250 e2 e2 ac 3d d9 ba 5a 41 c8 9e 79 3f 12 3f 94 3c
       0.08441712 13.670617 0.97507906 0.01809648
000260 b8 29 9c 3d 65 78 82 3f c1 fc 0a 40 00 00 00 00
       0.07625145 1.0192991 2.1716769 0.0
000270 1e 59 8d 3e 97 e6 52 3b 7f 82 86 3c 00 00 00 00
       0.27607054 0.00321809 0.016419647 0.0
000280 cd 0e 07 3f aa 54 51 3f 0d 00 2e 39 00 00 00 00
       0.5275696 0.8176981 0.00016593952 0.0
000290 5e b8 41 3a a2 03 60 40 00 00 00 00 31 49 19 3e
       0.00073898386 3.5002217 0.0 0.14969327
0002a0 86 84 8c 39 b7 3a fd 39 3c f8 09 3f 17 6c 15 3f
       0.00026801619 0.00048299666 0.538944 0.58368057
0002b0 ca f3 f7 3e 00 00 00 00 4e ee 22 35 d0 c5 0b 3d
       0.48428184 0.0 6.069648e-07 0.034124196
0002c0 6a 38 38 3b b8 08 b2 33 6f d6 ff 38 45 30 b5 3b
       0.0028109797 8.290357e-08 0.00012199289 0.005529436
0002d0 2a 94 1b 3b 68 61 c2 3f c0 ba 32 3f f6 0d 50 33
       0.0023739436 1.5185976 0.6981621 4.844147e-08
0002e0 00 00 00 00 83 9b 3e 3b 19 47 a2 3d 09 f9 8b 3f
       0.0 0.0029084391 0.07923717 1.0935374
0002f0 b7 06 ea 3e be 33 5a 40 f4 eb ed 3e 5f df bf 3f
       0.45708248 3.409408 0.4646908 1.4990042
000300 00 00 00 00 ec 52 bc 3d 1b 23 13 3e e0 8d 06 3f
       0.0 0.091955036 0.1436886 0.52560234
000310 09 e7 ee 3c 17 ff 20 3d 49 f3 c4 3a d4 3e 47 3e
       0.0291629 0.039305773 0.0015026118 0.19457561

exp_avg f4 [4]
000000 b7 f6 4f 3c d3 ab fe 3c 2e 91 f2 be eb 86 80 3b
       0.012693099 0.031087792 -0.47376388 0.0039223335

exp_avg_sq f4 [4]
000000 88 82 61 3b 74 05 06 3b de f0 0b 3d f4 21 de 39
       0.0034410078 0.0020450028 0.034165256 0.00042368437
