last_brain4.pth (torch, 11261 bytes, 12 tensors)

fc1.weight f4 [50, 6]
-2.6193557 -2.2659717 0.26218852 -0.06487648 -0.701482 0.087297596 0.032316208 -0.06487932
-0.13170475 0.13310473 0.2557029 6.742684 0.08511661 -0.14976853 0.26048684 0.24023937
-0.3489955 1.979964 -0.5225757 0.07345637 -0.13064988 0.38503313 0.17978436 -3.4899535
-0.069661625 0.29627118 0.18311319 0.07795025 -0.07236476 1.9199518 0.07508402 0.104825616
-0.013430374 0.06777946 -0.17848174 -2.1063411 -0.032405317 0.0681683 -0.0044358424 -0.26702908
0.23202139 -0.18354657 0.21152066 -0.057547882 -0.049644418 -0.1311516 -0.015523424 -2.6393929
-0.24901971 -0.27908596 0.24202843 0.3819257 -0.23294741 -1.2831684 -4.197136 -3.8540432
-4.1791954 -4.1626663 -4.421001 -0.5753054 0.08343086 -0.1202128 0.20123464 -0.011397147
0.18331695 -2.4012814 -0.8814891 0.16139989 0.17589997 -0.45821562 -0.39073938 0.44163692
0.26738408 0.036607422 0.29551575 -0.27887204 -0.124922894 -1.4388633 -0.18105651 -0.09819828
-0.047745228 0.25660914 0.39224532 2.1305509 0.02258096 -0.42452893 0.33957702 0.21925828
-0.20405681 -1.5231158 0.026571807 -0.12858072 0.041438498 0.14413391 -0.021203114 -5.326341
0.058375955 -0.08699258 0.12216581 -0.097012974 -0.013696171 5.191254 -0.014112807 0.08500188
-0.12248749 0.06898118 -0.02878067 3.6577728 0.07006809 -0.013136573 -0.06735361 -0.10115866
0.1849606 -0.61201555 0.15534945 -0.28852138 -0.047803856 0.24240033 -0.19172832 4.691388
-0.055229135 -0.5951071 -0.098304674 0.36495298 -0.112670906 2.284529 0.15469705 -0.07834015
-0.42675638 0.35889247 0.20890205 -1.5985937 -0.79971206 -0.39521286 0.2144683 -0.13837427
-0.20990412 -0.12782992 0.055935837 -0.3553952 0.10082155 0.18520017 0.21967979 -0.742392
-0.047022086 -0.03329453 -0.23653805 0.23006846 0.112496555 3.599169 -0.16054349 -0.04975752
-0.362901 -0.5627963 -0.39886767 -4.810044 0.076843195 -0.067958534 0.08221666 0.023084557
-0.3575586 -4.455749 0.09766909 -0.007781333 0.12752335 0.09768567 -0.47202942 4.047156
0.1489591 -0.13102525 0.14443262 0.07320569 -0.50122994 -3.0043468 0.2084631 0.007968194
0.2091408 -0.06986117 -0.03654065 -1.6369487 -1.0279258 0.2907506 0.18075795 -0.20866841
-0.013637921 4.5363784 -0.12083021 -0.0627867 -0.17775334 -0.016678447 0.42433044 2.4563825
0.0152859995 0.0324671 -0.055446338 0.17299673 -0.29752687 2.6018436 -0.95963234 0.35964316
-0.17067727 -0.047689117 -0.40154958 0.8469344 -0.1789119 -0.011068348 0.057883386 -0.07567144
-0.0042185676 -6.7394533 -4.39198 -4.1282415 -4.1111083 -4.376461 -4.3130016 -0.23801078
0.046810836 -0.10606344 0.06793952 0.08157493 0.11725452 2.7141793 -1.7261428 -1.6468093
0.28372103 -0.020287866 -0.78315496 -0.051406622 0.30545822 0.12916161 -0.35399184 0.3008093
-0.038987126 -1.4222727 0.0035346134 -0.074184924 0.0026545206 0.0347711 -0.038255747 -4.1475816
0.040311795 0.021306813 -0.3355811 0.1677017 0.15584823 -4.4992948 0.29809287 -0.3357537
-0.0340485 0.087512046 -0.02364864 1.1822542 -0.1379905 -0.5617342 -0.07729488 0.34860831
00000000: 86a3 27c0 ae05 11c0 933d 863e f6dd 84bd
00000010: 5394 33bf 15c9 b23d 005e 043d 73df 84bd
00000020: 9cdd 06be 9b4c 083e 7eeb 823e 11c4 d740
00000030: 9e51 ae3d ec5c 19be 885e 853e 4f01 763e
00000040: 8aaf b2be 766f fd3f 85c7 05bf 4b70 963d
00000050: 15c9 05be 1023 c53e 6419 383e 665b 5fc0
00000060: c1aa 8ebd dbb0 973e 0682 3b3e 61a4 9f3d
00000070: fa33 94bd fbc0 f53f a7c5 993d d0ae d63d
00000080: 120b 5cbc f5cf 8a3d ebc3 36be 4bce 06c0
00000090: 70bb 04bd d29b 8b3d 8b5a 91bb 09b8 88be
000000a0: 0497 6d3e a2f3 3bbe df98 583e 54b7 6bbd
000000b0: f257 4bbd 9b4c 06be f655 7ebc d0eb 28c0
000000c0: 06ff 7ebe 5be4 8ebe 4dd6 773e c48b c33e
000000d0: c489 6ebe dd3e a4bf f04e 86c0 a5a8 76c0
000000e0: f8bb 85c0 9034 85c0 d778 8dc0 3747 13bf
000000f0: ccdd aa3d 2132 f6bd 7410 4e3e 19bb 3abc
00000100: 70b7 3b3e 98ae 19c0 45a9 61bf 0346 253e
00000110: 1f1f 343e 3d9b eabe fe0e c8be 3c1e e23e
00000120: 91e6 883e aaf1 153d d74d 973e 51c8 8ebe
00000130: 93d7 ffbd ac2c b8bf e166 39be 2e1c c9bd
00000140: 8090 43bd 4662 833e 61d4 c83e f25a 0840
00000150: b5fb b83c db5b d9be 0add ad3e 3e85 603e
00000160: 45f4 50be 75f5 c2bf 1ead d93c aaaa 03be
00000170: 6abb 293d d797 133e 27b2 adbc 6371 aac0
00000180: a01b 6f3d 2a29 b2bd 1132 fa3d bdae c6bd
00000190: e865 60bc c11e a640 6739 67bc 7715 ae3d
000001a0: b9da fabd 0146 8d3d 71c5 ebbc f318 6a40
000001b0: dc7f 8f3d c83a 57bc b1f0 89bd 462c cfbd
000001c0: 5066 3d3e 0dad 1cbf ed13 1f3e 13b9 93be
000001d0: facd 43bd cb37 783e 6e54 44be da1f 9640
000001e0: f237 62bd f058 18bf f653 c9bd 1edb ba3e
000001f0: 01c0 e6bd b935 1240 e768 1e3e cd70 a0bd
00000200: d07f dabe c1c0 b73e 6bea 553e b89e ccbf
00000210: eeb9 4cbf 5759 cabe 949d 5b3e fcb1 0dbe
00000220: 1bf1 56be d9e5 02be fa1c 653d 5cf6 b5be
00000230: 877b ce3d 1da5 3d3e bdf3 603e 670d 3ebf
00000240: 3b9a 40bd d85f 08bd 0837 72be 1197 6b3e
00000250: 9864 e63d c958 6640 8365 24be 8bce 4bbd
00000260: 29ce b9be 6b13 10bf 6238 ccbe e1eb 99c0
00000270: f75f 9d3d d82d 8bbd 3561 a83d d31b bd3c
00000280: ec11 b7be 7f95 8ec0 bb06 c83d 8dfa febb
00000290: 7b95 023e 6d0f c83d d7ad f1be 4d82 8140
000002a0: bc88 183e 7c2b 06be 25e6 133e ddec 953d
000002b0: 9b50 00bf 3847 40c0 5a77 553e 078d 023c
000002c0: 0229 563e 6013 8fbd a6ab 15bd 8987 d1bf
000002d0: 1393 83bf 43dd 943e 9d18 393e 2cad 55be
000002e0: 9671 5fbc 032a 9140 d475 f7bd 5096 80bd
000002f0: f904 36be 3da1 88bc d741 d93e 5f35 1d40
00000300: 2172 7a3c 39fc 043d b31b 63bd 0e26 313e
00000310: 7155 98be 9b84 2640 77aa 75bf 2623 b83e
00000320: 06c6 2ebe aa55 43bd e897 cdbe b1d0 583f
00000330: ae34 37be 0458 35bc 2117 6d3d a1f9 9abd
00000340: e93b 8abb 9aa9 d7c0 1a8b 8cc0 8e1a 84c0
00000350: 338e 83c0 f80b 8cc0 1c04 8ac0 19b9 73be
00000360: b8bc 3f3d ca37 d9bd e023 8b3d c210 a73d
00000370: 2323 f03d 1db5 2d40 3ff2 dcbf a6ca d2bf
00000380: e243 913e bd32 a6bc d87c 48bf c08f 52bd
00000390: 0565 9c3e f142 043e 6b3e b5be ad03 9a3e
000003a0: f7b0 1fbd 080d b6bf f9a4 673b 44ee 97bd
000003b0: 77f7 2d3b 246c 0e3d 0fb2 1cbd fdb8 84c0
000003c0: fb1d 253d a08b ae3c 49d1 abbe ffb9 2b3e
000003d0: ae96 1f3e 39fa 8fc0 a19f 983e e9e7 abbe
000003e0: 7176 0bbd 8439 b33d cbba c1bc 1b54 973f
000003f0: 624d 0dbe d0cd 0fbf c74c 9ebd ca7c b23e

fc1.bias f4 [50]
3.4563413 -2.1268034 3.4142535 -1.8985645 3.947756 -4.68529 3.9050355 4.711838
-3.0795493 5.309501 -2.8311667 -0.107776135 -2.690051 3.6695752 2.3805368 -3.880645
-3.9711294 -1.7451018 3.8417225 1.2135394 1.5227212 4.461597 0.4161655 1.5618513
2.1177354 -1.6291466 4.5382304 1.7035426 -4.147863 -3.1026587 0.7112716 -2.2241025
3.851751 -0.8270694 -0.5206667 6.3209963 3.893133 3.2897642 -3.1125414 5.1534057
-3.5668337 -2.6797345 0.16533566 -1.7579262 0.5468852 3.2069404 -2.6961267 -0.48052207
5.1142807 2.9926965
00000000: b234 5d40 8c1d 08c0 2183 5a40 2904 f3bf
00000010: 09a8 7c40 e5ed 95c0 1aec 7940 60c7 9640
00000020: 5617 45c0 6fe7 a940 d631 35c0 bcb9 dcbd
00000030: cc29 2cc0 52da 6a40 b75a 1840 7d5c 78c0
00000040: fc26 7ec0 7f5f dfbf c8de 7540 4255 9b3f
00000050: 87e8 c23f 67c5 8e40 a513 d53e beea c73f
00000060: fa88 0740 e087 d0bf 2f39 9140 af0d da3f
00000070: 4bbb 84c0 f691 46c0 e515 363f b257 0ec0
00000080: 1783 7640 d2ba 53bf 6a4a 05bf 9a45 ca40
00000090: 1729 7940 7f8b 5240 e133 47c0 b3e8 a440
000000a0: 0147 64c0 c580 2bc0 c04d 293e ba03 e1bf
000000b0: ab00 0c3f 833e 4d40 578d 2cc0 fd06 f6be
000000c0: 30a8 a340 5788 3f40

fc2.weight f4 [4, 50]
1.1308198 0.26685074 -0.09516352 0.0939236 -0.1718135 0.36962932 -0.20590168 -0.24831319
0.07119165 3.947112 0.06755345 -0.15164421 0.13924667 -0.12759712 -0.07550734 0.36249128
-0.30606192 -0.034283075 -0.15855443 0.22987173 0.25141197 -0.2371432 0.028712964 -0.07546206
-0.2322376 0.33874694 -0.57551396 -0.16174974 0.17927778 0.18616244 0.23376125 0.2992248
-0.10110082 -0.16575606 -0.6037112 4.9024873 -0.107613906 1.380018 0.11192943 -0.45908403
0.21694364 -0.2027477 -0.26648238 0.1399963 1.4813472 -0.14963537 0.27694708 -0.45741907
3.9987519 -0.026338799 -0.13926816 0.17926678 -0.27440262 0.09204748 -0.1736306 0.17954552
-0.31802347 -0.27486607 0.11353929 -0.029161759 0.0907005 0.0055294307 0.04591934 -0.13348423
-0.043591607 0.1732215 -0.106463306 0.03189157 -0.17917892 0.19935767 0.06151937 -0.18978277
-0.14898908 -0.047441598 -0.13271798 -0.14141355 -0.3534544 -0.07316756 0.16760911 0.29795903
0.25731274 0.17361543 0.016905373 -0.16010882 -0.7255835 0.09384963 -0.106927946 -0.06444867
0.07035953 -0.4352884 0.1506802 -0.05663612 -0.10633529 0.12751573 1.0620313 -0.15403381
0.14914888 -0.06725278 0.058503285 -0.09911251 -0.023446463 0.2553158 -0.10806676 0.09023928
-0.22853139 0.14219166 -0.24441323 -0.24907961 0.100952566 -0.054169998 0.38533452 -0.152599
-0.12249019 -0.17547514 -0.11508458 0.22677684 -0.18533461 -0.0011479337 -0.24572696 0.111196995
0.06548075 -0.2706562 -0.08943808 -0.11340189 0.06830873 -0.26223654 -0.30882323 -0.031593673
0.28957674 0.12008201 0.30308497 0.11559323 -0.0366433 -0.03485785 -0.5698647 -0.066201456
-0.16497338 0.12654926 0.16327603 -0.415883 0.082188874 -0.10260978 -0.005142509 0.08118532
1.0514467 -0.17569038 0.3857148 0.1315845 0.07639453 -0.081820965 0.9186321 0.14680238
-0.060652383 0.09727285 -0.13385019 0.25117752 -0.16343647 -0.21992573 0.05931978 4.278656
0.11805685 -0.011916775 0.049258213 -0.102319896 -0.041991375 0.2375598 -0.1328424 0.053377703
-0.10976913 0.17234533 0.16172186 -0.18219472 -0.20990735 -0.054372236 -0.12971826 -0.37456343
-0.3623479 -0.11949438 0.1295673 0.15822358 0.20309407 0.22681755 -0.03801924 -0.17331216
-0.45164987 4.276798 -0.1990602 1.1322352 0.09685543 -0.36154908 0.11564109 -0.095541306
-0.1604899 0.07273925 1.3360912 -0.12568484 0.1745056 -0.057430837 4.183082 -0.07111192
00000000: b4be 903f a9a0 883e 17e5 c2bd 045b c03d
00000010: e1ef 2fbe 0e40 bd3e e4d7 52be d045 7ebe
00000020: eecc 913d 7c9d 7c40 7759 8a3d 9f48 1bbe
00000030: ae96 0e3e d2a8 02be 98a3 9abd 7598 b93e
00000040: 26b4 9cbe 696c 0cbd 185c 22be 7f63 6b3e
00000050: 12b9 803e abd5 72be 7337 eb3c da8b 9abd
00000060: b2cf 6dbe 3d70 ad3e e254 13bf b9a1 25be
00000070: 9894 373e 5ea1 3e3e 1c5f 6f3e fe33 993e
00000080: f20d cfbd f5bb 29be d18c 1abf 2de1 9c40
00000090: ae64 dcbd 6ea4 b03f 423b e53d 100d ebbe
000000a0: 7926 5e3e 189d 4fbe 6170 88be 315b 0f3e
000000b0: c99c bd3f 043a 19be 02cc 8d3e d532 eabe
000000c0: 8deb 7f40 77c4 d7bc 509c 0ebe b691 373e
000000d0: 807e 8cbe 6483 bc3d 38cc 31be c8da 373e
000000e0: f9d3 a2be 3fbb 8cbe 4a87 e83d a4e4 eebc
000000f0: 2fc1 b93d 3a30 b53b eb15 3c3d 17b0 08be
00000100: 1d8d 32bd fa60 313e 6f09 dabd bca0 023d
00000110: ae7a 37be 6b24 4c3e bcfb 7b3d 6a56 42be
00000120: 9890 18be 1f52 42bd 39e7 07be b7ce 10be
00000130: faf7 b4be e0d8 95bd b9a1 2b3e 168e 983e
00000140: 7fbe 833e 3ec8 313e 237d 8a3c 91f3 23be
00000150: d7bf 39bf 3c34 c03d 0afd dabd aafd 83bd
00000160: a818 903d 1fde debe e94b 1a3e 47fb 67bd
00000170: 51c6 d9bd 7c93 023e a4f0 873f 0abb 1dbe
00000180: 7cba 183e d3bb 89bd 24a1 6f3d 80fb cabd
00000190: cc12 c0bc c1b8 823e 1b52 ddbd 5fcf b83d
000001a0: 2204 6abe b19a 113e 7647 7abe ba0e 7fbe
000001b0: 38c0 ce3d 5ce1 5dbd 914a c53e ea42 1cbe
000001c0: 23dc fabd c1af 33be 77b1 ebbd 3038 683e
000001d0: 5bc8 3dbe 4376 96ba d99f 7bbe 40bb e33d
000001e0: c51a 863d 7393 8abe 502b b7bd 403f e8bd
000001f0: 73e5 8b3d de43 86be 141e 9ebe 5e68 01bd
00000200: 6743 943e 8fed f53d f42d 9b3e 25bc ec3d
00000210: 4917 16bd 1bc7 0ebd a7e2 11bf a194 87bd
00000220: c8ee 28be 2196 013e d531 273e 9eee d4be
00000230: a452 a83d 1425 d2bd 7e82 a8bb 7d44 a63d
00000240: ce95 863f 2ee8 33be 697c c53e 16be 063e
00000250: bc74 9c3d c091 a7bd 792b 6b3f 5d53 163e
00000260: a26e 78bd fd36 c73d 0610 09be 579a 803e
00000270: e45b 27be 3634 61be 4cf9 723d c0ea 8840
00000280: cac7 f13d 943e 43bc fbc2 493d 188d d1bd
00000290: 26ff 2bbd e042 733e d707 08be 94a2 5a3d
000002a0: a3ce e0bd 4b7b 303e 6a9a 253e 4191 3abe
000002b0: f4f1 56be 6cb5 5ebd ddd4 04be c7c6 bfbe
000002c0: aa85 b9be 78b9 f4bd 4aad 043e 5d05 223e
000002d0: e4f7 4f3e dc42 683e 10ba 1bbd be78 31be
000002e0: a73e e7be 87db 8840 70d6 4bbe 15ed 903f
000002f0: 245c c63d f61c b9be 3cd5 ec3d 29ab c3bd
00000300: 7757 24be 51f8 943d 0905 ab3f 87b3 00be
00000310: 99b1 323e 993c 6bbd cfdb 8540 20a3 91bd

fc2.bias f4 [4]
-2.5342524 -2.7673523 -1.6707239 -4.6516786
00000000: 3131 22c0 4d1c 31c0 48da d5bf 8dda 94c0

exp_avg f4 [50, 6]
-0.045520324 -0.045520324 0.32566398 0.2566833 0.095908284 0.01476608 -0.25278196 -0.27426615
-0.11648592 -0.15855145 -0.20725353 -0.008930189 0.09231678 0.098945566 0.04244776 0.058204077
0.0068040574 0.0018476525 0.023605878 0.026875915 0.06385307 0.0302949 -0.0170107 -0.0016782039
0.15987326 0.1702946 0.068062305 0.09727322 0.13040411 0.0052009868 -0.38254088 -0.46804476
-0.41070247 -0.30968866 -0.19162136 -0.0073585985 0.042179346 0.13586544 0.07488474 0.029796276
0.112384245 0.004828904 0.07455208 0.03129165 -0.0020477623 -0.043643527 0.06800589 0.0009997947
4.8695792e-06 0.018060695 0.038231634 0.0010602449 0.001642976 0.00010316644 -0.14502734 -0.14502734
-0.14502734 -0.14502734 -0.14502734 0.03405594 -0.050099272 0.0070023574 0.04138764 0.024279188
-0.0021275678 -0.0025554048 0.005267862 0.0052676015 0.005283876 0.005267847 0.005268231 -0.0012318923
-0.14796954 -0.23680994 -0.21099152 -0.16789122 -0.10013008 -0.0039170855 0.030320097 0.049935237
-0.013040254 0.025768435 0.07343312 0.0024939259 0.0327034 0.0009113916 -0.027025314 -0.0055530467
-0.027631763 0.00048951455 0.0018695182 0.0014212367 0.11833788 -0.056626353 -0.028149866 -0.0005929323
0.3736682 0.48945498 0.33135593 0.26506636 0.28605968 0.008696956 0.044354036 0.060108744
0.04968242 0.05481031 0.045285974 0.0012026846 0.14025012 0.17130427 0.12519445 0.13991931
0.14239047 0.0057447893 -0.10988669 -0.114999205 -0.058059685 -0.14234705 -0.06970864 -8.998113e-05
-0.0089113815 -0.008907777 0.07261825 -0.048112947 -0.028378759 0.0019371593 0.1355699 0.10644697
0.057245098 0.11410464 0.15235251 0.005596269 -0.0014679561 -0.0014679433 0.009470249 0.0074444683
0.0026966836 0.00047136174 0.029406067 0.030095447 -0.008861171 0.015201917 0.045316633 0.0019435921
0.05748522 0.17183241 0.051941663 0.1157288 0.18557972 0.005701051 6e-45 6e-45
6e-45 6e-45 6e-45 -6e-45 -0.11803168 -0.05523558 -0.0043417346 -0.008308121
-0.020290468 -0.0048280824 0.23767984 0.29737085 0.1937682 0.16299857 0.12455222 0.0023958145
0.0068563735 0.0026237357 0.0028228527 0.002066977 0.0031208151 -0.0005071363 -0.18370561 -0.2330319
-0.122999504 -0.08106947 -0.026796987 -0.0044430075 -0.024836842 -0.0001399666 0.0650491 0.055888996
-0.157737 -0.00053578435 0.061125405 0.052864764 0.08045012 -0.022221193 -0.13675094 -0.0022622973
0.13150594 0.1564515 0.10017265 0.119509526 0.0690629 0.0021151057 0.005980261 -0.000121304765
0.00088831235 0.0018666206 0.0035540196 -0.0014491888 -0.002520801 -0.0010733183 -0.0006481882 0.0017475822
0.0017683471 0.0006065799 -0.17983209 -0.17983209 -0.17983209 -0.17983209 -0.17983209 0.042224173
0.0747641 0.10744105 0.04074573 0.059716202 0.0779216 0.0030333959 -0.054952383 -0.054952383
0.36095053 0.2837827 0.10378349 0.017399421 -0.10785926 -0.15302275 -0.119543135 -0.1248144
-0.042687707 -0.0042186477 -0.13262482 -0.15629166 -0.35241833 -0.1652941 -0.14284858 -0.0012485795
0.0029920503 0.002730629 0.0027309007 -0.088345826 -0.12510303 -0.002325617 0.16874719 0.13606083
0.066853896 0.14645796 0.091551326 0.0018403844 0.0030725594 0.0031418572 -0.08334413 0.045286395
00000000: 8573 3abd 8573 3abd 6ebd a63e fe6b 833e
00000010: 906b c43d 6eed 713c a36c 81be 9d6c 8cbe
00000020: 2c90 eebd 505b 22be 453a 54be ed4f 12bc
00000030: 9410 bd3d f9a3 ca3d b4dd 2d3d 6667 6e3d
00000040: 92f4 de3b ee2c f23a 1d61 c13c e12a dc3c
00000050: 66c5 823d 032d f83c 065a 8bbc 2ef7 dbba
00000060: d1b5 233e b561 2e3e 4064 8b3d 2f37 c73d
00000070: a888 053e 0a6d aa3b 66dc c3be 90a3 efbe
00000080: 9847 d2be 838f 9ebe 6438 44be 6620 f1bb
00000090: 40c4 2c3d 4f20 0b3e 2c5d 993d 5217 f43c
000000a0: b629 e63d c83b 9e3b c3ae 983d ac2b 003d
000000b0: c033 06bb 8ec3 32bd ac46 8b3d 8b0b 833a
000000c0: 5e65 a336 06f4 933c c698 1c3d eaf7 8a3a
000000d0: 2059 d73a 105b d838 0c82 14be 0c82 14be
000000e0: 0c82 14be 0c82 14be 0c82 14be 3e7e 0b3d
000000f0: e534 4dbd 0874 e53b 1686 293d 26e5 c63c
00000100: aa6e 0bbb 9478 27bb 089e ac3b d89b ac3b
00000110: 5d24 ad3b e79d ac3b 20a1 ac3b 7277 a1ba
00000120: 5485 17be 4e7e 72be 290e 58be adeb 2bbe
00000130: 0011 cdbd e55a 80bb da61 f83c e488 4c3d
00000140: caa6 55bc 5318 d33c 1b64 963d 2271 233b
00000150: 00f4 053d 74ea 6e3a 3164 ddbc 55f6 b5bb
00000160: 025c e2bc c452 003a 9f0a f53a ca48 ba3a
00000170: 215b f23d 09f1 67bd 8c9a e6bc 036f 1bba
00000180: 7051 bf3e d899 fa3e 7ca7 a93e c7b6 873e
00000190: 6a76 923e ad7d 0e3c 94ac 353d 9634 763d
000001a0: cb7f 4b3d c780 603d c97d 393d 66a3 9d3a
000001b0: ba9d 0f3e 636a 2f3e f932 003e 0247 0f3e
000001c0: cfce 113e c93e bc3b 460c e1bd b484 ebbd
000001d0: fecf 6dbd 6dc3 11be 67c3 8ebd 40b4 bcb8
000001e0: 0b01 12bc edf1 11bc e1b8 943d 1512 45bd
000001f0: 927a e8bc 48e8 fd3a d6d2 0a3e de00 da3d
00000200: d679 6a3d b2af e93d 4c02 1c3e e860 b73b
00000210: 6f68 c0ba 0168 c0ba 1a29 1b3c baf0 f33b
00000220: d8ba 303b 1a21 f739 fee4 f03c ba8a f63c
00000230: 722e 11bc 7611 793c ef9d 393d 21c0 fe3a
00000240: 9f75 6b3d d6f4 2f3e c8c0 543d 3903 ed3d
00000250: 9c08 3e3e e2cf ba3b 0400 0000 0400 0000
00000260: 0400 0000 0400 0000 0400 0000 0400 0080
00000270: 98ba f1bd b43e 62bd 1c45 8ebb c91e 08bc
00000280: 3238 a6bc e434 9ebb 5862 733e fe40 983e
00000290: 2c6b 463e 19e9 263e 3c15 ff3d 1903 1d3b
000002a0: 6eab e03b fbf2 2b3b 9cff 383b 1f76 073b
000002b0: 9786 4c3b 57f1 04ba 531d 3cbe ea9f 6ebe
000002c0: 2ae7 fbbd c007 a6bd 5b85 dbbc a696 91bb
000002d0: a276 cbbc 00c4 12b9 7638 853d dceb 643d
000002e0: cf85 21be e173 0cba a25e 7a3d b988 583d
000002f0: 08c3 a43d 3809 b6bc 7008 0cbe 0d43 14bb
00000300: 7ea9 063e d234 203e 5127 cd3d 69c1 f43d
00000310: da70 8d3d 969d 0a3b 11f6 c33b 0065 feb8
00000320: a2dd 683a 65a9 f43a 8eea 683b b5f2 bdba
00000330: 0634 25bb 96ae 8cba 2ceb 29ba 210f e53a
00000340: e2c7 e73a e302 1f3a e725 38be e725 38be
00000350: e725 38be e725 38be e725 38be 41f3 2c3d
00000360: ec1d 993d 0e0a dc3d ffe4 263d fa98 743d
00000370: 5c95 9f3d f0cb 463b c015 61bd c015 61bd
00000380: 82ce b83e f74b 913e 708c d43d 3b89 8e3c
00000390: 51e5 dcbd ffb1 1cbe 08d3 f4bd b19e ffbd
000003a0: 4ed9 2ebd 953c 8abb cdce 07be ec0a 20be
000003b0: 2d70 b4be db42 29be e646 12be 60a7 a3ba
000003c0: 4616 443b 5af4 323b e9f8 323b a8ee b4bd
000003d0: 021b 00be 6169 18bb 10cc 2c3e 8853 0b3e
000003e0: b2ea 883d 13f9 153e 437f bb3d 0e39 f13a
000003f0: fe5c 493b 9ee7 4d3b 54b0 aabd 3a7e 393d

exp_avg_sq f4 [50, 6]
0.00023965981 0.00023965981 0.07760023 0.050483488 0.01098677 2.914471e-05 1.467198 2.291035
2.089727 1.9918133 1.7466428 0.0001986283 0.4462802 0.61509585 0.625788 0.44027454
0.30202404 3.2200584e-05 0.052250344 0.30208853 0.2918023 0.2887595 0.24687932 1.1623191e-05
1.044223 1.7816755 1.5568361 1.2971944 0.9572889 0.000107549604 1.8833605 2.393397
1.5220168 1.1418449 0.36081845 8.600224e-05 0.7516113 1.0807232 0.902433 0.6585876
1.2691431 9.268031e-05 1.4885356 0.93414575 0.5254254 0.32390857 0.42925128 0.00011587793
0.02343784 0.14539064 0.17032404 0.15178178 0.059618205 5.222511e-06 0.002237626 0.002237626
0.002237626 0.002237626 0.002237626 0.00013918581 0.31096768 0.3853091 0.501791 0.6964548
0.81160486 1.8478613e-05 0.00014705668 0.0059086764 0.00811347 0.000145242 0.00016579583 1.7886049e-07
0.45765656 0.79748213 0.60885763 0.39477065 0.18022735 5.1957926e-05 0.27118912 0.7523746
0.7463677 0.7067858 0.6045218 5.546761e-05 0.028634515 0.033406667 0.06379661 0.08309896
0.03408742 2.7669832e-06 1.4445564 2.3534799 2.581987 2.4723783 1.3821707 8.050432e-05
1.62605 2.177542 1.9276742 1.2839273 0.8280918 0.00023400356 0.032836787 0.05400947
0.038226787 0.03483513 0.024179494 2.8482239e-06 0.78388673 0.6825759 0.48023254 0.47865194
0.79158485 7.912898e-05 0.6340991 0.32736695 0.45485258 0.5786171 0.18172748 0.0001921591
0.010571016 0.01056549 0.12922132 0.2411107 0.09976723 9.951765e-06 1.6819646 1.3400861
1.0223373 1.26491 1.4785203 0.00018377234 6.8677946e-05 8.967034e-05 0.011032278 0.00059726986
0.0003559461 9.2001805e-08 0.076757915 0.083227776 0.12277994 0.15547921 0.17898324 1.0819424e-05
0.12219072 0.17704599 0.24683136 0.443625 0.78334606 7.891939e-05 4.3289202e-19 1.8866786e-19
8.872686e-20 6.084001e-20 1.3167697e-19 1.3674383e-20 1.3681676 0.7588118 1.165948 0.7301536
0.09787095 4.529857e-05 0.61316293 1.0206071 0.8146981 0.5584641 0.19888407 6.886663e-05
0.2978885 0.18929671 0.2843858 0.24171759 0.027225977 7.7924915e-06 1.311506 2.0778837
1.8521407 1.3468298 1.0030879 0.000112778616 0.06410989 1.0809274 0.90651107 0.5288528
0.22002201 3.4194993e-05 0.217916 0.34855673 0.42929742 0.6344685 1.2095321 8.530402e-05
0.16560706 0.2863089 0.21751189 0.16045223 0.05932325 1.9594921e-05 0.00082096114 0.03446546
0.0031024795 0.0038123536 0.001306719 2.7721862e-07 0.025367828 0.18468212 0.46905258 0.09521717
0.093991615 4.2207506e-05 0.0033864456 0.0033864456 0.0033864456 0.0033864456 0.0033864456 0.00021124449
0.577161 0.83511597 0.8199035 0.7295308 0.65024924 4.5009238e-05 0.0003223982 0.0003223982
0.031044018 0.020654945 0.0046561374 2.5455596e-05 0.39719486 0.6443786 0.4877637 0.46309605
0.31555378 4.1782718e-05 1.0360411 0.70088327 1.1097257 1.5535898 1.25238 5.289799e-05
0.40607646 0.35394183 0.2176399 0.343237 0.59520644 1.7691822e-05 0.21022433 0.095701
0.097597085 0.12271555 0.055174958 5.0886516e-05 0.007230745 0.006999755 0.11071303 0.18974261
00000000: 314d 7b39 314d 7b39 dfec 9e3d c6c7 4e3d
00000010: da01 343c ca7b f437 25cd bb3f 51a0 1240
00000020: 16be 0540 bdf3 fe3f fe91 df3f e146 5039
00000030: d77e e43e ec76 1d3f a433 203f aa6b e13e
00000040: e5a2 9a3e 1d0f 0738 7504 563d 59ab 9a3e
00000050: 1c67 953e 49d8 933e efcd 7c3e 3a01 4337
00000060: 19a9 853f f10d e43f 6846 c73f 770a a63f
00000070: e310 753f 418c e138 f511 f13f 6b2d 1940
00000080: 72d1 c23f f927 923f 32bd b83e 1a5c b438
00000090: 9969 403f 2355 8a3f d905 673f 3299 283f
000000a0: 4873 a23f 5d5d c238 5688 be3f 2d24 6f3f
000000b0: 4782 063f 58d7 a53e d3c6 db3e 7d03 f338
000000c0: b700 c03c 49e1 143e 6d69 2e3e af6c 1b3e
000000d0: 3832 743d 073d af36 22a5 123b 22a5 123b
000000e0: 22a5 123b 22a5 123b 22a5 123b 68f2 1139
000000f0: 2837 9f3e 3c47 c53e 6075 003f dd4a 323f
00000100: 56c5 4f3f 8502 9b37 3a33 1a39 929d c13b
00000110: 5cee 043c 1a4c 1839 7bd9 2d39 cc0c 4034
00000120: f651 ea3e ca27 4c3f 18de 1b3f 611f ca3e
00000130: 858d 383e 66ed 5938 4dd9 8a3e 9f9b 403f
00000140: f411 3f3f eaef 343f f1c1 1a3f e5a5 6838
00000150: ee92 ea3c 6ed5 083d cca7 823d ca2f aa3d
00000160: 409f 0b3d 69b0 3936 39e7 b83f 6a9f 1640
00000170: 463f 2540 723b 1e40 f8ea b03f 6dd4 a838
00000180: 6822 d03f d95c 0b40 07be f63f bb57 a43f
00000190: d3fd 533f da5e 7539 de7f 063d 0939 5d3d
000001a0: b193 1c3d 48af 0e3d 1314 c63c 1d24 3f36
000001b0: cdac 483f 4bbd 2e3f 0ae1 f53e de11 f53e
000001c0: 4ea5 4a3f 0cf2 a538 5254 223f a49c a73e
000001d0: 70e2 e83e 4020 143f c516 3a3e 517e 4939
000001e0: 0e32 2d3c e11a 2d3c 9852 043e b9e5 763e
000001f0: c352 cc3d 81f6 2637 9e4a d73f f187 ab3f
00000200: f3db 823f 92e8 a13f 2740 bd3f 03b3 4039
00000210: 3107 9038 660d bc38 bac0 343c 1a92 1c3a
00000220: 479e ba39 8792 c533 4133 9d3d 5373 aa3d
00000230: 0d74 fb3d f135 1f3e 6247 373e 1285 3537
00000240: 213f fa3d 8b4b 353e 5cc1 7c3e d122 e33e
00000250: 5e89 483f 8681 a538 cb88 ff20 5dbd 5e20
00000260: 1980 d11f 88a7 8f1f ec74 1b20 a126 811e
00000270: 1e20 af3f 7d41 423f c93d 953f 59eb 3a3f
00000280: 9170 c83d f8fe 3d38 3ff8 1c3f 41a3 823f
00000290: 0e90 503f 81f7 0e3f 44a8 4b3e 7e6c 9038
000002a0: d784 983e ffd6 413e 049b 913e d184 773e
000002b0: 0309 df3c 7fbc 0237 6edf a73f 0cfc 0440
000002c0: f212 ed3f eb64 ac3f 2f65 803f 8f83 ec38
000002d0: 0c4c 833d d45b 8a3f 1c11 683f e662 073f
000002e0: 734d 613e 986c 0f38 5f25 5f3e 0776 b23e
000002f0: dfcc db3e 876c 223f f3d1 9a3f 3fe5 b238
00000300: e694 293e 1597 923e 70bb 5e3e 974d 243e
00000310: f0fc 723d c65f a437 c535 573a a72b 0d3d
00000320: f852 4b3b aed8 793b 3746 ab3a a3d4 9434
00000330: 31d0 cf3c 4f1d 3d3e a927 f03e 3801 c33d
00000340: ad7e c03d f707 3138 21ef 5d3b 21ef 5d3b
00000350: 21ef 5d3b 21ef 5d3b 21ef 5d3b 8381 5d39
00000360: d3c0 133f 29ca 553f 32e5 513f 88c2 3a3f
00000370: bc76 263f 4dc8 3c38 8e07 a939 8e07 a939
00000380: 0650 fe3c 8f34 a93c 8392 983b 7a89 d537
00000390: 205d cb3e fff5 243f 2abc f93e ed1a ed3e
000003a0: 4490 a13e da3f 2f38 ff9c 843f 166d 333f
000003b0: 7e0b 8e3f 08dc c63f fd4d a03f c9de 5d38
000003c0: 41e9 cf3e dd37 b53e fedc 5e3e c3bc af3e
000003d0: 735f 183f e668 9437 0c45 573e e3fe c33d
000003e0: fbe0 c73d 4a52 fb3d 23ff 613d fb6e 5538
000003f0: e3ef ec3b 335e e53b 83bd e23d e34b 423e

exp_avg f4 [50]
0.03838439 0.00176473 -0.0039694645 0.001226425 -0.004911186 -0.0035816673 -0.0067459675 -0.009955983
3.127204e-05 0.12065807 0.0012079957 -0.0052666026 -0.0013888904 -0.0041600713 -0.0039574634 -0.0005783615
0.005339128 0.000730244 -0.0039091688 0.0075710495 0.0073366254 -0.007143747 0.001231619 -0.0023921288
-0.0063449536 6e-45 -0.021074176 -0.001429602 0.00020304674 0.00048642923 0.004247425 -0.000120355224
-0.0020302737 -0.0059815715 0.00014699735 0.14961866 -0.0038338609 0.046294894 0.00030436128 -0.022122497
-0.0025767572 0.002391446 -0.0015335993 -0.0012272537 0.052905444 -0.0057918024 -0.0018742803 -0.015545369
0.12222303 -0.0006258752
00000000: f338 1d3d 834e e73a 4812 82bb ffbf a03a
00000010: 04ee a0bb 68ba 6abb 470d ddbb 6b1e 23bc
00000020: 192a 0338 941b f73d 9c55 9e3a 7793 acbb
00000030: 6e0b b6ba 3551 88bb 9cad 81bb 2f9d 17ba
00000040: daf3 ae3b d86d 3f3a 7c18 80bb 9116 f83b
00000050: 1368 f03b 1816 eabb 476e a13a 43c5 1cbb
00000060: 54e9 cfbb 0400 0000 c0a3 acbc 7c61 bbba
00000070: f2e8 5439 6d07 ff39 fc2d 8b3b 3867 fcb8
00000080: 570e 05bb 0f01 c4bb 4d23 1a39 a235 193e
00000090: 8341 7bbb b79f 3d3d ae92 9f39 3d3a b5bc
000000a0: d0de 28bb ceb9 1c3b 0e03 c9ba cddb a0ba
000000b0: 61b3 583d 29c9 bdbb 69aa f5ba 01b2 7ebc
000000c0: 1150 fa3d c611 24ba

exp_avg_sq f4 [50]
0.00016749701 0.00022260225 5.2306572e-05 1.9270283e-05 0.00014564971 6.0230177e-05 0.0001766655 0.00014880253
4.3749747e-06 0.0015338111 5.1501313e-05 2.1275966e-06 4.12288e-05 7.4947304e-05 7.953032e-06 0.00012944249
0.000111889654 2.8769416e-06 0.00010875927 8.973727e-05 1.1135542e-05 0.00022895954 5.741305e-07 2.20582e-05
8.8626606e-05 2.1930135e-21 0.0001791432 5.1334457e-05 6.9792886e-06 0.00015406626 2.083539e-05 0.000114895294
1.6272614e-05 3.4950915e-06 1.6302018e-05 0.0023187425 7.1115224e-05 0.00022271136 4.9395607e-05 0.00034375035
4.9843507e-05 1.6126287e-05 3.7117507e-06 1.3995184e-05 0.0027576522 8.105536e-05 4.5961035e-05 1.472341e-05
0.0015712727 3.0318287e-07
00000000: 23a2 2f39 566a 6939 c163 5b38 9ea6 a137
00000010: 8cb9 1839 a99f 7c38 493f 3939 e007 1c39
00000020: bfcc 9236 290a c93a 1d03 5838 d5c7 0e36
00000030: 16ed 2c38 072d 9d38 036e 0537 f4ba 0739
00000040: 4da6 ea38 7b11 4136 b015 e438 5431 bc38
00000050: cad2 3a37 dc14 7039 f31d 1a35 a009 b937
00000060: 0cdd b938 0db3 251d 63d8 3b39 f44f 5738
00000070: a22f ea36 d98c 2139 a9c7 ae37 f1f3 f038
00000080: 2c81 8837 378d 6a36 51c0 8837 0bf6 173b
00000090: b223 9538 a087 6939 212e 4f38 6439 b439
000000a0: 0f0f 5138 f046 8737 6417 7936 dccc 6a37
000000b0: bab9 343b 44fc a938 49c6 4038 9004 7737
000000c0: 2af3 cd3a 23c5 a234

exp_avg f4 [4, 50]
0.31473607 -0.4535758 -0.11503476 -0.084536634 -0.39566022 -0.066251986 -0.021429287 0.059189867
0.042181786 0.92172176 -0.08682203 0.048390053 -0.29636928 -0.23763792 0.17606413 0.0034413137
-0.051408257 -0.12055035 -0.0013483353 0.007851534 -0.00017244252 -0.15813777 0.07272916 -0.025113454
-0.15427704 6e-45 0.117441334 -0.066537246 1.6118933e-05 -0.31412283 0.042745795 -0.28054366
-0.005204251 0.019867634 -6.9254907e-06 0.97377896 -0.15377936 0.2606099 -0.39553055 0.18660061
-0.07199133 -0.058083065 -0.059829336 -0.06306611 -0.21302053 -0.2109062 -0.11474937 0.05880347
0.91102636 -0.0089163175 0.0 8.0294965e-05 5.078717e-05 7.4372336e-05 0.00011574791 -9.788513e-07
2.0746193e-05 4.8151986e-05 9.013298e-06 0.0 0.00013827751 4.402931e-19 7.714553e-05 0.00016156357
4.3380092e-05 2.8619841e-05 1.72247e-05 5.788821e-06 5.945316e-05 3.1979176e-05 9.434118e-07 0.00011669745
6e-45 0.00011089399 1.0842618e-05 6e-45 4.834848e-06 1.1748583e-05 1.4467472e-05 0.00011371195
-1.4661294e-05 6.07918e-05 3.350261e-06 1.8265569e-18 1.7223754e-09 0.0 0.00012732657 0.0
0.00012510944 8.5683405e-06 1.6218904e-05 4.947862e-05 2.1959957e-07 -3.426015e-05 5.511311e-06 9.675339e-05
2.9631094e-05 4.3036252e-07 0.0 6.462339e-07 0.0 0.02654018 0.025841689 0.06518893
0.12574421 0.0030242417 0.009473459 -0.009354902 0.009890746 0.0 0.029566582 -1.655656e-11
0.0027932366 0.09038712 0.004561952 0.006279111 4.4016147e-07 0.007675243 0.008360792 -0.0037355986
6.836313e-06 0.017415358 2.1354241e-14 0.021296207 0.018254617 6e-45 -0.0011161997 0.0057079797
0.0012055225 0.01517792 0.06222891 0.014026046 0.003922095 0.006386216 0.0068721487 0.0
0.036434002 0.0 -0.005552154 0.007964079 0.004592854 -0.0035957918 0.0011306552 0.06112661
0.010379297 -0.016900433 0.002879844 5.3496167e-09 0.0 0.013189971 -1.5818987e-08 0.010819224
0.038192425 -0.045689426 -0.008854673 -6.7325886e-06 0.020629436 0.07921402 2.7598067e-05 -4.5894307e-08
-0.00070153316 1.8548097e-06 0.004429819 -0.013074814 0.01868653 5.615325e-06 2.8190972e-05 -1.7044227e-05
0.044062573 0.031941704 -2.812623e-06 0.065464586 -3.3392809e-09 0.03262632 0.010698742 6e-45
0.01760874 -0.0013395133 4.1975847e-05 0.02150501 1.579377e-05 -0.024464155 0.022617662 1.050238e-05
2.0262223e-06 -4.8409888e-08 0.041706894 -1.4528603e-08 0.041637734 0.027562134 4.9028236e-05 0.022513468
-3.3931667e-06 5.4475193e-05 0.0040968703 0.109579705 -0.0010737467 -1.7855738e-09 -4.536395e-08 3.000882e-06
00000000: 1625 a13e 163b e8be 5897 ebbd 8b21 adbd
00000010: fa93 cabe 1faf 87bd 798c afbc 1371 723d
00000020: cfc6 2c3d f5f5 6b3f c0cf b1bd a634 463d
00000030: b7bd 97be 5b57 73be 284a 343e aa87 613b
00000040: 7791 52bd 1ae3 f6bd a0ba b0ba b8a3 003c
00000050: b0d1 34b9 deee 21be 07f3 943d bbba cdbc
00000060: cdfa 1dbe 0400 0000 1585 f03d ae44 88bd
00000070: 2537 8737 b5d4 a0be 3716 2f3d 6ba3 8fbe
00000080: 6c88 aabb 73c1 a23c 8361 e8b6 9449 793f
00000090: 5678 1dbe a96e 853e fb82 cabe 3b14 3f3e
000000a0: 3170 93bd 82e8 6dbd 9b0f 75bd ce28 81bd
000000b0: 0e22 5abe cbf7 57be b801 ebbd e8db 703d
000000c0: 0639 693f bf15 12bc 0000 0000 0864 a838
000000d0: 4f04 5538 58f8 9b38 b0bd f238 1361 83b5
000000e0: 1c08 ae37 cdf6 4938 d237 1737 0000 0000
000000f0: 96fe 1039 9bf3 0121 31c9 a138 6469 2939
00000100: 05f3 3538 a414 f037 c37d 9037 983d c236
00000110: 585d 7938 6121 0638 c43e 7d35 77bb f438
00000120: 0400 0000 c28f e838 b1e8 3537 0400 0000
00000130: 073b a236 c81b 4537 52b9 7237 a378 ee38
00000140: c7f9 75b7 b3fa 7e38 0cd5 6036 afc6 0622
00000150: b2b8 ec30 0000 0000 f782 0539 0000 0000
00000160: cf2f 0339 bec0 0f37 d50d 8837 4487 4f38
00000170: 12cb 6b34 8eb2 0fb8 cded b836 15e8 ca38
00000180: 4a90 f837 930c e734 0000 0000 db78 2d35
00000190: 0000 0000 cb6a d93c f3b1 d33c c681 853d
000001a0: 17c3 003e 5b32 463b 9136 1b3c 4e45 19bc
000001b0: cc0c 223c 0000 0000 9e35 f23c 0fa2 91ad
000001c0: bc0e 373b e21c b93d 6d7c 953b 00c1 cd3b
000001d0: 554f ec34 9b80 fb3b b4fb 083c f2d0 74bb
000001e0: 7b63 e536 a7aa 8e3c 8757 c028 6275 ae3c
000001f0: b58a 953c 0400 0000 724d 92ba 010a bb3b
00000200: 9f02 9e3a d0ac 783c bee3 7e3d 80cd 653c
00000210: eb84 803b 7643 d13b c32f e13b 0000 0000
00000220: d23b 153d 0000 0000 d8ee b5bb c57b 023c
00000230: a77f 963b 60a7 6bbb 7e32 943a e55f 7a3d
00000240: ed0d 2a3c c772 8abc c4bb 3c3b bacf b731
00000250: 0000 0000 c01a 583c 52e2 87b2 1d43 313c
00000260: a96f 1c3d d624 3bbd 3113 11bc 7fe8 e1b6
00000270: 10ff a83c f63a a23d 6682 e737 531d 45b3
00000280: 18e7 37ba c7f2 f835 0428 913b bf37 56bc
00000290: 7e14 993c 466b bc36 a77b ec37 33fa 8eb7
000002a0: f57a 343d 4ed5 023d 7fc0 3cb6 4c12 863d
000002b0: 4079 65b1 2da3 053d c749 2f3c 0400 0000
000002c0: 3440 903c 9c92 afba 390f 3038 462b b03c
000002d0: dd7c 8437 0d69 c8bc ad48 b93c 6133 3037
000002e0: 3cfa 0736 3ceb 4fb3 d9d4 2a3d 7999 79b2
000002f0: 548c 2a3d fcc9 e13c aba3 4d38 2a6e b83c
00000300: 29b6 63b6 4b7c 6438 0a3f 863b 536b e03d
00000310: f6bc 8cba 4b68 f5b0 31d6 42b3 c362 4936

exp_avg_sq f4 [4, 50]
0.010840742 0.8102455 1.9986769 1.414751 11.6512985 0.038104497 0.27326995 0.16897917
0.57577163 0.088916734 2.0376284 0.0045976094 1.6982648 4.214201 0.4360597 0.068117164
0.110516585 0.15923418 0.4154644 0.10219201 0.0519516 1.2841779 0.0062355464 0.98542374
0.13963251 6.3308036e-20 0.010264941 0.49290356 0.042157836 2.6070163 0.08337156 0.8109114
0.17987731 0.004709776 0.001081031 0.0989194 1.8256817 0.0075178966 2.320267 0.021838339
0.12859161 0.02957551 0.028202977 1.3819047 0.10552179 1.7094562 0.15896395 0.00042022858
0.08694295 0.005011523 0.0 0.10026007 0.113045946 0.09915138 0.64590824 0.0032307766
0.016397836 0.03527351 0.009682734 0.0 0.2550139 0.00030320918 0.28361332 0.51608706
0.03963266 0.0077260146 0.01991883 0.0050406386 0.041338548 0.016983632 0.00040478242 0.19457164
3.422082e-06 0.16424002 0.00870106 8.3510356e-26 0.006531906 0.04991226 0.022747159 0.25760576
0.0065355324 0.08443279 0.0032149204 0.0010837949 9.824686e-06 0.0 0.17467447 0.0
0.18645108 0.0012983638 0.01850869 0.044472035 0.00026396415 0.035885274 0.0004719873 0.15447406
0.018649103 0.00052102347 0.0 0.00018560173 0.0 0.26011154 0.20423461 0.3285259
0.30520865 0.0024613417 0.14767814 0.006205308 0.23475808 0.0 0.22998917 0.00078175974
0.012943616 0.97954607 0.17068607 0.037193384 0.0026289937 0.011053733 0.12436962 0.043670055
0.06533069 0.47045892 0.00014667814 0.38706908 0.08811582 4.1362155e-20 0.002148066 0.027691577
0.009925371 0.05127202 0.019795248 0.4552727 0.030293358 0.009396503 0.000300597 0.0
0.2144286 0.0 0.1765159 0.0036040877 0.10462281 0.012436274 0.050543677 0.0574087
0.00043538283 0.13434885 0.14582114 0.0002501131 0.0 0.003571479 0.00012853477 0.34864855
0.4815132 0.55116457 1.4933199 0.016169416 0.14164037 0.08175441 0.31765124 0.0007413581
0.59432703 0.00729228 0.5008382 1.5881038 0.29115543 0.051274087 0.03690363 0.032707915
0.158064 0.07384005 0.060288765 0.6858928 0.0005203359 0.59059215 0.10004132 2.8853138e-24
0.01217242 0.14074396 0.051742595 0.51808506 0.058949742 0.4743118 0.055289067 0.018874526
0.0006633278 0.0008251959 0.45792425 7.268908e-05 0.63419515 0.005609331 0.116882205 0.087704666
0.04303974 0.17608148 0.0005367034 0.518491 0.11580005 0.0013589733 0.00072422484 0.004852713
00000000: 5e9d 313c 406c 4f3f a5d4 ff3f 9016 b53f
00000010: b86b 3a41 7613 1c3d 0aea 8b3e e008 2d3e
00000020: c565 133f fa19 b63d 8168 0240 8ba7 963b
00000030: be60 d93f bcda 8640 3843 df3e 0381 8b3d
00000040: 8556 e23d 490e 233e c0b7 d43e 0b4a d13d
00000050: 33cb 543d f15f a43f 8e53 cc3b bb44 7c3f
00000060: d3fb 0e3e 5c7b 951f 482e 283c db5d fc3e
00000070: b2ad 2c3d 5bd9 2640 b5be aa3d e497 4f3f
00000080: c231 383e 7754 9a3b 62b1 8d3a 4196 ca3d
00000090: f0af e93f b058 f63b 417f 1440 51e6 b23c
000000a0: 85ad 033e 5748 f23c ee09 e73c 41e2 b03f
000000b0: cf1b d83d 76cf da3f 72c7 223e 2052 dc39
000000c0: 250f b23d b437 a43b 0000 0000 2755 cd3d
000000d0: a284 e73d e10f cb3d 3e5a 253f 70bb 533b
000000e0: c154 863c f57a 103d 54a4 1e3c 0000 0000
000000f0: 2f91 823e 0cf8 9e39 c435 913e 481e 043f
00000100: db55 223d 822a fd3b d02c a33c f12b a53b
00000110: 9c52 293d 4221 8b3c fa38 d439 ca3d 473e
00000120: eca6 6536 892e 283e e48e 0e3c fac2 ce15
00000130: 9909 d63b cc70 4c3d 4058 ba3c e7e4 833e
00000140: 0528 d63b 19eb ac3d 6ab1 523b 1f0e 8e3a
00000150: b4d4 2437 0000 0000 dddd 323e 0000 0000
00000160: 08ed 3e3e dc2d aa3a 899f 973c 4f28 363d
00000170: ab64 8a39 70fc 123d 1075 f739 732e 1e3e
00000180: 01c6 983c 4b95 083a 0000 0000 169e 4239
00000190: 0000 0000 572d 853e e122 513e 8c34 a83e
000001a0: 4f44 9c3e 764e 213b f038 173e e555 cb3b
000001b0: 6c64 703e 0000 0000 4882 6b3e 02ef 4c3a
000001c0: 7611 543c 88c3 7a3f 54c8 2e3e 1758 183d
000001d0: 324b 2c3b b71a 353c 80b5 fe3d 5fdf 323d
000001e0: 19cc 853d fedf f03e 9dcd 1939 eb2d c63e
000001f0: 1176 b43d c753 431f 91c6 0c3b 72d9 e23c
00000200: 069e 223c 9c02 523d a529 a23c 8119 e93e
00000210: c729 f83c caf3 193c 7299 9d39 0000 0000
00000220: 2c93 5b3e 0000 0000 96c0 343e 8f32 6c3b
00000230: 7c44 d63d 84c1 4b3c e306 4f3d 6325 6b3d
00000240: 1844 e439 bf92 093e 2352 153e 9d21 8339
00000250: 0000 0000 7a0f 6a3b 4ac7 0639 1082 b23e
00000260: e688 f63e 1f19 0d3f 1b25 bf3f b975 843c
00000270: 2c0a 113e db6e a73d 2fa3 a23e b357 423a
00000280: d125 183f 14f4 ee3b ef36 003f fc46 cb3f
00000290: 5312 953e c704 523d 4328 173d bcf8 053d
000002a0: 87db 213e 7439 973d 5af1 763d ac96 2f3f
000002b0: 2767 083a 0c31 173f 77e2 cc3d 873d 5f18
000002c0: d46e 473c 2f1f 103e 0bf0 533d 39a1 043f
000002d0: 4975 713d ffd8 f23e ca76 623d c09e 9a3c
000002e0: 2de3 2d3a f651 583a 0c75 ea3e a770 9838
000002f0: 9d5a 223f 7bce b73b f05f ef3d 819e b33d
00000300: 704a 303d b44e 343e 8eb1 0c3a d4bb 043f
00000310: 9428 ed3d 941f b23a e8d9 3d3a 8203 9f3b

exp_avg f4 [4]
0.019933438 4.6603986e-06 0.0029860581 0.0061750044
00000000: 734b a33c 8560 9c36 beb1 433b b157 ca3b

exp_avg_sq f4 [4]
0.004128508 0.0002479107 0.00022514162 0.0006121588
00000000: 6f48 873b 03fa 8139 fe13 6c39 4879 203a
