from_youtube/model/model_LR=0.1 Gamma=0.9 Ie=1.0% Fe=0.05% eDecay=0.005%.pth (torch, 2483 bytes, 4 tensors)

linear1.weight f4 [6, 13]
00000000: 6c65 07c0 97db 09c0 9ad1 13c0 7eaf 1ac0
00000010: 9bce 10c0 1ddc f7bf eccf 1ac0 11d7 19c0
00000020: e7d0 0ec0 5d52 1bc0 bab6 13c0 797f 0ec0
00000030: 3a07 6fbe 8752 5cbf f435 1abf 5afd 09bf
00000040: 932b 15bf 572f 3dbf 90a5 07bf 84dd f5be
00000050: ef2d 3abf a82f 09bf 076f c8be 50d2 14bf
00000060: a571 c9be 3d67 57bf b0c3 8bbf 3b82 8cbf
00000070: fd88 52bf 1370 72bf 327d 83bf d645 7dbf
00000080: 21f7 5abf 1a17 93bf d212 8cbf 7a27 49bf
00000090: 3553 97bf 7738 9bbf 0478 3d3e d9f5 3fbf
000000a0: c350 c7be ec8e e3be b164 12bf 11bf 0ebf
000000b0: 7a85 31bf d88f 1ebf 298f e5be ea65 51bf
000000c0: 0402 ccbe 27f7 b2be dcef c6be d25e 46bf
000000d0: a8d4 21c0 bbd4 1ec0 3697 2cc0 b416 29c0
000000e0: c7f8 2cc0 a85a 18c0 f6b1 1dc0 8bff 18c0
000000f0: b714 28c0 ef9f 27c0 f7f6 0cc0 9f22 16c0
00000100: 9616 703d 0f7f 13bf ba70 1abf 3fa0 d9be
00000110: 6977 cabe a366 c4be ac80 15bf 4425 1abf
00000120: 41ea 61bf d3cc d6be 33b1 36bf a2ea adbe
00000130: edd6 56bf 098b 37bf
-2.1155653 -2.1540277 -2.309668 -2.4169612 -2.2626102 -1.9364048 -2.4189405 -2.4037516
-2.2315004 -2.426902 -2.3080277 -2.2265303 -0.233426 -0.86063427 -0.60238576 -0.5390221
-0.58269614 -0.7390036 -0.52987003 -0.48020566 -0.7272634 -0.5358834 -0.39147207 -0.5813341
-0.39344516 -0.84141904 -1.0919094 -1.0977243 -0.8224028 -0.9470226 -1.0272582 -0.98934686
-0.8553334 -1.1491425 -1.0943244 -0.7857586 -1.1822268 -1.2126607 0.18502814 -0.7498451
-0.38928804 -0.44444978 -0.5718489 -0.55760294 -0.69344294 -0.6193824 -0.44835785 -0.81796134
-0.39845288 -0.34954187 -0.38854873 -0.77488434 -2.5286045 -2.481734 -2.6967292 -2.6420107
-2.7026842 -2.3805332 -2.4639869 -2.390597 -2.6262643 -2.6191366 -2.2025735 -2.345863
0.05861529 -0.5761575 -0.6032826 -0.4250507 -0.39544228 -0.38359556 -0.5839946 -0.6021311
-0.8824807 -0.41953143 -0.71364135 -0.33968073 -0.839217 -0.71696526

linear1.bias f4 [6]
00000000: cf59 0a40 2882 34bf b55d 3c3f f3ab 04bf
00000010: c818 2b40 fbee dc3a
2.1617315 -0.705111 0.73580486 -0.51824874 2.6733875 0.001685589

linear2.weight f4 [3, 6]
00000000: e86d bf3f b822 b93f 8f25 ab3f 4e3a f63f
00000010: 408d a83f 7ced f63f f557 a93e bafa 453e
00000020: 146e 073c b604 c03e 8a37 2c3e e725 e03d
00000030: 4f71 803e f553 b8be c523 cabe 00f0 74be
00000040: ad83 96be 2d64 08bf
1.4955416 1.446372 1.3370837 1.9236543 1.3168106 1.9291224 0.33074918 0.19333926
0.008265991 0.37503594 0.16818061 0.10944729 0.25086448 -0.36001554 -0.39480415 -0.23919678
-0.29397336 -0.53277856

linear2.bias f4 [3]
00000000: f399 c3bf 3d8a 9cbf 2876 98bf
-1.5281357 -1.2229687 -1.1911058
