from_youtube/model/model_13-6-3-LR-05.pth (torch, 2145 bytes, 4 tensors)

linear1.weight f4 [6, 13]
000000 2d 7e c8 c0 8b fc e7 c0 cb 57 03 c1 2c a7 26 c1
       -6.2654023 -7.249578 -8.208934 -10.415813
000010 80 5b 89 c1 37 2a 88 c1 5e 06 8f c1 6f 5d a7 c1
       -17.169678 -17.020613 -17.878109 -20.920622
000020 40 9e d1 c1 74 58 bd c1 1d 6c 77 c1 5f 1a 1d c1
       -26.20227 -23.66819 -15.463895 -9.818938
000030 02 5d 0a c2 e4 68 25 bf 32 cb be c0 dc a3 82 be
       -34.590828 -0.64613175 -5.962304 -0.2551564
000040 93 18 b9 c0 39 1f 51 c0 f9 7e 19 c0 09 39 06 c1
       -5.78425 -3.2675307 -2.3983748 -8.388925
000050 eb c2 09 c0 45 1d 67 bf 2b ef ce be d7 56 49 bf
       -2.1525218 -0.90279037 -0.40416846 -0.7864813
000060 f7 0b 8d bf fc 5f 80 c1 97 64 1b c1 65 cb 1f c1
       -1.1019276 -16.046867 -9.712058 -9.987157
000070 71 e8 ab 40 49 ab 1c c1 d4 f0 47 40 f8 ae 8d c1
       5.372124 -9.791818 3.124074 -17.710434
000080 c6 88 56 40 fb 3e 88 c0 6b 52 32 c1 d2 7b d5 c0
       3.352098 -4.257688 -11.145122 -6.671365
000090 ac 46 71 c1 1f 2d a3 c0 29 9f 9e c1 05 5a ec c1
       -15.079754 -5.099258 -19.827715 -29.543955
0000a0 eb 88 25 c1 1f ca d3 c1 0d e2 31 c1 2d b5 05 c1
       -10.345927 -26.473692 -11.117688 -8.356732
0000b0 cc 62 11 c2 ef 16 f9 c1 8e f0 8b c1 b7 99 e1 c1
       -36.34648 -31.136198 -17.492458 -28.200056
0000c0 03 00 8b c1 9d 82 2b c1 9b ab 52 40 ce 7c 4e c1
       -17.375006 -10.719388 3.291724 -12.90547
0000d0 0d b6 ba c1 23 7c cf c1 3e 5c f3 be b6 0a c7 c1
       -23.338892 -25.935614 -0.47531313 -24.88023
0000e0 c0 18 b3 c1 c2 d1 a5 c1 1e 84 96 c1 df 0f 91 c1
       -22.387085 -20.72742 -18.81451 -18.13275
0000f0 88 0b b0 c1 9b 25 92 bf 6a fd 72 c1 14 7c 83 c1
       -22.00563 -1.1417726 -15.186869 -16.435585
000100 41 c9 8c c1 f5 70 dc c0 f1 88 41 40 d6 ac 86 c1
       -17.598269 -6.8887887 3.0239832 -16.834393
000110 d0 4a b2 c0 df 9d 5f c1 1e be b3 c1 d6 d8 b8 c1
       -5.5716324 -13.976043 -22.46783 -23.105877
000120 d9 93 0d c1 e4 50 ce c0 b1 50 fc c0 21 ce cb 3c
       -8.848596 -6.4473743 -7.88485 0.024878563
000130 2c 30 b8 40 87 a0 69 c1
       5.7558804 -14.601691

linear1.bias f4 [6]
000000 d1 47 4a c2 1f 44 20 c2 74 02 ef c1 e8 b6 31 c3
       -50.570133 -40.066525 -29.876198 -177.71448
000010 04 ee 36 c2 8e 54 a3 c2
       -45.732437 -81.665146

linear2.weight f4 [3, 6]
000000 04 2e 0f be 61 1a 7c 41 2d a4 77 c1 d4 27 7d 41
       -0.13982397 15.75644 -15.477582 15.822224
000010 fc 85 0f c1 6e fe 69 c1 39 5e 3d c0 76 96 7b 41
       -8.970211 -14.624617 -2.958876 15.724234
000020 d0 63 fe c0 e9 6e 55 41 ec 4c 4e 41 cc 4b 4d c1
       -7.949684 13.339578 12.89378 -12.831005
000030 77 f9 c6 40 a2 57 35 bf 09 84 5f 41 94 b2 79 c1
       6.2179523 -0.7083684 13.969735 -15.606098
000040 3f 0b 07 c0 e9 af f8 c0
       -2.1100614 -7.7714734

linear2.bias f4 [3]
000000 52 c9 bc c2 b0 07 b9 c2 ce ce b2 c2
       -94.3932 -92.515015 -89.403915
