from_youtube/model/model_13-6-2.pth (torch, 1981 bytes, 4 tensors)

linear1.weight f4 [6, 13]
00000000: 3016 fe3d 5883 a2be df4f 11be c1e1 0fbe
00000010: 467a 063e f244 853e 85c7 a93e f313 07be
00000020: 5e82 f7bd 178b c03e 291a 1b3f cb5b a13e
00000030: f254 1d3d 12e7 8ebe 74fa bebb 8432 99be
00000040: 883d b6be fffc 37bd 3709 e9bd 02e3 e6bd
00000050: 1879 2b3e 56b4 61bd 668a 373e 949d ccbd
00000060: ad99 b33d 1295 e73d 64f7 b23e 7a31 17be
00000070: 08e7 613c 51a4 483c 4e3f 14be f15c 87be
00000080: adbf 663e 8460 983e e0f8 66bd 4182 9c3e
00000090: 693a 6fbd 77b3 4b3e c006 373e 8203 6d3e
000000a0: b75f a4be f144 b8be f4e1 22bd b534 c1bc
000000b0: 04c0 b13e 6a1a b13d 1302 e6bd 50a6 cc3d
000000c0: 73e1 04be 7604 94bd 4288 dcbc 3711 c33c
000000d0: 195d 243e 64ba 533f 2b54 193f 2999 4b3f
000000e0: 7a61 103f 16bb d33e 977e b63d cb51 ff3d
000000f0: f4ad 91be c80a 253c 2e5e fcbd 9cb7 ab3d
00000100: 648f 25be fed2 333c 2c46 613d dca8 d8bb
00000110: 8aeb 1d3d 29f1 66be 7d6a 02be cc12 233e
00000120: f050 45bd e2a5 863e 8a6a 5b3e 9df7 b03e
00000130: a5cd 433e 847d ab3d
0.12406576 -0.31740832 -0.14190625 -0.14050962 0.13132581 0.26029164 0.33160034 -0.13191204
-0.120854124 0.37606117 0.6058679 0.31515345 0.03841109 -0.27910668 -0.005828196 -0.29921353
-0.3559382 -0.04491901 -0.11378711 -0.11273767 0.16745412 -0.055103622 0.17923889 -0.09990993
0.08769546 0.1130773 0.3495437 -0.14764968 0.013787992 0.012246207 -0.14477274 -0.26438096
0.22534056 0.29761136 -0.05638969 0.30568126 -0.058405314 0.19892679 0.17873669 0.2314587
-0.32104275 -0.35990098 -0.039766267 -0.023584703 0.3471681 0.08647616 -0.112308644 0.09992659
-0.12976627 -0.07227413 -0.026920442 0.02381192 0.16051139 0.82706285 0.59894055 0.7953058
0.5639874 0.41353673 0.08910864 0.12466773 -0.28453028 0.010073371 -0.12322651 0.0838463
-0.1616798 0.010975597 0.05499856 -0.0066119265 0.038554706 -0.22552933 -0.12735935 0.15925139
-0.04817289 0.26298434 0.2142736 0.34563914 0.19121416 0.083735496

linear1.bias f4 [6]
00000000: 8c73 893d eebd 3fbd 3df1 91bd c5c3 7a3e
00000010: eec5 8b3d 05c9 eabd
0.06711492 -0.04681199 -0.07126091 0.24488743 0.068248615 -0.11464123

linear2.weight f4 [2, 6]
00000000: befd 033e 3afb 833e d321 b23e d90b 463e
00000010: 306f b5be d6f8 fc3d de8f 843e 70bf 8d3e
00000020: c448 543e 728d 103e bbe4 c5be b2c0 2d3e
0.12889764 0.25777608 0.3479143 0.19340457 -0.35436392 0.12352149 0.25891012 0.27685118
0.20730883 0.14116457 -0.3865107 0.16968039

linear2.bias f4 [2]
00000000: f514 923e e706 223e
0.28531614 0.15822946
