from_youtube/model/model_13-6-2-LR-05.pth (torch, 2145 bytes, 4 tensors)

linear1.weight f4 [6, 13]
0	0xbf8ed480	-1.11586
1	0xbf118088	-0.5683675
2	0xbf42d4e6	-0.7610611
3	0xbf69f6d3	-0.9139225
4	0xbf829e38	-1.0204535
5	0xbf28adad	-0.6589001
6	0xbf2260f1	-0.6342917
7	0xbf8a96c4	-1.082726
8	0xbf6364ca	-0.88825667
9	0xbf3864d9	-0.7202888
10	0xbf8c5c84	-1.0965734
11	0xbf63abb6	-0.88933885
12	0x3e3019e8	0.17197382
13	0xbfa4c471	-1.2872449
14	0xbfc494f6	-1.5357959
15	0xbf90eaf5	-1.1321703
16	0xbf93078b	-1.1486677
17	0xbf8d8763	-1.1056942
18	0xbfc9c48c	-1.5763106
19	0xbfc6faf8	-1.554534
20	0xbfa494bf	-1.2857894
21	0xbfb1883e	-1.3869703
22	0xbfb44054	-1.4082131
23	0xbf9dcccf	-1.2328128
24	0xbfb20af0	-1.3909588
25	0xbc2a9873	-0.010412323
26	0xc0477811	-3.1167033
27	0xc03f4775	-2.9887364
28	0xc036f41f	-2.85865
29	0xc04cda68	-3.2008305
30	0xc02f8819	-2.7426817
31	0xc04041c4	-3.004014
32	0xc0359a36	-2.8375373
33	0xc03b9e33	-2.9315307
34	0xc03a7b5f	-2.91378
35	0xc04e0dab	-3.2195842
36	0xc03b0796	-2.922338
37	0xc031423a	-2.7696671
38	0xc045e9b6	-3.0923896
39	0x3dc5cd56	0.09658305
40	0xbebdbb2e	-0.3705687
41	0xbeb61220	-0.35560703
42	0x3e032fcb	0.128112
43	0x3dd68156	0.104738876
44	0xbe29d439	-0.16584863
45	0xbe447170	-0.19183898
46	0xbe9eb0e7	-0.3099434
47	0x3d761db6	0.06008693
48	0xbe1da248	-0.15393937
49	0x3dcb12d5	0.09915701
50	0xbe96efa0	-0.29479694
51	0x3d8cb177	0.06869786
52	0xc04111ae	-3.016704
53	0xc042a8ce	-3.041553
54	0xc04e89d4	-3.2271624
55	0xc04c623b	-3.1934955
56	0xc0475c07	-3.114992
57	0xc0347dce	-2.8201785
58	0xc03e615f	-2.974693
59	0xc04f3ed8	-3.2382107
60	0xc0371cdb	-2.8611362
61	0xc037538a	-2.8644738
62	0xc03e93f5	-2.9777806
63	0xc0385b79	-2.880583
64	0xc04f1e2f	-3.2362173
65	0xc0374505	-2.8635876
66	0xc02f9864	-2.7436762
67	0xc0347f4d	-2.8202698
68	0xc04534a6	-3.0813384
69	0xc02d7130	-2.7100334
70	0xc03a4af3	-2.9108245
71	0xc048a31c	-3.1349554
72	0xc03c37b5	-2.9409
73	0xc045ad5c	-3.088706
74	0xc04db95e	-3.214439
75	0xc046aac3	-3.1041725
76	0xc0576674	-3.3656282
77	0xc02be5f9	-2.6859114

linear1.bias f4 [6]
0	0x3f8ac76c	1.0842109
1	0x3fc76578	1.5577841
2	0xc040365f	-3.0033185
3	0x3df8c512	0.12146963
4	0xc0721a73	-3.7828643
5	0x3f359610	0.709321

linear2.weight f4 [3, 6]
0	0x3ea1a38b	0.31570086
1	0xbe59dea1	-0.21276332
2	0x3da2192a	0.07914956
3	0xbebde5dc	-0.3708943
4	0xbeaf2e7c	-0.34215152
5	0x3ecc341b	0.39883503
6	0x3df48456	0.119393036
7	0x3ea9ad3e	0.33139986
8	0xc03508f7	-2.8286722
9	0xbdf3e38a	-0.11908634
10	0x3e356596	0.17714533
11	0xc05479c0	-3.319931
12	0xbeb2d31a	-0.34926683
13	0xbeaa645e	-0.332797
14	0xc028caaf	-2.6373708
15	0xbe555745	-0.20834072
16	0xc0272475	-2.6116002
17	0x3dc52220	0.096256495

linear2.bias f4 [3]
0	0xbef5f40d	-0.48037758
1	0x3e932fd4	0.28747427
2	0xbf070571	-0.5274268
