from_youtube/model/model_Network 13-256-3.pth (torch, 19257 bytes, 4 tensors)

linear1.weight f4 [256, 13]
0	0xbfb169bf	-1.3860396
1	0xbea94d73	-0.33066902
2	0xbf258024	-0.6464865
3	0xbf186721	-0.5953236
4	0xbf28b563	-0.65901774
5	0xbefa8d05	-0.48935714
6	0xbd844520	-0.06458497
7	0xbf8b1190	-1.0864735
8	0xbf821c42	-1.0164874
9	0xbf31f1b8	-0.6950946
10	0xbf93dabe	-1.155113
11	0xbfb34fcb	-1.4008726
12	0xbfe2c1be	-1.7715375
13	0xbf33cece	-0.70237434
14	0xbf3e14e8	-0.7425065
15	0xbf2dc1db	-0.67873925
16	0xbf179a1b	-0.5921952
17	0xbf23a3ef	-0.6392202
18	0xbeda5286	-0.42641085
19	0xbeb87156	-0.36023968
20	0xbe79591c	-0.24350399
21	0xbf156005	-0.5834964
22	0xbe99bf33	-0.30028686
23	0x3e9b7ec0	0.3037014
24	0xbf402164	-0.7505095
25	0x3cab1f34	0.020888902
26	0xbe8686b2	-0.2627464
27	0xbe3a3057	-0.18182503
28	0xbd5aee83	-0.05345012
29	0x3f14800c	0.58007884
30	0xbed18ce0	-0.40927792
31	0xbf01a036	-0.5063509
32	0xbd60ecfa	-0.0549135
33	0xbe97ee7d	-0.2967414
34	0xbf9c00f4	-1.2187791
35	0xbf02d67c	-0.5110853
36	0xbe1837a4	-0.14864975
37	0x3dc88c36	0.09792368
38	0xc0c630ec	-6.193472
39	0xbfa8a52b	-1.3175405
40	0xbf3b4a69	-0.73160416
41	0xbde3ac7d	-0.11116884
42	0xbf833b8a	-1.0252545
43	0xbf4f4507	-0.809647
44	0x3e9d63d9	0.3074024
45	0xbf088b06	-0.5333713
46	0xbfbb6f42	-1.4643328
47	0xbf910aca	-1.1331418
48	0xbf76b306	-0.9636692
49	0xbfd572ee	-1.6675699
50	0xbf923366	-1.1421936
51	0xc080e4ef	-4.027946
52	0xbeb7e29e	-0.35915083
53	0x3e6f78a0	0.23385859
54	0x3f60e6ea	0.87852347
55	0x3f8f8082	1.1211092
56	0x3fed21ce	1.8525941
57	0xbe23d503	-0.15999226
58	0x3d921ca3	0.07134368
59	0xbef4272a	-0.4768613
60	0xbebf0644	-0.37309468
61	0xc096b464	-4.7095203
62	0xbfa662d8	-1.2998915
63	0x3e73408e	0.23755094
64	0x428fef4b	71.96737
65	0xbf51f6ce	-0.8201722
66	0xbed6b341	-0.41933635
67	0xbe6738bc	-0.22580236
68	0xbf4f5b9b	-0.80999154
69	0xbeba77bf	-0.36419484
70	0x3dc16df3	0.09444799
71	0x3e99088c	0.29889333
72	0xbf08e75a	-0.53478014
73	0xbde96e60	-0.113980055
74	0x3e633887	0.22189532
75	0xbee1391e	-0.4398889
76	0xbf0072c9	-0.5017515
77	0xc0f219c5	-7.5656457
78	0xbf8ae573	-1.0851272
79	0xbf9bf821	-1.2185098
80	0xbfb5e280	-1.4209747
81	0xbf52be62	-0.8232175
82	0xbf9db22f	-1.2320002
83	0xbf233231	-0.6374846
84	0xbf3741e2	-0.71584904
85	0xbf2405cb	-0.6407134
86	0xbed9d71b	-0.42546925
87	0x3f0ba850	0.545537
88	0x3ee00d11	0.4375997
89	0xbe0adf01	-0.13561632
90	0xbf083fca	-0.53222334
91	0xbf5c27c1	-0.8599816
92	0xbf825529	-1.0182239
93	0xbf524c05	-0.82147247
94	0xbf68b738	-0.9090457
95	0xbf4a104f	-0.78931135
96	0xbf8171b6	-1.0112827
97	0xbf7bf4c5	-0.98420364
98	0xbf4fe9b1	-0.8121596
99	0xbf541f91	-0.82860667
100	0xbf81f97a	-1.0154259
101	0xbf8a984c	-1.0827727
102	0xbf7746c9	-0.96592385
103	0xbe8a86ff	-0.2705612
104	0xbfb74a27	-1.4319504
105	0xbfb7d69a	-1.4362366
106	0xbf8000fe	-1.0000303
107	0xbf97b42a	-1.1851857
108	0xbf5804e0	-0.8438244
109	0xbf341712	-0.703477
110	0xbf1ae591	-0.6050654
111	0xbde85237	-0.11343806
112	0x3e2c5e0a	0.16832748
113	0x3e0aaa42	0.1354151
114	0xbea6758b	-0.32511553
115	0xbf92019a	-1.1406739
116	0xbf009fc9	-0.5024381
117	0xbf475a8d	-0.77872545
118	0xbf4b094a	-0.7931105
119	0xbf10bb33	-0.56535643
120	0xbf7c8c55	-0.9865163
121	0xbf86d39f	-1.0533332
122	0xbf489bad	-0.7836254
123	0xbf863e55	-1.0487772
124	0xbedd66f4	-0.4324261
125	0xbfb54791	-1.4162465
126	0x3ef06559	0.46952322
127	0xc01d8721	-2.4613726
128	0xbff28fdb	-1.8950151
129	0x41a0bc58	20.091965
130	0xc081de96	-4.058421
131	0x3f5e9b32	0.8695556
132	0x3feb61c7	1.8389214
133	0x4011a9e8	2.2759953
134	0x3f8799c2	1.0593798
135	0x3e7eafcb	0.24871747
136	0xbf35ef01	-0.71067816
137	0xbf8543c1	-1.0411302
138	0xc060f262	-3.5147939
139	0xc05f4452	-3.488545
140	0xc02ce7ed	-2.7016556
141	0xbf90f1d2	-1.1323798
142	0xc295e776	-74.95207
143	0xbf96d1ae	-1.1782739
144	0xbf728522	-0.94734395
145	0xbf8b5c28	-1.0887499
146	0xbfa76f93	-1.3080925
147	0xbf9cb864	-1.2243772
148	0xbf8ff029	-1.1245166
149	0xbf601f36	-0.87547624
150	0xbf5b3996	-0.85634744
151	0xbf3d95c7	-0.7405667
152	0xbef03497	-0.46915123
153	0xbf40e5fd	-0.75350934
154	0xbf431505	-0.7620395
155	0x3e95a0dc	0.29224288
156	0x3e04ad78	0.12956798
157	0xbed74a67	-0.42048952
158	0x3e980ce1	0.29697326
159	0x3d951571	0.0727948
160	0x3e17c438	0.14820945
161	0xbeb7c589	-0.35892895
162	0xbec3d4b7	-0.38248226
163	0xbf02bed9	-0.5107246
164	0xbf349919	-0.7054611
165	0xbeb470a2	-0.35242182
166	0xbf0473d2	-0.5173923
167	0xbde9232f	-0.11383664
168	0xc0213b34	-2.5192385
169	0x3cfa89bd	0.030583257
170	0x3bf37f7f	0.00743097
171	0x3e16686b	0.1468827
172	0xbf1f5bba	-0.6224934
173	0xbe9ab882	-0.30218893
174	0xbdde4cba	-0.10854478
175	0xbf339467	-0.7014832
176	0xbf960068	-1.1718874
177	0xbfc45e03	-1.534119
178	0xbfa3a339	-1.2784187
179	0x3ca74975	0.02042077
180	0xbe616e1b	-0.22014658
181	0x41f6f355	30.868814
182	0xbf83d79f	-1.0300177
183	0xbf9ae522	-1.2101176
184	0xbf0152a8	-0.5051675
185	0xbf7b7d45	-0.9823802
186	0xbf38869e	-0.7208041
187	0xbf674baf	-0.9034986
188	0xbf834d4a	-1.0257962
189	0xbf8125ea	-1.0089695
190	0xbf5ea52e	-0.86970794
191	0xbf694afa	-0.9113003
192	0xbe69c532	-0.2282913
193	0x3cf091a3	0.02936632
194	0xbf89b94d	-1.0759674
195	0xbec7bf99	-0.39013365
196	0xbe9a3696	-0.3011977
197	0x3f2a3a35	0.66495067
198	0xbea5945f	-0.3233976
199	0xbf05b8d4	-0.5223515
200	0xbf173c14	-0.59076047
201	0xbf4c02c6	-0.7969173
202	0xbf101b17	-0.56291336
203	0xbf1c1a05	-0.609772
204	0xbf6ddbf7	-0.92913765
205	0xbf4655a6	-0.7747444
206	0xbe914ab1	-0.28377298
207	0xbff50fdd	-1.9145466
208	0xbe61d0a2	-0.22052243
209	0xbecfdea7	-0.40599558
210	0xbf51d849	-0.8197065
211	0xbd3575b9	-0.044301722
212	0xbe650509	-0.22365202
213	0xbf3d3127	-0.73903126
214	0xbe38d5e4	-0.18050343
215	0xbf852187	-1.0400857
216	0xc06bfb9d	-3.6872323
217	0xbe8f80e4	-0.28028023
218	0xbdfb4085	-0.122681655
219	0x3f3d2237	0.7388033
220	0xc1531af6	-13.194082
221	0xbf3d1d80	-0.7387314
222	0xbf4c46c1	-0.7979546
223	0xbefd5c3e	-0.49484438
224	0xbdc477db	-0.09593173
225	0xbf04a90b	-0.5182044
226	0x3d2b9e2b	0.041898888
227	0xbddee92d	-0.108843185
228	0xbf33d19b	-0.7024171
229	0xbef35926	-0.47528952
230	0xbe07d818	-0.13266027
231	0xbeaa1241	-0.33217052
232	0xbe0efc42	-0.13963416
233	0xbf2ad541	-0.6673165
234	0xbf95a525	-1.1691023
235	0xbeb5c65b	-0.35502896
236	0xbfaa5589	-1.3307353
237	0x3d949db7	0.07256644
238	0xbf2c20f7	-0.672378
239	0x3ddff77e	0.10935877
240	0x3e51b1bd	0.20477958
241	0xbe28e814	-0.16494781
242	0xbf70ea29	-0.941073
243	0xbf896d7c	-1.0736537
244	0xbfeaeb64	-1.8353086
245	0xbff2914c	-1.8950591
246	0x41e5102b	28.632895
247	0xbfe09c3e	-1.7547681
248	0xbfe927df	-1.8215293
249	0xbff1680b	-1.8859876
250	0xbfdaef81	-1.7104341
251	0xbfeac7ef	-1.8342265
252	0xc0037d7d	-2.0545342
253	0xbfe2f98d	-1.7732407
254	0xbfeff6b1	-1.8747159
255	0xbfd725fd	-1.6808468

linear1.bias f4 [256]
0	0xbeb5690e	-0.35431713
1	0x3fa45b05	1.2840277
2	0x3fa8c846	1.3186119
3	0xbeba4766	-0.36382598
4	0x406d70ea	3.7100167
5	0xc049d023	-3.1533287
6	0x400267ca	2.0375848
7	0xbf388513	-0.72078055
8	0x3feb2dfa	1.8373406
9	0xbe656b01	-0.224041
10	0xbf1591c7	-0.58425564
11	0x3eff3581	0.49845508
12	0xc02e5bea	-2.72436
13	0x401b8548	2.4300098
14	0xc0138202	-2.30481
15	0xc02397ce	-2.5561404
16	0xc037e343	-2.873246
17	0x3ff3ec2a	1.9056447
18	0x3fc0360d	1.5016495
19	0x4016b7fd	2.3549798
20	0x408a6885	4.3252587
21	0xc0497fd2	-3.1484265
22	0xc02d0c37	-2.7038705
23	0xc03d354e	-2.9563785
24	0xbfb08090	-1.3789234
25	0xc00abef5	-2.167905
26	0xbfcdc091	-1.6074392
27	0xc00cccad	-2.1999924
28	0x4007338b	2.112521
29	0x3f1ae6e4	0.6050856
30	0xbe8e41e4	-0.27784646
31	0xc06f72ee	-3.7413898
32	0x40c75771	6.229424
33	0x40c19e33	6.0505614
34	0xbfc1bfea	-1.5136693
35	0xc018e4ef	-2.388973
36	0xbfa4e8cd	-1.2883545
37	0x3ed1628e	0.40895504
38	0x3fec4849	1.845956
39	0xc038abcd	-2.885486
40	0xc0370993	-2.8599594
41	0xbe9b7758	-0.3036449
42	0x3fce9dab	1.6141866
43	0xc01ff0ab	-2.4990642
44	0xbff32e18	-1.8998442
45	0x3f83d861	1.0300409
46	0x3f92600a	1.1435559
47	0xbebf00a6	-0.37305182
48	0x401a8699	2.4144652
49	0xc000ff35	-2.0155766
50	0xbfa7196c	-1.3054633
51	0x3ffd4819	1.9787627
52	0xbfb7d343	-1.4361347
53	0x3f8acac3	1.0843128
54	0xbe8ece71	-0.27891877
55	0xbe1ee168	-0.15515673
56	0x400cfc26	2.20289
57	0x4087dcf9	4.245724
58	0x400b87cf	2.180164
59	0x3ef3ab41	0.47591594
60	0xbf927ce8	-1.1444368
61	0xc0091cf8	-2.142393
62	0x3fe94e83	1.8227085
63	0xc040c022	-3.0117269
64	0xbfdf1402	-1.7427981
65	0x4092ce99	4.5877194
66	0x3f3fbe93	0.7490017
67	0xbfa70cf7	-1.3050832
68	0xc013b3db	-2.3078525
69	0xbf5298e9	-0.8226457
70	0xc03c397f	-2.9410093
71	0x402780be	2.6172328
72	0x3f009ff7	0.50244087
73	0x40056e01	2.084839
74	0x3df5d493	0.12003436
75	0xbf9f5a2d	-1.2449394
76	0x40dc2b55	6.8802896
77	0xbf5d97cc	-0.8655975
78	0x40020151	2.0313303
79	0xbfc58162	-1.543011
80	0xbec957ca	-0.3932479
81	0x3fd9bc6c	1.7010627
82	0xbf7d217e	-0.9887923
83	0xbdf994db	-0.12186595
84	0xbfc0aa7a	-1.5052025
85	0x3f9e532f	1.2369136
86	0x4031a00d	2.7753937
87	0xc0431540	-3.048172
88	0xbecdd783	-0.40203485
89	0xc00ea76d	-2.2289689
90	0xbfbdf91e	-1.484165
91	0xc0103e2f	-2.2537954
92	0x4099af34	4.802637
93	0xbfad0574	-1.3517289
94	0xc047aa19	-3.119757
95	0x3f83d7ce	1.0300233
96	0xbd6214d8	-0.05519566
97	0xbfd1310f	-1.6343096
98	0x400753c5	2.114488
99	0xbfefc13d	-1.8730847
100	0x405be190	3.4356422
101	0x408229ee	4.0676184
102	0xbff80a7b	-1.9378198
103	0x3f86cec3	1.0531849
104	0x4043878e	3.0551486
105	0xbff631c1	-1.9233934
106	0x3ffa63a9	1.9561664
107	0x3f7e7f19	0.99412686
108	0xbf9d339a	-1.2281373
109	0x3eeae2a4	0.45876038
110	0x3f82755f	1.0192069
111	0xbfebd85e	-1.8425405
112	0x3fbe24bd	1.4854962
113	0xbfa3cef7	-1.2797536
114	0x402dcb37	2.7155282
115	0xbeaaa6e6	-0.33330458
116	0xc0077096	-2.1162467
117	0xc01e0ff2	-2.4697232
118	0xbe5541fd	-0.20825954
119	0xc021078e	-2.516086
120	0xbf0d5297	-0.5520415
121	0x40769872	3.8530545
122	0xc0296d6a	-2.647303
123	0x3d96e34d	0.07367573
124	0x402919e0	2.6422043
125	0xc00807ae	-2.1254687
126	0xc0273fd4	-2.6132708
127	0x400ee0dc	2.2324743
128	0x4096097b	4.6886573
129	0xc06c80b7	-3.6953561
130	0xc017be32	-2.3709836
131	0xbfebc333	-1.8418945
132	0xbfd06152	-1.62797
133	0x3fd87b05	1.6912543
134	0x3ff2e879	1.8977195
135	0x40742e9b	3.8153446
136	0xbfa50fe6	-1.2895477
137	0x409bc1b2	4.8673944
138	0xc05396e6	-3.306085
139	0xbfa367e8	-1.2766085
140	0x4017db9d	2.3727791
141	0x3e55e1c8	0.2088691
142	0x3fbe883d	1.4885327
143	0xbfe7e7dd	-1.8117634
144	0x3f7bb10e	0.9831704
145	0xbfb9357a	-1.4469445
146	0xbf528de1	-0.8224774
147	0xc00ec572	-2.230801
148	0x3faac2f4	1.3340745
149	0xbffabe7b	-1.958938
150	0xc036aead	-2.8544114
151	0x3f770f28	0.965075
152	0xc051a9c5	-3.275987
153	0x406be789	3.6860068
154	0xbfe43ba4	-1.7830701
155	0x3ea80d02	0.32822424
156	0x3ff7fd29	1.9374133
157	0xc039fa72	-2.905911
158	0x40015044	2.020524
159	0x3f4d69b3	0.8023941
160	0xbfd9d086	-1.7016761
161	0x40bd2139	5.9103055
162	0x4027625c	2.6153784
163	0x3fa982d4	1.324305
164	0xc0253c5a	-2.5818086
165	0xc03824da	-2.8772492
166	0x4048b8b7	3.136274
167	0xbf890ca8	-1.0706987
168	0xbfdddbe8	-1.7332735
169	0x3eea9b6e	0.45821708
170	0xbecb0ceb	-0.39658293
171	0x40306487	2.7561357
172	0x400ab35f	2.167198
173	0x4037ccd7	2.8718774
174	0x40286907	2.6314104
175	0xc0010c11	-2.0163615
176	0x3fa47c9b	1.2850527
177	0xc0902e8b	-4.5056815
178	0xc0197725	-2.397897
179	0x40ec0eda	7.376813
180	0xbfe40e16	-1.7816799
181	0x3ef384aa	0.47562152
182	0xc0818e6c	-4.0486355
183	0x406af7c7	3.6713731
184	0x4007c49e	2.1213756
185	0xbfb2aa91	-1.3958303
186	0xbf9ac8c9	-1.2092525
187	0x40247d4d	2.5701478
188	0xc05292d4	-3.2902117
189	0x400e74d7	2.2258813
190	0x3e5e1d5d	0.21690889
191	0x40dc2dcd	6.880591
192	0x3f940785	1.1564795
193	0x3f8ac082	1.0839999
194	0x3ee10efb	0.43956742
195	0x408a620a	4.3244677
196	0x3fddf721	1.7341043
197	0xbf595195	-0.8489011
198	0xbff1308b	-1.8842939
199	0xc01189c2	-2.274033
200	0x40409df9	3.009642
201	0xbed84b00	-0.4224472
202	0x40114b21	2.2702105
203	0x3fe2e270	1.7725353
204	0xbf7be49e	-0.9839572
205	0xbfa1430c	-1.2598586
206	0x3fe350e7	1.7759064
207	0x3e1f5d5e	0.1556296
208	0xbff8d526	-1.9440048
209	0xc01b3065	-2.4248288
210	0xbf25b596	-0.64730203
211	0xbef8efab	-0.48620352
212	0xbf6ad976	-0.9173807
213	0x4001f142	2.0303502
214	0x3f747b50	0.9550066
215	0x3c586a1c	0.013208892
216	0x4012fb76	2.296598
217	0xc082876f	-4.0790324
218	0xbfe4cbc0	-1.787468
219	0xbfcead53	-1.6146644
220	0x3ff4e598	1.9132566
221	0xbffd73c9	-1.980096
222	0x402b1a03	2.6734626
223	0x3f06112e	0.52369964
224	0xbfdd8885	-1.7307287
225	0xc038c270	-2.8868675
226	0x409bb229	4.865498
227	0xc0023e5f	-2.0350568
228	0x401da803	2.4633796
229	0x4037b0f3	2.8701751
230	0xc00f4543	-2.2386024
231	0xbf199d96	-0.6000608
232	0xbfa47cd1	-1.2850591
233	0xbeb86d0e	-0.36020702
234	0x3f8b80e0	1.0898705
235	0xc05c24a3	-3.4397361
236	0xbff4af66	-1.9116027
237	0xc0427c3f	-3.0388334
238	0x3f0424a8	0.51618433
239	0x3ee78e55	0.45225778
240	0xbfa88599	-1.3165771
241	0xc029b2f7	-2.6515481
242	0x3f9d5de9	1.2294284
243	0xbf9d5b3a	-1.2293465
244	0x3efb0bf3	0.49032554
245	0x4005ff72	2.0937161
246	0xbfc4f5b1	-1.5387479
247	0x3ec46d89	0.3836482
248	0x3fa7d4ca	1.3111813
249	0xbf241c3e	-0.64105594
250	0xc00bf13a	-2.1865983
251	0x3eb6e53a	0.3572176
252	0xbf82785d	-1.0192982
253	0xbfe682af	-1.8008631
254	0xbfc2a1ca	-1.5205624
255	0x4061e8e7	3.5298402

linear2.weight f4 [3, 256]
0	0xbf8160e6	-1.0107696
1	0xbfbc8347	-1.4727563
2	0x3d009f79	0.031402085
3	0x3f64f9a2	0.8944341
4	0xbf85c912	-1.0451987
5	0xbd87c0e2	-0.06628586
6	0xbe2499f3	-0.16074352
7	0x3f6ef3d5	0.9334081
8	0xbfd33af2	-1.6502364
9	0xbf576767	-0.84142154
10	0x416de378	14.868034
11	0x3f7de4a0	0.9917698
12	0x3e817ec3	0.25292024
13	0xbdbe5d2d	-0.092951156
14	0x3f4b9ba4	0.79534364
15	0x3ec6ac01	0.38803104
16	0xbe9c3b62	-0.30514055
17	0xbe218ec0	-0.15777111
18	0xbf34a112	-0.70558274
19	0xc02bccdb	-2.6843784
20	0xbfc64cf4	-1.5492234
21	0x3eb9e2a4	0.36305726
22	0xbe519075	-0.20465262
23	0xbf96b48f	-1.1773852
24	0xbf8f839d	-1.121204
25	0x3e979e47	0.29612944
26	0x3e0bfd6a	0.13670889
27	0xbb63344d	-0.0034668625
28	0xc0167292	-2.3507428
29	0xbdc73933	-0.09727707
30	0x3fb01905	1.3757635
31	0xbcca6d93	-0.024710452
32	0xc06b481f	-3.676277
33	0xc037cb14	-2.87177
34	0x3d05a6c4	0.032629743
35	0x3ec86cf1	0.39145616
36	0x3e4e1968	0.20126879
37	0x3f2eddbd	0.68307096
38	0xbf9e114f	-1.2349032
39	0x3ff3be79	1.9042503
40	0x3e49925f	0.19684742
41	0x3ff3c4fd	1.9044491
42	0xc05b7767	-3.4291627
43	0xbdbddbd7	-0.09270447
44	0x3f022da0	0.5085087
45	0xc01fa9aa	-2.4947305
46	0xc040725c	-3.00698
47	0x3fb77658	1.4332991
48	0xbf7b75c5	-0.9822658
49	0x3eb54b1e	0.35408872
50	0x3f3dcfd4	0.74145246
51	0xc02656be	-2.5990443
52	0xbe8f3626	-0.27971
53	0x3f853343	1.0406269
54	0x3f1f6555	0.62263995
55	0x3fb84c4e	1.4398286
56	0x3f02ef32	0.51146233
57	0xbf7ef97b	-0.99599427
58	0xc00e455e	-2.2229838
59	0xc00979e5	-2.1480649
60	0x3f1783c5	0.5918544
61	0x3e6c3c12	0.2306979
62	0xc0275476	-2.61453
63	0xbf0f7d93	-0.56050986
64	0x3f03463f	0.5127906
65	0xc0053ca5	-2.0818264
66	0xbdda042c	-0.10645327
67	0xbeede8dc	-0.4646672
68	0x3fd28181	1.6445771
69	0x3f05e0ae	0.5229596
70	0x3d8d133f	0.068884365
71	0xbf08f471	-0.5349799
72	0x3f8af6ee	1.0856607
73	0xbf837b47	-1.0271996
74	0xbe21f982	-0.15817836
75	0x3e909099	0.2823532
76	0xbfef248e	-1.8683031
77	0x3f8da4a2	1.1065867
78	0xc037f15b	-2.8741062
79	0x3f023c06	0.5087284
80	0xbeedb265	-0.46425167
81	0xc014bd71	-2.3240626
82	0x3e4aa4b4	0.19789392
83	0xbe683509	-0.22676481
84	0x3d229659	0.039694164
85	0xbff5f2f5	-1.921477
86	0xbea1c23a	-0.31593496
87	0xbe1eca81	-0.15506937
88	0x3f166f67	0.58763736
89	0xbe0f1114	-0.13971359
90	0x3f005ba9	0.5013986
91	0xbcccfe30	-0.02502355
92	0xbfde3a0c	-1.7361465
93	0x3f2793f2	0.6546012
94	0xbec6ed65	-0.38852993
95	0xbcc96de1	-0.024588527
96	0x3fad0611	1.3517476
97	0xbdb668ce	-0.08906709
98	0xc02ce35b	-2.7013767
99	0xbea88335	-0.32912603
100	0xc0c2b2b1	-6.084313
101	0xbf0a3549	-0.53987557
102	0x3e55497a	0.2082881
103	0x3edd9391	0.43276647
104	0xbebb5217	-0.36586067
105	0x3e7578b7	0.2397183
106	0xbdeb8806	-0.11500554
107	0xbe6f998d	-0.23398419
108	0xbeb9cadc	-0.36287582
109	0xbf96e90c	-1.178987
110	0x3e2cee13	0.16887693
111	0x3f2b7f3e	0.6699103
112	0xbf7fe750	-0.9996233
113	0xbf81d117	-1.0141934
114	0xc0062235	-2.0958378
115	0x3fa7debc	1.3114848
116	0x3dcdaa21	0.10042215
117	0xbc569c5b	-0.0130988015
118	0x3f9fb7c1	1.2477952
119	0x3e88e19a	0.2673462
120	0x3f27d52e	0.6555966
121	0xbfa023ae	-1.2510889
122	0x3f3c6c04	0.7360232
123	0x3bd720a5	0.006565171
124	0xc0413434	-3.0188112
125	0xbda4c69c	-0.08045694
126	0x3e8eb68e	0.27873653
127	0xbfd8c834	-1.6936097
128	0xc058f69a	-3.3900514
129	0xbe790294	-0.2431739
130	0x3f3379a2	0.7010747
131	0x3f0d71b1	0.55251604
132	0x3c19b1db	0.009380783
133	0xbf11d93b	-0.5697209
134	0xc020de1d	-2.5135567
135	0xc08975ee	-4.2956457
136	0x3ecc442f	0.3989577
137	0xc094c503	-4.6490493
138	0xbfed7ee9	-1.8554355
139	0x3fb8dbce	1.4442079
140	0x3fe6d3ba	1.8033364
141	0x3fa81dce	1.3134096
142	0xbfe09530	-1.7545528
143	0x3d138eb4	0.036024764
144	0xbfb99e24	-1.4501386
145	0x3e20a0f5	0.156864
146	0x3f3f63b6	0.7476152
147	0x3e0d4951	0.13797499
148	0xbe913d85	-0.28367248
149	0x3ebceab4	0.36897814
150	0x3ef532bd	0.47890273
151	0xbf90d249	-1.1314174
152	0x3eddbce4	0.43308175
153	0x3e9dc90b	0.30817446
154	0x3e700114	0.23437911
155	0x3f7c4de7	0.9855637
156	0xc02f8990	-2.7427711
157	0x3ed51634	0.41618502
158	0xc004ebcb	-2.0768917
159	0xbfb231d2	-1.3921454
160	0x3de1fe33	0.11034813
161	0xbfd6bfaf	-1.6777247
162	0xc006313f	-2.0967557
163	0xbf35631a	-0.7085434
164	0x3e2c5f9b	0.16833346
165	0x3e6d91e6	0.23200187
166	0x3eba4846	0.36383265
167	0xbf07f519	-0.53108364
168	0x3d1a7642	0.037710436
169	0x3f5b5d63	0.8568937
170	0x3fa4fec4	1.2890248
171	0xbfba5188	-1.4556131
172	0xbf405a69	-0.75137955
173	0x3f670cd3	0.90253943
174	0xbfd4d3ad	-1.6627098
175	0x3df40abc	0.1191611
176	0xbf80f6a3	-1.0075268
177	0x3fe9456b	1.822431
178	0x3cc33ccf	0.023832707
179	0xc016b2ef	-2.3546712
180	0xbe90e9f6	-0.28303498
181	0x3eb0cfd2	0.34533554
182	0x3f2b831c	0.6699693
183	0xc0c18718	-6.047741
184	0x3e991231	0.2989669
185	0xbda93dc6	-0.082637355
186	0x3f3e94f4	0.74446034
187	0x3d6d366e	0.057913236
188	0xbd9f8f27	-0.07790976
189	0xc00dd8bf	-2.2163541
190	0x3f1af979	0.60536915
191	0xbfdc34a3	-1.7203563
192	0xbfaae683	-1.3351597
193	0xbfbdc1b5	-1.482474
194	0x3e0b131f	0.13581513
195	0xbfacc3c4	-1.3497243
196	0x3ea7980f	0.327332
197	0xbe1bc096	-0.15210184
198	0xbdea23ce	-0.114326105
199	0x3d142407	0.03616717
200	0xc05b503a	-3.4267716
201	0x3f5d2463	0.86383647
202	0xbfe863dd	-1.8155476
203	0x3eb6adcf	0.3567948
204	0x3e25206d	0.1612565
205	0x3f06c91c	0.5265062
206	0xc0252935	-2.58064
207	0x3fb3d12d	1.404821
208	0x3ee3d094	0.4449507
209	0xbf31600c	-0.6928718
210	0x3ea7ee17	0.32798836
211	0x3f8a480d	1.0803238
212	0xbf265022	-0.6496602
213	0xbf8b94a1	-1.0904733
214	0xbf690842	-0.91028225
215	0xbdb6e221	-0.089298494
216	0xc01b3c97	-2.425573
217	0x3e06d360	0.1316657
218	0x3eabcd80	0.33555222
219	0xbe4db963	-0.2009025
220	0xbf2d3017	-0.67651504
221	0x3d938f23	0.072050355
222	0xc00747f2	-2.1137662
223	0x3fc72e95	1.5561091
224	0x3f4351c9	0.7629667
225	0xbcf38177	-0.02972482
226	0xbfb3eed5	-1.4057261
227	0xbeece731	-0.46270135
228	0xbf00433e	-0.50102603
229	0xbe11fda0	-0.14256907
230	0xbe36525b	-0.17804854
231	0x3f66240d	0.8989876
232	0xbec8224b	-0.39088663
233	0x3fa63661	1.2985345
234	0x3fa9bb73	1.326033
235	0x3e776ee9	0.24163403
236	0xbe540c20	-0.2070775
237	0xbf6c5b6a	-0.92326987
238	0x3fdf29e9	1.7434665
239	0xbf931b7e	-1.1492765
240	0x3e672811	0.22573878
241	0xbeac4c8f	-0.3365216
242	0x3f520a95	0.82047397
243	0x3ee5614e	0.448008
244	0xbf46db58	-0.7767844
245	0xbe79db5f	-0.2440009
246	0x3e5847c8	0.21121132
247	0xbe233889	-0.15939535
248	0xbfd9f59e	-1.7028081
249	0x3ec78073	0.38965186
250	0x3f97dd77	1.1864461
251	0x3f71083b	0.94153184
252	0x3f2a8bf8	0.66619825
253	0x3ea59684	0.32341397
254	0xbfc4f41e	-1.5386999
255	0xbf3d1756	-0.7386373

linear2.bias f4 [3]
0	0xc0127881	-2.288605
1	0xc082465c	-4.071089
2	0xc0d107ec	-6.532217
