from_youtube/model/model2.pth (torch, 10137 bytes, 4 tensors)

linear1.weight f4 [128, 13]
000000 aa 80 44 3e 7d ed 96 bc 70 9f 84 be a8 aa 80 bd
       0.19189706 -0.01842379 -0.2590289 -0.0628255
000010 c9 5b 60 be 3b c8 16 be 3e 86 51 bd 87 e0 8a be
       -0.21910013 -0.1472482 -0.051153414 -0.27124426
000020 a7 e9 3b 3e 2d 29 d0 3c 78 2e 50 bd 67 11 2e be
       0.1835085 0.02541026 -0.050825566 -0.16998826
000030 d3 97 87 3d fd b6 a7 be 5e 89 c4 3c a1 dc bd be
       0.06620755 -0.32756796 0.023991283 -0.3708239
000040 65 1c 95 3d 4e 9b 35 bd 3f 13 14 bd 9f af 15 3d
       0.072808065 -0.044337563 -0.036151167 0.03654444
000050 7a 08 5f be 76 61 98 3d 76 f2 d1 3d a8 99 b4 be
       -0.21780577 0.07440464 0.10251324 -0.3527348
000060 23 3b f6 bd ab 9b 93 3d 99 aa 91 be 42 66 96 be
       -0.12022998 0.07207426 -0.28450468 -0.29374892
000070 2e 74 2d 3e b4 68 81 bd 51 d7 2c be da 0a 93 bc
       0.1693885 -0.06318799 -0.16879012 -0.01794951
000080 2e 96 07 be 5f 7b 69 be 84 71 94 3d 55 54 25 3e
       -0.13240883 -0.22800969 0.07248214 0.16145451
000090 b6 5c 52 be 5b 25 42 3b 7a 29 35 be ac 27 da 3d
       -0.20543179 0.0029624316 -0.17691603 0.10652098
0000a0 84 c8 a0 be fb 0f 14 be 32 e7 08 3d bc 6c 1d 3d
       -0.3140298 -0.14459221 0.03342361 0.038433775
0000b0 5a 7d d6 bd a4 11 88 bd 74 d1 b3 3e c4 6d 6b 3c
       -0.10473128 -0.0664399 0.35120738 0.014369432
0000c0 71 42 2b be d8 5f de 3c 12 a1 35 be 7e 77 19 bf
       -0.16724564 0.027145311 -0.17737225 -0.59947956
0000d0 ec 1d 95 3e 55 b3 3b 3e ca a1 bb 3d a0 b0 68 3e
       0.2912439 0.18330128 0.09161718 0.22723627
0000e0 27 b0 57 be 8d 45 af be 2a 91 3e 3e 6b f5 a4 be
       -0.2106329 -0.3423275 0.18610063 -0.3221849
0000f0 8e ef 3b 3e 6a 61 fb bd 50 4e 02 3e a7 5e 25 3d
       0.18353102 -0.1227444 0.12725186 0.04037347
000100 0f d1 a6 bf 69 6b 18 bc 7f 34 78 3d a8 8c c5 bd
       -1.303255 -0.009302952 0.06059694 -0.09645969
000110 ff e3 7b be ce 71 83 be e1 33 94 3d 44 ad 30 3e
       -0.24598692 -0.25672764 0.072364576 0.17253596
000120 61 0d 68 3c 68 e9 a5 bd 5a 4a 97 be b6 cd 4a bc
       0.014163346 -0.08101159 -0.29548913 -0.012378147
000130 22 31 b9 3c b1 b9 4d 3e 57 20 d6 bd 89 74 c1 3d
       0.022606436 0.20090367 -0.10455387 0.094460554
000140 a2 57 ba be 76 a1 9d 3d e0 69 fd 3d 0a 60 be be
       -0.36394984 0.07696812 0.1237371 -0.37182647
000150 94 0e 75 be 78 64 d9 bd 98 75 a3 bc 10 1f cb 3c
       -0.23931342 -0.10614866 -0.019953534 0.024795085
000160 e1 e8 3d bd 03 7d 27 be d0 a7 8f be 5b 7c 89 3c
       -0.04636467 -0.16356282 -0.28057718 0.01678293
000170 f1 b5 a6 be 0d b4 60 3e 2c a8 66 3e e0 fb d8 bc
       -0.32560685 0.21943684 0.2252509 -0.02648729
000180 5f 55 5a be 4d 9b 80 be 89 27 4d be 01 67 21 3d
       -0.21321629 -0.25118485 -0.20034613 0.039404873
000190 99 7a 2f 3d 03 d2 ab be 4b 86 fa bd f1 0f 2e be
       0.042841528 -0.33558664 -0.122326456 -0.16998269
0001a0 d6 cb 94 be 79 ad 4d be 3d e4 29 be 71 01 6d be
       -0.29061764 -0.20085706 -0.16590972 -0.23145081
0001b0 ba 11 15 bd 93 b8 77 3e dd 09 07 3e 8b 3e ca bd
       -0.03639386 0.24191503 0.13187356 -0.098752104
0001c0 e1 77 4c be 30 bd cc bc 0f 55 4f 3d 60 dd 4a 3d
       -0.19967605 -0.024992555 0.050618228 0.049527526
0001d0 c7 ec 06 3e 80 d7 9e be 7c d4 fc bd 9e 89 f9 bd
       0.13176261 -0.31023788 -0.12345216 -0.121844515
0001e0 e6 b0 a9 bd a1 eb 74 be 84 b5 90 3d cb 99 ca 3d
       -0.08285694 -0.2391801 0.07065871 0.09892615
0001f0 f9 d3 c4 3d 1b 3d a0 b9 9e 22 a9 3e b3 c0 5f bd
       0.09610743 -0.00030563105 0.33034223 -0.05462713
000200 8c 29 f7 3d d5 d5 0d 3f 17 e0 86 3d d1 ca 37 bd
       0.12068471 0.55404407 0.065857105 -0.044871155
000210 09 c8 dc bd 14 a5 fd bd 66 81 19 3e f4 c2 7a be
       -0.10780341 -0.12385002 0.14990768 -0.24488431
000220 63 79 9f be c9 60 8f bc 9d 4b 6c be a7 36 99 3e
       -0.31147298 -0.017502205 -0.23075719 0.2992451
000230 67 36 31 3e 3c 38 ed 3a 24 b7 59 bf 5f 4d c5 bd
       0.17305909 0.0018098424 -0.85045075 -0.09633898
000240 28 b2 f1 bd bc 54 e4 bd 19 20 91 3d a2 5a 14 be
       -0.11801559 -0.11148974 0.070862 -0.14487699
000250 24 70 59 3d 85 cf a7 be 24 ac ba 3d 4a 39 25 be
       0.05308546 -0.32775512 0.091148645 -0.16135135
000260 5c 71 2f bd d8 7e 06 3e e6 15 3b be d5 0b 2b 3e
       -0.042832717 0.13134325 -0.18270072 0.16703732
000270 13 77 0b be 61 09 c4 be 28 5a 9a be cd 2a 19 be
       -0.13619642 -0.38288406 -0.3014691 -0.14957733
000280 8e 6a e1 3d 89 13 d8 3d 7e e3 5c be 13 8a 3a 3d
       0.11006652 0.10550601 -0.21571156 0.045541834
000290 a9 19 59 be e3 0a 08 3e ce fc 3a 3c cc 78 f3 3c
       -0.21201195 0.13285403 0.011412812 0.029720686
0002a0 62 8a 2a 3f b6 e2 38 3e 49 39 3b bd d6 f4 81 3e
       0.66617405 0.18055233 -0.04570893 0.25382107
0002b0 61 5e 7a be 0c b6 1d 3d f6 e0 44 be 29 63 7b bd
       -0.24450065 0.03850369 -0.19226441 -0.061373863
0002c0 16 f5 68 bc 59 ab 91 3c 24 70 22 bd 07 ed 37 be
       -0.014218589 0.0177819 -0.039657727 -0.17961513
0002d0 7c ad 68 be 65 3f 2f 3e c3 05 b9 3d a6 66 3a 39
       -0.22722429 0.17114027 0.09034302 0.00017776582
0002e0 d9 21 66 3d 76 2a 13 3c 12 ee 69 bd 3d d7 23 3e
       0.056184623 0.008982291 -0.057111807 0.16000076
0002f0 58 92 9e be fd ea 2b be 50 95 56 3e ba 7d 27 3d
       -0.30971026 -0.1678886 0.20955396 0.040891387
000300 eb c6 66 be 1e 5a f2 3d 46 61 29 be 99 d4 74 be
       -0.22536819 0.11833595 -0.16541013 -0.23909225
000310 66 99 c7 3d 7d 52 45 be e6 20 c7 3d e6 8b 23 3e
       0.09746055 -0.19269748 0.09723072 0.15971336
000320 ba 79 51 be 46 79 c2 3a 4c 3d 15 3e 9b a9 00 be
       -0.20456591 0.0014837168 0.14574164 -0.125647
000330 a6 6a 59 3e d7 30 61 be 1a 4d 55 bd 16 ee 42 3e
       0.2123209 -0.21991287 -0.052075483 0.19036135
000340 09 32 86 be 91 37 85 3d ac a6 7a 3d 1e eb a2 be
       -0.2621005 0.06504739 0.061194107 -0.31820005
000350 e7 ba 1d 3e c8 c0 83 bc 72 56 3c be 49 4f 99 be
       0.15403329 -0.016083136 -0.18392351 -0.29943302
000360 56 04 81 3d 74 1a 3a 3d 05 2f e3 3d ad 19 24 be
       0.06299655 0.045435384 0.11092953 -0.1602542
000370 22 4a be 3d 60 58 0b bd b9 4e 55 be b2 7b 26 3e
       0.092914835 -0.034019828 -0.20830812 0.16258124
000380 a3 10 58 be 4e 96 31 bd e9 ef c3 3d 64 1f 49 bd
       -0.21100096 -0.043356232 0.095672436 -0.049102202
000390 d7 42 80 3d a0 b9 e0 3d ee 96 a0 3d e0 41 65 be
       0.06262749 0.10972905 0.078412876 -0.2238841
0003a0 cf 7a d6 be ed 72 7e 3e f7 4c 88 be a1 3f 00 3e
       -0.4189057 0.24848528 -0.2662122 0.12524273
0003b0 48 e7 cc bd db 49 02 3d 58 65 28 be b6 31 d5 bc
       -0.10005051 0.031808715 -0.1644491 -0.02602468
0003c0 0e 58 3f 3d 21 81 d1 bd 9d a7 9d be f1 fc a5 3e
       0.046714835 -0.102297075 -0.3079194 0.3241954
0003d0 af fe 5f 3e c0 26 1b be 31 45 32 bf 20 76 90 be
       0.21874498 -0.151515 -0.6963683 -0.28215122
0003e0 f0 77 49 be 25 3b 52 bc df d3 46 be 5e 09 bf 3c
       -0.19674659 -0.012831484 -0.1941676 0.023319896
0003f0 0f 4e 1c 3e 76 45 1a be b6 8a 96 bd cd 4c 85 bc
       0.15264152 -0.1506556 -0.07350676 -0.016271973

linear1.bias f4 [128]
000000 e9 fa 09 3e a7 1b b2 bd 08 84 47 3e 22 df 92 be
       0.13474621 -0.086966805 0.1948396 -0.28685862
000010 50 61 76 be d5 2c 64 be a6 ef 8b be 6b 4f 04 bb
       -0.2406056 -0.22282727 -0.27331275 -0.0020188938
000020 aa ef 90 be 72 37 87 bb 21 9c 9e bc fc 9c 63 be
       -0.2830785 -0.0041264826 -0.019361557 -0.22227854
000030 d4 ac 1e 3e d7 57 bb 3d c2 cd b6 be 86 10 48 bd
       0.15495616 0.091476135 -0.35703856 -0.048843883
000040 6c 1d ef bb 66 0c 77 3e df ae 1d be ba 1e 27 bc
       -0.0072972085 0.24125823 -0.1539874 -0.010200197
000050 36 d5 da bd ac 75 85 3d 12 80 f9 bd 3f 52 95 be
       -0.10685198 0.06516585 -0.121826306 -0.2916431
000060 89 89 7a be 22 96 b6 bb 0a e6 9e 3c ed e8 2c 3e
       -0.24466528 -0.0055720964 0.0193968 0.16885729
000070 b7 ad 83 be 3f 1e 75 bd c1 d9 9b 3d 27 2b b3 bd
       -0.2571847 -0.059843298 0.07609893 -0.08748465
000080 54 f7 10 bd bd 52 86 be d0 e3 d9 bd d4 ec 15 3e
       -0.03539212 -0.26235 -0.10639155 0.14641124
000090 23 5b 48 bd ab d2 27 bd 8c e0 27 be 97 c5 af 3c
       -0.04891504 -0.040972393 -0.16394252 0.021456523
0000a0 21 d4 cf 3e e0 aa 61 be 69 ce 35 3b e4 ef e1 bd
       0.4059153 -0.2203784 0.0027741438 -0.11032084
0000b0 2a fd 62 be 9a 8c af be 5a ff 3f bd 3e af c2 3d
       -0.22166887 -0.34286958 -0.04687438 0.09506081
0000c0 70 a5 f4 bd 1b 10 7e be 36 fd c3 3e 5c 82 33 3d
       -0.11945617 -0.24810831 0.38279122 0.043825492
0000d0 b5 45 02 3e cf fb 82 be 13 38 31 be 70 65 cf bd
       0.12721904 -0.2558274 -0.17306547 -0.101267695
0000e0 72 01 47 be 77 43 85 be 62 75 60 3e 4f d6 aa 3d
       -0.19434145 -0.26028034 0.21919778 0.08341657
0000f0 ef 35 41 3e 75 52 c4 3d 79 b3 f4 bd 0c d6 b5 be
       0.1886823 0.0958604 -0.11948294 -0.35514867
000100 c5 2d cc be 26 fd 6c 3a b1 93 2f be d5 49 a2 be
       -0.3987867 0.00090404076 -0.17146184 -0.31696954
000110 dd 44 9b 3c 14 7e 6b be 7c 71 78 bc c9 42 1e 3c
       0.018953735 -0.22997314 -0.0151637755 0.0096594775
000120 80 0e 95 bd 0c e5 9c bd 8d 28 07 3e 7e 1c ed 3d
       -0.07278156 -0.07660875 0.13199063 0.115777
000130 d4 68 bc 3e 08 77 0f be 3b 35 a1 be 4f 68 66 bd
       0.36798728 -0.1401025 -0.31485924 -0.05625182
000140 d0 ad b8 3e 57 05 6f be 64 4f 31 3d fd 8e 04 3e
       0.36070108 -0.2334188 0.043288603 0.1294517
000150 a9 90 2e bd 5c a1 22 be 1b 31 5b 3e bb c0 ae 3d
       -0.042618427 -0.15881866 0.21405451 0.08532854
000160 38 21 be bb f5 2b 62 be ce 21 c6 bd b0 5a 50 3d
       -0.0058023 -0.22087081 -0.096744165 0.050867736
000170 ab 8c 96 be 0f 43 b1 bd f0 79 63 3d 0d 90 96 3c
       -0.29404196 -0.086553685 0.05553621 0.018379236
000180 89 d8 6a bd d6 3d 33 3e cc b7 1e 3e 0d ba 32 3e
       -0.05733541 0.17504057 0.154998 0.17453785
000190 bd 00 95 be 19 5f 9b 3e a9 94 6f be d4 25 73 bd
       -0.29102126 0.3034599 -0.23396553 -0.059362248
0001a0 6d f7 8e 3d 5d 76 17 be 62 26 42 be 66 03 01 be
       0.069807865 -0.14791246 -0.18959954 -0.12598953
0001b0 51 06 61 be fa 48 82 be 7d 7f 90 bd 98 a4 0a 3e
       -0.21975066 -0.25446302 -0.070555665 0.1353935
0001c0 0d f0 29 be 13 17 b8 3e ed 1a b7 3d a1 ef 2b 3e
       -0.16595478 0.35955104 0.089406826 0.1679063
0001d0 71 d7 5e 3e 58 cb 8d 3d 2c e6 35 bd e6 8e 31 be
       0.21761872 0.0692355 -0.044408962 -0.17339668
0001e0 ad 7a 79 be 8e 03 9d be 2a 99 9c bd 89 da fe bd
       -0.24363203 -0.30666775 -0.07646401 -0.12444026
0001f0 68 fe 70 3c 15 ef 7f bd d6 5b 5d bc fd 86 4a 3d
       0.014709093 -0.062483866 -0.013510665 0.04944514

linear2.weight f4 [3, 128]
000000 23 0c aa bb 1a 96 86 bc 5f 39 85 3b 27 98 01 be
       -0.005189435 -0.016428996 0.004065677 -0.12655698
000010 ca 09 72 bd 30 44 60 3b e0 4a 40 bd 16 03 91 3d
       -0.059091367 0.003422033 -0.046946406 0.07080667
000020 8b 32 13 3d fb aa 38 3e 52 a8 60 be 26 5f 05 bd
       0.035936873 0.18033974 -0.21939209 -0.032561444
000030 44 60 55 bd 4a 9d 87 3d 7f 67 e3 bd cc 70 d2 bd
       -0.05209376 0.066217974 -0.11103725 -0.102754205
000040 cd 64 8b 3b 5b 89 70 3d e1 0d 6d be 63 46 b1 3d
       0.0042539597 0.058724742 -0.23149826 0.08656003
000050 05 e1 46 bc be 03 88 bd 01 23 48 3e 52 f4 12 bd
       -0.01213861 -0.06641339 0.19544603 -0.035877533
000060 6d c4 64 bb 0b 40 64 3d 75 e2 36 3d 9e ff 82 bc
       -0.0034907118 0.05572514 0.04464956 -0.015991028
000070 41 8b ac 3a eb 29 80 3d fb be ed 3c 56 14 06 bd
       0.001316406 0.06257995 0.02902173 -0.032734238
000080 54 5a bf bc 4d 05 21 be 8d 98 9d bc 5d 78 85 be
       -0.023358501 -0.15724678 -0.019237781 -0.26068392
000090 4f 27 d1 3c d5 23 58 bd 59 0c 53 3c 49 f6 c8 3c
       0.02553144 -0.052768547 0.012881362 0.0245315
0000a0 ae 2b 55 3e 7c ee 0b 3e 69 f0 c1 bc cf ee 12 be
       0.20817444 0.13665193 -0.023674207 -0.14348911
0000b0 9b 2c d8 3c ac 52 20 bd 27 22 d3 3c 44 4d 92 bc
       0.026388457 -0.039141342 0.025773121 -0.017859109
0000c0 f6 bb 2e 3d 15 f0 83 3c 4f f4 1d bd 69 24 8f 3c
       0.042659722 0.016105691 -0.03856307 0.017473416
0000d0 07 72 05 3d 4b a2 c9 3a 05 85 45 bd 6a d9 ab 3b
       0.032579448 0.001538345 -0.04822256 0.0052444236
0000e0 80 be 47 bd 78 48 89 bc 17 20 8b bd 64 94 10 be
       -0.04876566 -0.016758189 -0.0679323 -0.14119107
0000f0 81 f0 29 bd 0a 04 ae 3d fe e3 6b ba 4c 2e 3e 3c
       -0.041489128 0.08496864 -0.0008998512 0.011607718
000100 0c 90 3f 3d 76 ed a9 3a ab 96 3a 3a 58 66 3a bd
       0.046768233 0.0012964446 0.0007117788 -0.04550776
000110 0f 0f 83 3c 28 23 3f 3d 73 c3 71 bc 2e d3 00 3d
       0.015998391 0.046664387 -0.014756071 0.031451397
000120 a7 07 14 bd 03 54 e4 3b d5 5a 2f bb 1e 23 1c be
       -0.03614011 0.006968023 -0.002675702 -0.15247771
000130 f0 0a 1e 3c 40 f1 c0 3b 53 dc b1 bc 20 33 f8 3c
       0.009646162 0.0058881342 -0.021711504 0.030297816
000140 37 af 0b 3e 8b cd 0d 3d d0 bc 94 bc 09 be 7c bd
       0.13641058 0.03461985 -0.018156439 -0.06170467
000150 59 f3 3c bb b6 70 bd bc 30 ca d7 bb 0f d1 2e 3d
       -0.002883157 -0.023125034 -0.006585382 0.042679843
000160 a0 64 0c 3d b3 80 e1 bd cf d4 a7 bc 35 92 0e 3e
       0.03427565 -0.110108756 -0.020487217 0.13922961
000170 6d 94 07 bd 53 9f 19 3e 27 d0 28 be fa ba fa bc
       -0.033100534 0.15002184 -0.16485654 -0.030606735
000180 13 33 2b bd 85 51 84 bd 68 b9 e1 3c 64 8e 0e 3e
       -0.041796755 -0.06460861 0.027554229 0.13921505
000190 6b 14 42 bd 20 e4 9e 3b 9d 64 3c bd ff 04 32 3d
       -0.047382753 0.004848972 -0.04599439 0.043461796
0001a0 ef 5b 50 3d fd 96 97 bd 5b a5 37 3d 91 51 29 bd
       0.050868925 -0.074018456 0.04483543 -0.041337553
0001b0 2f c0 06 3e da 70 5d 3b dd 00 75 3b 42 d0 24 ba
       0.1315925 0.0033789189 0.0037384548 -0.00062871363
0001c0 2b 79 bc bb c0 07 31 3b 63 9c 1e 3d d6 10 59 bd
       -0.005751749 0.0027012676 0.03872336 -0.05299457
0001d0 9f e8 fe 3d 0b 1c f1 bc 58 85 9d bd 56 9a f5 bd
       0.12446713 -0.029432317 -0.07691449 -0.11992328
0001e0 76 d7 a5 3b b7 10 bd bc 2f da b8 bd 01 06 32 bd
       0.0050610853 -0.02307926 -0.0902599 -0.043462757
0001f0 2a 8f c8 3d 71 b2 9f 3c 0d 69 4d be b9 18 dc 3d
       0.097929314 0.019494267 -0.20059605 0.10746903
000200 29 8a f3 bc 6c c0 0a bb 23 7e d1 3c a6 67 0a be
       -0.029728966 -0.0021171821 0.025572842 -0.13516101
000210 50 f2 10 be ed 2f 66 bd 86 0c ca bb 4d 8c ab 3d
       -0.14154935 -0.05619805 -0.0061660437 0.083763696
000220 df 58 3d 3d ee d3 0f 3e cc 47 33 be 15 7b a5 bb
       0.046227332 0.14045689 -0.17507857 -0.005050073
000230 8d c9 2e bd f4 61 2f 3d 1c 6b c8 bd 0e f2 d3 bd
       -0.042672683 0.042818025 -0.097860545 -0.10348903
000240 f7 56 af bc cb 14 d5 3d 61 ef 4e be 9a 10 7c 3d
       -0.021403773 0.104043566 -0.20208503 0.06153927
000250 04 7b fd bb fc 4e c1 bc c3 77 42 3e 17 cf 25 be
       -0.007735612 -0.023597233 0.18990998 -0.1619228
000260 da f0 97 3c b0 2a e8 3d af 78 08 3d 2a 0f ff 3c
       0.018547464 0.11336267 0.033318218 0.03113516
000270 fd 68 10 3d 5b 6a 98 3d b9 00 3f 3e 96 dd 82 bd
       0.035256375 0.07442161 0.1865262 -0.063899204
000280 55 75 a1 3d 8f f7 a7 bd 0d 9b 0b bd 6e 15 18 be
       0.078837074 -0.08201515 -0.034083415 -0.14851925
000290 fa cb 29 3d 43 48 4a 3a 33 09 06 bd 07 9b a8 bb
       0.041454293 0.00077164563 -0.032723617 -0.005145434
0002a0 bc 86 38 3e fd 5f 24 3e 86 ef 1d bd cf 88 29 be
       0.18020147 0.16052242 -0.038558505 -0.16556095
0002b0 7b 51 22 3c 71 69 f4 bc b2 4c 17 bd 33 bd 8e 3c
       0.009907122 -0.029835435 -0.036938377 0.017424202
0002c0 61 6f 99 3c f3 aa 0f bd b9 76 23 3e 48 b0 71 3d
       0.018729867 -0.03507514 0.15963258 0.059006006
0002d0 f6 c6 81 bd 0a 91 2a 3d 19 69 8a 3b fa 33 3c 3d
       -0.06336777 0.041642226 0.0042239544 0.045948006
0002e0 8f 51 87 3c 9e 1c 25 bd 9c 23 e6 3d 44 ed a8 bd
       0.016518382 -0.040310495 0.11237261 -0.0824838
0002f0 7d b4 40 bc 66 f9 c4 3d 24 5a e4 bd a6 c1 b6 bc
       -0.011761782 0.096178815 -0.111500055 -0.022309136
000300 48 5b 5a bc 99 42 90 bd f1 66 b0 3c 08 30 30 3a
       -0.013327427 -0.070439525 0.021533461 0.00067210244
000310 3f 13 1d bc ca 1c ff 3c 71 3d a9 bc f3 f0 8e 3d
       -0.009587108 0.031141657 -0.02065918 0.06979551
000320 5c 89 3f bd f6 02 f9 3b 01 6a ae 3c 2d 04 21 be
       -0.046761855 0.00759923 0.021290781 -0.15724249
000330 45 b9 3a 3e a2 fe 20 3e 38 f6 8e 3c ef fb 1c 3d
       0.18234737 0.15722135 0.01745139 0.0383262
000340 3c 0d 7b 3d a3 e6 45 3c 8a b1 55 bd 38 5b 7d bd
       0.06129192 0.012078914 -0.052171268 -0.06185457
000350 e1 a2 91 3d 4c 9f ff bb 5e fb 1c 3e 60 38 01 3d
       0.07111145 -0.007800972 0.15330264 0.031547904
000360 33 fc 21 3d 6b da df bd 4f ab 53 3d 77 59 0d 3e
       0.039547157 -0.10930332 0.051677044 0.1380366
000370 dd ae 2a 3d 96 90 25 3e 1e 2e 4b be 3a 38 b8 3a
       0.04167067 0.16168436 -0.19841811 0.0014054843
000380 88 0c 5a bd 74 a8 9a 3b 7b db a9 3d ce f8 bc 3d
       -0.053234607 0.004719788 0.08293816 0.09227143
000390 7a f7 eb bc a1 90 28 3e 75 de 1b bd 45 48 98 bc
       -0.02880453 0.16461422 -0.03805395 -0.018589148
0003a0 00 15 7c bc 0f 3a cf bd 69 48 a4 3d 96 c2 2e bc
       -0.015385866 -0.10118496 0.08021624 -0.01066651
0003b0 af 0e 84 3b 92 53 74 3c cd a0 58 bc e9 52 fa bb
       0.0040300707 0.014912503 -0.013221932 -0.007639278
0003c0 3a 18 80 3b c3 5b 15 3e 65 b5 cb 3d f5 7c 0c bd
       0.003909138 0.14585786 0.09946708 -0.034298856
0003d0 6d 1b 35 3d 4e 04 f3 bb 87 e4 b6 bc 8a b2 44 be
       0.04421561 -0.0074162846 -0.022325767 -0.19208732
0003e0 3b d9 ac 3c f3 17 88 bd 09 e6 bf 3d 34 9f 4f 3e
       0.021099677 -0.06645193 0.093700476 0.20275575
0003f0 e8 f6 de 3c 3a 95 3e 3d c6 46 9e be 3f 7b ec 3d
       0.027217343 0.046529032 -0.3091337 0.11546945

linear2.bias f4 [3]
000000 f9 4f 29 3c 40 ff bb 3d d8 ea 08 3e
       0.010334008 0.091795444 0.13370836
