from_youtube/model/model_LR=0.1 Gamma=0.9 Ie=0.2% Fe=0.05% eDecay=0.01%.pth (torch, 2477 bytes, 4 tensors)

linear1.weight f4 [6, 13]
000000 e6 7e 0f bf dd 22 47 bf ab b1 13 bf 21 45 f4 be
       -0.56053007 -0.7778757 -0.57692975 -0.4770899
000010 48 61 3b bf 59 3b c7 be 32 76 1a bf df e2 10 bf
       -0.73195314 -0.38912466 -0.603366 -0.5659618
000020 aa a4 01 bf 87 ca ec be e1 06 53 bf 34 ac 5c bf
       -0.5064188 -0.46248266 -0.8243237 -0.8620026
000030 dd ba 31 bf 75 97 24 bf 17 4c 4a bf d3 f0 63 bf
       -0.69425756 -0.64293605 -0.79022354 -0.89039344
000040 0e 5a 45 bf 6a bc 1f bf 44 87 c5 be b1 4c 5b bf
       -0.7709054 -0.6239687 -0.38579762 -0.85663897
000050 5a 8d de be 71 bd fd be 09 49 24 bf 7c 81 fb be
       -0.43467218 -0.49558595 -0.6417394 -0.49122226
000060 74 2f 17 bf e0 47 39 bf 63 ea 94 bf b7 e5 c8 bf
       -0.5905678 -0.723753 -1.1634029 -1.5695103
000070 06 7f b3 bf 7c cf a8 bf d9 43 b4 bf b8 93 c2 bf
       -1.402314 -1.3188319 -1.4083205 -1.520133
000080 c7 37 88 bf 3c 17 b4 bf 2b 1d a1 bf 69 a5 c2 bf
       -1.0642022 -1.406959 -1.2587026 -1.5206729
000090 a6 aa a5 bf e3 44 9a bf 14 34 57 3e 3d a0 3e bf
       -1.2942703 -1.2052273 0.2101596 -0.74463254
0000a0 01 e7 51 bf ff ca f7 be 7e e3 35 bf a0 5f 36 bf
       -0.8199311 -0.4839706 -0.7105025 -0.7123966
0000b0 1b b5 0f bf 16 a5 9b bf 45 6f 8c bf 7d f3 c3 bf
       -0.5613572 -1.2159755 -1.0971457 -1.5308682
0000c0 c5 8d 8d bf 3d 4a 91 bf 18 d6 80 bf d2 24 3b bf
       -1.105889 -1.1350781 -1.0065336 -0.7310306
0000d0 bf e3 ae bf bd 17 b7 bf 0a 9f 8b bf 20 2d ac bf
       -1.3663253 -1.4304119 -1.090791 -1.3451271
0000e0 33 cd 9b bf 20 72 b3 bf 44 86 a6 bf 12 7a 90 bf
       -1.2171997 -1.4019203 -1.3009725 -1.1287253
0000f0 6e 94 88 bf 5c b3 a2 bf 4d ce 92 bf 44 6b 80 bf
       -1.0670297 -1.2710986 -1.1469208 -1.0032735
000100 f1 2e 8d be 86 c8 fe 3c 16 ef ae be 23 2d 14 bf
       -0.27574876 0.031101476 -0.34166783 -0.57881373
000110 79 be f2 be be 69 13 bf 12 f5 85 be 69 9d 1f be
       -0.47410944 -0.57583225 -0.26163536 -0.15587391
000120 4e ce 4b bf 83 86 2a bf a1 b4 eb 3d ab e2 f8 bc
       -0.7961167 -0.666115 0.115090616 -0.030381521
000130 9b 52 e1 bd 68 6a 2f bf
       -0.11002084 -0.6852174

linear1.bias f4 [6]
000000 67 a6 91 3f 36 27 1d 40 02 c5 8d 3f b3 7f 15 c0
       1.1378907 2.4555182 1.1075747 -2.3359191
000010 0b 1c 97 3f 8e 95 1a bf
       1.1805433 -0.6038445

linear2.weight f4 [3, 6]
000000 a5 40 04 bf 92 8f c2 be 6d 4b 62 be 7d 74 7f bf
       -0.5166114 -0.3800016 -0.22099085 -0.9978712
000010 b5 58 9a 3e 28 5f 42 bf 9d 3d 23 40 52 a8 2d 40
       0.30145803 -0.75926447 2.5506356 2.7133985
000020 ae 70 87 40 24 2e 8b be ec 03 1e 40 4e f9 c0 be
       4.232505 -0.2718364 2.4689894 -0.37690204
000030 78 5d c8 be 36 17 30 3e b5 7f ec bd 0a 38 3b bf
       -0.3913381 0.17196354 -0.11547796 -0.73132384
000040 bd 9f 89 be 49 1b 81 3e
       -0.26879683 0.2521613

linear2.bias f4 [3]
000000 3f 4c a9 c1 b5 5d a4 c1 2a 57 9f c1
       -21.16223 -20.545755 -19.91756
