from_youtube/model/model_LR=0.1 Gamma=0.8 Ie=0.2% Fe=0.05% eDecay=0.0.pth (torch, 2465 bytes, 4 tensors)

linear1.weight f4 [6, 13]
00000000: 618e 113f 93e6 063f 3853 323f fb24 ae3e
00000010: 93a8 5f3e f2cb 9a3e ba93 473d 1f6d e0bd
00000020: 3db8 963e 14a0 7d3e d4d4 703e b454 303e
00000030: db13 d6bd 4cd7 11bf 659b 1ebf 7132 c1be
00000040: 6abf 1cbf 9e5e 5cbf b6b7 11bf 0930 4dbf
00000050: 3eb7 3dbf 8567 fabe a224 b5be b06b ecbe
00000060: d24c 1fbf fc1f 00bf faaf 813e 5c8b 3f3d
00000070: 7cc2 48be 4a47 d3bd 3123 3bbe 8ca5 6cbd
00000080: 8ab8 68be 06ff 673e 8cb6 a3bd e8bc 893b
00000090: 6851 54bd 6291 303e f42c 38be 505a 263f
000000a0: dcf8 1e3f b7b4 453f eb37 123f 4e54 e43e
000000b0: ce30 103f 070a 593e 7db8 82bd c7fa 373e
000000c0: cf0b 913c bfc7 7b3e fb85 4b3e 50e2 1e3d
000000d0: 98de c1be 07a9 32bf 90f0 adbe c46d 12bf
000000e0: 6aee 23bf 0a91 abbe f7cc eebe b1c3 5abf
000000f0: 37f8 0ebf f8f4 aabe ee7f b5be 0767 40bf
00000100: 0221 f7be c5d4 1ebf 3006 34bf cdf1 30bf
00000110: b198 58bf 9162 57bf 1c7b 30bf efa9 39bf
00000120: 9d7d 3abf d2dd dbbe 3503 dbbe 8c74 53bf
00000130: d6a5 46bf 4e5a dbbd
0.5685788 0.5269558 0.6965823 0.3401259 0.2184165 0.30233723 0.048724867 -0.10958313
0.29437438 0.24768096 0.23518687 0.17219812 -0.10453006 -0.5696914 -0.61955863 -0.37733796
-0.61229575 -0.86081874 -0.56920946 -0.8015142 -0.7410773 -0.48907104 -0.3537951 -0.4617591
-0.62226593 -0.50048804 0.25329572 0.046763763 -0.1960544 -0.10316332 -0.18275143 -0.057775065
-0.22726646 0.22655877 -0.079938024 0.0042034276 -0.051835448 0.17242959 -0.17985898 0.64981556
0.6209848 0.77228874 0.57116574 0.4459557 0.5632447 0.21195231 -0.063828446 0.17966758
0.017705826 0.24587916 0.19875328 0.038790047 -0.37865138 -0.69789165 -0.33972597 -0.5719874
-0.64035666 -0.33509094 -0.4664075 -0.8545485 -0.55847496 -0.3339002 -0.35449165 -0.7515721
-0.4826737 -0.6204341 -0.7032194 -0.6911896 -0.8460799 -0.84134775 -0.6893785 -0.72524923
-0.7284792 -0.42942673 -0.42775884 -0.8259971 -0.77596796 -0.107105836

linear1.bias f4 [6]
00000000: ea6b 53bf d72b aabe 2a2a 76be 5da8 b5be
00000010: a411 f0be 99dc a73e
-0.8258654 -0.33236572 -0.24039522 -0.35480013 -0.4688846 0.3278549

linear2.weight f4 [3, 6]
00000000: 65d8 59be aece eabe 1859 943d db4f abbd
00000010: da00 f8be 7ca2 9ebe ed30 cebe afda 0cbe
00000020: 6ff9 b1be 387e b6be e043 85be 35cd cc3e
00000030: 2935 94b9 7a25 b73e e708 8abd 1e32 36be
00000040: 9725 333f eb8b 7c3f
-0.21273954 -0.4586081 0.07243556 -0.083648406 -0.4843815 -0.3098334 -0.40271702 -0.13755296
-0.34760615 -0.35643172 -0.26028347 0.4000031 -0.00028268367 0.3577078 -0.06739979 -0.17792556
0.6997923 0.98651

linear2.bias f4 [3]
00000000: ab4b 28bf b116 f3bd f93e 423f
-0.6574046 -0.118695624 0.7587734
