from_youtube/model/model.pth (torch, 22163 bytes, 4 tensors)

linear1.weight f4 [286, 13]
0	0x3e38adad	0.18035002
1	0xbd87ff75	-0.066405214
2	0xbe6f26e5	-0.23354681
3	0xbe347e07	-0.176262
4	0xbe7ed54e	-0.24886057
5	0x3d8a849a	0.06763573
6	0xbe7e2ebc	-0.24822515
7	0x3e81a994	0.2532469
8	0xbe846574	-0.25858653
9	0x3e02012f	0.12695764
10	0x3c8d6899	0.01726179
11	0x3e3a2dd4	0.18181545
12	0x3e427ca8	0.18992865
13	0x3df9c351	0.12195457
14	0xbbb56e40	-0.0055368245
15	0xbe258514	-0.16164047
16	0x3e86ba84	0.26314175
17	0x3e7f4c4a	0.24931446
18	0x3e88354d	0.26603165
19	0xbdfc3f5e	-0.12316774
20	0x3c9bcb02	0.0190177
21	0xbdba2762	-0.09089543
22	0x3e5cbc81	0.21556284
23	0xbe088c1d	-0.13334699
24	0xbe803ebf	-0.2504787
25	0x3cdf7b23	0.027280396
26	0xbe6ed11a	-0.23321953
27	0x3c2be56f	0.010491713
28	0xbbd0cfaa	-0.0063724117
29	0x3e2ac67a	0.16677275
30	0xbd56808f	-0.052368697
31	0xbe07f0a2	-0.13275388
32	0xbd946b83	-0.07247069
33	0xbd77b8b8	-0.060478896
34	0xbd3946c2	-0.045233496
35	0x3dd79f1a	0.10528393
36	0xbd01001c	-0.031494245
37	0x3dd5d439	0.10440869
38	0x3c0e28ae	0.008676691
39	0xbd58a0f4	-0.05288787
40	0xbd0007f2	-0.031257577
41	0xbe39a9f9	-0.18131246
42	0xbde2a501	-0.11066628
43	0x3e8b4f30	0.27208853
44	0x3decd2e4	0.11563662
45	0xbdb1f0d5	-0.08688513
46	0x3c2442f3	0.010025728
47	0xbe477036	-0.19476399
48	0xbdafa1e1	-0.08575798
49	0xbdc6c287	-0.09705072
50	0x3e3f9add	0.1871142
51	0x3e1f1a63	0.1553741
52	0x3d65045d	0.055912364
53	0x3c1dffa6	0.009643471
54	0x3d70745a	0.05870471
55	0x3e020850	0.12698483
56	0x3c35990d	0.011083853
57	0xbdeea066	-0.11651687
58	0xbe731ae5	-0.23740728
59	0x3e7d1641	0.2471552
60	0x3da6b156	0.08139293
61	0xbe4a3222	-0.19745687
62	0xbe586a5d	-0.21134324
63	0x3e61fbcc	0.22068709
64	0xbe1ce449	-0.15321459
65	0xbe202e29	-0.15642609
66	0x3e7b064f	0.24514125
67	0xbe6d3c13	-0.23167448
68	0x3e278b50	0.16361737
69	0xbd97c934	-0.07411423
70	0xbe7ee437	-0.24891745
71	0xbd8efb06	-0.06981473
72	0x3e18afe4	0.14910847
73	0xbe0960f3	-0.1341589
74	0xbd39c0f9	-0.04535005
75	0xbdcc716b	-0.0998257
76	0x3e02efd5	0.12786801
77	0xbe498b3e	-0.19682023
78	0xbd646d27	-0.05576816
79	0x3e550205	0.20801552
80	0xbe0b08ac	-0.13577527
81	0x3e7f297c	0.24918169
82	0xbe782c7b	-0.24235718
83	0xbe69fefd	-0.22851177
84	0x3d47dc2e	0.048793964
85	0xbe50aa07	-0.2037736
86	0x3dde56b0	0.10856378
87	0xbe3a7f60	-0.18212652
88	0x3e61b84a	0.22042957
89	0x3e5f82a1	0.21827175
90	0x3e849c5a	0.25900537
91	0x3e6806d9	0.22658862
92	0xbe413e12	-0.18871334
93	0xbdc4ae96	-0.09603612
94	0xbe866255	-0.26246896
95	0x3c23adde	0.009990184
96	0xbe240557	-0.16017662
97	0xbe5a68f9	-0.21329106
98	0xbe36acb9	-0.17839326
99	0xbd8c6c4d	-0.06856594
100	0x3dfa0519	0.122080036
101	0xbe03d32e	-0.12873527
102	0xbe635f1f	-0.22204255
103	0xbe8c806a	-0.27441722
104	0x3d233367	0.039843943
105	0x3e4ba302	0.19886401
106	0xbe7a2680	-0.24428749
107	0x3e07ae50	0.13250089
108	0xbdde1ded	-0.10845552
109	0xbe4baef8	-0.19890964
110	0x3e442cef	0.19157766
111	0xbe29be43	-0.16576485
112	0xbe036efa	-0.12835303
113	0x3e5aa242	0.21350959
114	0xbe1d932b	-0.15388171
115	0x3bb2eb9d	0.005460216
116	0x3deaf0e8	0.114717305
117	0xbe409984	-0.18808562
118	0xbca87946	-0.02056564
119	0xbe160da4	-0.14653641
120	0xbbc15aff	-0.00590074
121	0xbd57c1d8	-0.0526751
122	0x3e59f3c7	0.212844
123	0xbe6876b2	-0.22701529
124	0xbbb9b0be	-0.0056668213
125	0xbd029678	-0.03188178
126	0x3d5fc720	0.05463326
127	0xbd87a9ed	-0.06624208
128	0xbe07b630	-0.13253093
129	0xbba41c4d	-0.0050082565
130	0x3e2733d5	0.16328366
131	0x3e220d8e	0.15825483
132	0xbddc0b00	-0.107442856
133	0xbdea83e4	-0.114509374
134	0xbde27719	-0.11057872
135	0xbe660acc	-0.22465056
136	0xbe5dc1cb	-0.21655957
137	0xbddc1d85	-0.10747818
138	0x3e6da8e5	0.2320896
139	0x3e77c37c	0.24195665
140	0xbe7e3e7c	-0.24828523
141	0xbe35bce6	-0.1774784
142	0xbe35da1e	-0.17758986
143	0xbe3cc97b	-0.18436234
144	0x3e3cf0bd	0.1845121
145	0xbe7ae965	-0.24503095
146	0xbd6db704	-0.058035865
147	0xbe45739e	-0.19282386
148	0xbd749b5c	-0.059718475
149	0xbccb84da	-0.024843622
150	0xbcc1585e	-0.023601707
151	0xbde02cd3	-0.109460495
152	0x3e4a54cf	0.19758914
153	0x3da520fa	0.080629304
154	0xbe1b82b0	-0.15186572
155	0xbdbb618c	-0.09149465
156	0x3c133b1d	0.008986262
157	0xbe2677a3	-0.16256575
158	0xbe22683e	-0.15860078
159	0xbe92d9ac	-0.28681695
160	0x3e265f19	0.16247214
161	0x3c5dcc60	0.013537496
162	0x3e10389d	0.14084096
163	0xbd87c6f8	-0.06629747
164	0x3e8660d4	0.2624575
165	0xbda69562	-0.08133961
166	0xbddeb9c2	-0.10875274
167	0x3e19213f	0.14954089
168	0x3e322b54	0.17399341
169	0xbe36b986	-0.17844209
170	0xbde9cf35	-0.11416475
171	0xbe8febe1	-0.2810965
172	0xbe2e34a4	-0.17012268
173	0xbcd941fe	-0.026520725
174	0xbe57333f	-0.21015643
175	0x3ddb061b	0.10694524
176	0xbe24f77d	-0.16110034
177	0xbdadfe6e	-0.08495794
178	0xbe49ef26	-0.19720134
179	0xbe1035ae	-0.14082977
180	0xbdb7d31d	-0.089758135
181	0xbe55462a	-0.20827547
182	0x3e183d19	0.14867057
183	0x3c28573f	0.010274707
184	0xbe38b5da	-0.18038121
185	0x3dbc034d	0.09180317
186	0xbe92dc01	-0.28683475
187	0xbe80b703	-0.25139627
188	0x3d0f48dd	0.034981597
189	0xbd43dee6	-0.047819994
190	0x3e225401	0.15852357
191	0x3e55ac74	0.20866567
192	0x3e7d2295	0.24720223
193	0x3e538f07	0.2066003
194	0x3e2e976a	0.17049947
195	0x3e1e024b	0.15430562
196	0xbd1ba80d	-0.038002063
197	0x3d59b617	0.05315217
198	0x3e7d2746	0.24722013
199	0xbcd38117	-0.02581839
200	0xbe46b148	-0.19403565
201	0x3e1f4be0	0.15556288
202	0x3e8748db	0.26422772
203	0x3e821dfd	0.25413504
204	0x3e02cf37	0.12774359
205	0xbb653c28	-0.0034978483
206	0x3d985bc6	0.074393794
207	0xbcd4d366	-0.025979709
208	0xbe75c07d	-0.2399921
209	0x3da873d3	0.08225217
210	0xbd192bac	-0.037395164
211	0xbdfe7c90	-0.12426102
212	0x3df974b3	0.12180462
213	0xbe70efc4	-0.23528963
214	0x3e85c73c	0.26128566
215	0xbdb88cce	-0.09011231
216	0xbe7bae76	-0.2457827
217	0xbe4e814e	-0.20166513
218	0x3e73703d	0.23773284
219	0xbe55e3f2	-0.20887735
220	0xbe7335fc	-0.23751062
221	0xbe5c49fe	-0.21512601
222	0x3e7e9bb4	0.24864084
223	0x3dd99cbd	0.106255986
224	0x3cea17f4	0.028575875
225	0xbe081729	-0.13290085
226	0x3e28f9c7	0.16501532
227	0x3dfc88f7	0.123308115
228	0xbe898d81	-0.2686577
229	0x3c24a8bb	0.010049994
230	0x3e59fbae	0.21287414
231	0xbd9f986d	-0.07792745
232	0x3e348e77	0.17632471
233	0x3d1f60a0	0.03891051
234	0x3dd84f9f	0.105620615
235	0x3e82c2ce	0.2553925
236	0x3e880a8d	0.2657055
237	0x3e31f58b	0.17378823
238	0x3e368acd	0.17826386
239	0x3e0b24af	0.13588212
240	0xbe89808d	-0.2685589
241	0xbd9894b4	-0.07450238
242	0x3e5ca766	0.21548232
243	0xbc6e4ebd	-0.01454514
244	0x3e755b80	0.23960686
245	0x3d96faf0	0.07372081
246	0x3d87e387	0.06635194
247	0x3e80ce8b	0.2515758
248	0xbe8cf1f9	-0.2752836
249	0x3e5fe227	0.21863614
250	0x3e65abb9	0.22428788
251	0x3e49e7cc	0.1971733
252	0x3e56e6ce	0.20986483
253	0x3d5080c5	0.050904054
254	0xbda84310	-0.08215916
255	0x3e21f5d8	0.15816438

linear1.bias f4 [286]
0	0xbde92281	-0.11383534
1	0xbdff9993	-0.12480464
2	0x3dd7f6d0	0.105451226
3	0x3d6a8ceb	0.057263296
4	0x3e7db66e	0.24776623
5	0x3e401164	0.18756634
6	0x3e910806	0.28326434
7	0xbde11d5b	-0.10991927
8	0x3cbc6cfd	0.023001188
9	0xbdb5322a	-0.08847459
10	0xbe27fa82	-0.16404155
11	0x3d84b25a	0.0647933
12	0x3e62e6e3	0.22158389
13	0xbdc051d5	-0.09390608
14	0xbaa9cf86	-0.0012955524
15	0x3d22c6f9	0.039740536
16	0xbda1a892	-0.0789348
17	0xbcbe7d0e	-0.02325299
18	0xbbcdec86	-0.0062842993
19	0xbe03e518	-0.12880361
20	0x3e90a451	0.28250363
21	0x3de7aa5a	0.11311789
22	0x3e6ecfed	0.23321505
23	0xbe6453ba	-0.22297564
24	0x3e2f8ab5	0.17142756
25	0xbdf93b3c	-0.12169501
26	0x3e08a4aa	0.13344064
27	0xbe4c697f	-0.19962119
28	0x3d90343d	0.07041214
29	0x3e584b36	0.2112244
30	0x3e7a6edd	0.24456353
31	0x3e7cf4a3	0.24702697
32	0xbcc512cd	-0.024056816
33	0x3dfc97cc	0.123336405
34	0x3e3db17d	0.18524738
35	0x3dbeb065	0.09310988
36	0x3cfcde52	0.03086773
37	0x3c861891	0.016369136
38	0xbe81d1e9	-0.2535546
39	0x3d678d38	0.05653116
40	0x3df2d712	0.11857428
41	0x3e1e2a5d	0.15445848
42	0x3da4a8a8	0.08039981
43	0xbe53b354	-0.20673877
44	0xbe6626e1	-0.22475769
45	0x3e6df8cb	0.23239438
46	0xbc0662fe	-0.0082023125
47	0xbd9ed565	-0.077555455
48	0x3e59c413	0.21266203
49	0x3e560bbf	0.20902918
50	0x3e60fbd2	0.21971062
51	0x3e41ab3c	0.18912977
52	0x3e5f615a	0.2181448
53	0xbd997be7	-0.074943356
54	0x3e711712	0.23543957
55	0xbdab1b1b	-0.08354779
56	0xbd9505e7	-0.072765164
57	0x3e7903e3	0.24317889
58	0xbd349e77	-0.044096436
59	0xbd3d4f98	-0.046218485
60	0xbe54ad03	-0.20769124
61	0xbe49ab81	-0.1969433
62	0x3d88371c	0.06651136
63	0x3e517b17	0.20457111
64	0x3e18f621	0.1493764
65	0xbe5d7ca4	-0.21629578
66	0xbe84d047	-0.25940153
67	0x3c5ee173	0.013603556
68	0xbdd40a9a	-0.103535846
69	0xbdd7c761	-0.105360754
70	0x3e905de7	0.28196642
71	0xbe6c8484	-0.23097426
72	0xbc53cc8c	-0.012927186
73	0xbdf0496b	-0.11732753
74	0x3e82f0c9	0.2557433
75	0xbdf66eb1	-0.120328315
76	0x3da1e37a	0.07904716
77	0x3c978bfa	0.018499363
78	0xbe4b9d61	-0.19884254
79	0xbcd4b0c9	-0.025963204
80	0x3e39a40a	0.18128982
81	0x3cb06df2	0.021536801
82	0x3ddf7ed7	0.10912865
83	0x3d7a144a	0.061054505
84	0xbd73c19f	-0.059510823
85	0x3e045448	0.12922776
86	0xbe496256	-0.19666418
87	0xbdcbc348	-0.09949356
88	0x3e44d3d5	0.19221433
89	0x3e6c50b0	0.23077655
90	0xbd5791be	-0.052629225
91	0x3d86117f	0.06546306
92	0xbcb86167	-0.022507383
93	0xbbc40f44	-0.005983265
94	0x3e82ea09	0.2556918
95	0xbe0b3a77	-0.13596521
96	0x3de541d7	0.111941986
97	0x3df04282	0.11731435
98	0xbdfd0ae7	-0.12355595
99	0x3e5dd84c	0.21664542
100	0xbe90238d	-0.28152123
101	0xbcc447e0	-0.023960054
102	0x3e79b22c	0.24384373
103	0xbe859d4e	-0.26096576
104	0x3d25f838	0.040519923
105	0x3d229668	0.03969422
106	0xbe72dfee	-0.23718235
107	0x3dbd8cac	0.09255347
108	0x3da5259b	0.08063813
109	0x3d9d0c9c	0.07668421
110	0xbe55364f	-0.20821498
111	0xbd3f4479	-0.04669616
112	0x3c3b79f6	0.011442652
113	0xbe8b9999	-0.27265623
114	0x3d4b97e0	0.049705386
115	0xbe53d9ec	-0.206886
116	0x3e0ef912	0.139622
117	0xbd0bcb38	-0.03412935
118	0x3e74ad3f	0.23894213
119	0xbd0a645e	-0.033787124
120	0xbe868628	-0.26274228
121	0xbe896945	-0.26838127
122	0xbd6f02c3	-0.058352243
123	0x3d14f684	0.036367908
124	0x3cadb1d6	0.021202963
125	0xbe87b41e	-0.26504606
126	0xbe1dc794	-0.15408164
127	0xbdae2878	-0.085038126
128	0x3e6d928d	0.23200436
129	0x3e6de860	0.23233175
130	0xbdbd758f	-0.09250938
131	0xbe2d755d	-0.16939302
132	0xbe498853	-0.1968091
133	0xbc5540c4	-0.01301593
134	0x3ca8bbbd	0.020597333
135	0x3e800a74	0.25007975
136	0xbe3409cb	-0.1758186
137	0xbc74abf7	-0.014933578
138	0x3e4025f2	0.18764475
139	0xbda85d62	-0.08220936
140	0x3df7cf84	0.12100127
141	0xbdf95ad0	-0.12175524
142	0x3e5ff066	0.21869048
143	0xbe8890a6	-0.26672858
144	0x3e1dc26c	0.15406197
145	0x3beb98f2	0.0071898634
146	0x3e390bad	0.1807086
147	0x3e1c97e3	0.15292315
148	0xbd0224db	-0.03177343
149	0x3e8ba91f	0.27277467
150	0xbe762559	-0.24037685
151	0xbdc3c1a3	-0.09558418
152	0x3cf48a60	0.029851139
153	0xbe865f03	-0.26244363
154	0xbe449bcc	-0.19200057
155	0x3e2bede7	0.16789971
156	0x3e111c36	0.14170918
157	0xbe2a5de9	-0.16637386
158	0xbe77c3ee	-0.24195835
159	0x3e4d2352	0.20033005
160	0xbdf7e5c8	-0.12104374
161	0x3c6cc42b	0.014451067
162	0x3da4d98a	0.08049305
163	0x3e048226	0.12940273
164	0x3e2be5ad	0.16786833
165	0x3e0f459e	0.139914
166	0x3e7c0403	0.24610905
167	0xbe67d779	-0.2264079
168	0x3de69ff0	0.112609744
169	0x3e035316	0.12824664
170	0x3d2549e3	0.040353667
171	0xbd9626cf	-0.07331621
172	0x3e38461f	0.17995499
173	0xbe716373	-0.23573093
174	0xbd9c8821	-0.07643152
175	0xbe7564c8	-0.23964226
176	0xbd0da4d3	-0.034581017
177	0xbe04260c	-0.12905139
178	0xbd819679	-0.063275285
179	0xbd9c4d9c	-0.0763199
180	0xbd913165	-0.070894994
181	0x3e77386e	0.2414262
182	0x3e101dbd	0.14073844
183	0x3e82a0be	0.25513262
184	0x3db5579b	0.088546
185	0x3dd5185b	0.10405036
186	0xbe035ea2	-0.12829068
187	0x3d405a10	0.04696089
188	0x3d31b85b	0.043388706
189	0x3dea4814	0.11439529
190	0x3c93d581	0.018046143
191	0x3e4b78b1	0.19870259
192	0x3d95cd1e	0.073145136
193	0xbe89ba7c	-0.2690009
194	0x3e0a51be	0.13507745
195	0x3db2734b	0.08713397
196	0x3d8803b7	0.066413336
197	0x3db7a063	0.08966138
198	0x3e0cd7dc	0.13754219
199	0x3e1da3ae	0.1539447
200	0x3e63b78f	0.22237991
201	0x3e8ad0d4	0.27112448
202	0x3d0446a6	0.032293938
203	0xbd4a22c4	-0.04934956
204	0xbb4669f0	-0.0030275546
205	0x3e390b51	0.18070723
206	0xbe544071	-0.20727707
207	0xbd3b6259	-0.04574809
208	0x3dfb2a35	0.1226391
209	0x3e5bf6b7	0.21480833
210	0x3dbbfb79	0.09178824
211	0x3e686109	0.22693266
212	0x3d8c05f6	0.068370745
213	0x3d754157	0.059876766
214	0x3e3ae498	0.18251264
215	0xbcd482a7	-0.025941206
216	0x3e3b59f7	0.18296038
217	0x3e7179be	0.23581597
218	0x3d9c8c92	0.07643999
219	0xbe7b6b75	-0.2455271
220	0xbda828ca	-0.08210905
221	0xbd49ef0d	-0.049300242
222	0xbe536b18	-0.20646322
223	0xbd873f7e	-0.06603907
224	0x3e18fa08	0.1493913
225	0x3e80f676	0.25188035
226	0xbe66e24e	-0.22547266
227	0x3e50185d	0.20321794
228	0x3e70c637	0.23513113
229	0x3d250122	0.040284283
230	0x3dfa37f0	0.122177005
231	0x3da947ea	0.0826567
232	0x3cd8933c	0.026437394
233	0x3e4baef1	0.19890954
234	0x3e797a8d	0.24363156
235	0x3e578a56	0.21048865
236	0xbe8857c0	-0.26629448
237	0x3da0f12f	0.07858502
238	0xbdef57a5	-0.11686639
239	0xbd1d5410	-0.038410246
240	0xbde465e3	-0.11152246
241	0xbb681fee	-0.0035419422
242	0x3e8945f6	0.26811188
243	0x3d9b8411	0.07593549
244	0xbe2ed901	-0.17074968
245	0x3d8496f4	0.064741045
246	0x3ca20b76	0.019780856
247	0x3e2da7a0	0.16958475
248	0x3e09317c	0.13397783
249	0x3db7c58b	0.08973225
250	0x3de9edfe	0.114223465
251	0xbe90ff4b	-0.28319773
252	0xbe02763a	-0.12740412
253	0x3e27525a	0.16340008
254	0xbdfd613a	-0.1237206
255	0xbd3a4145	-0.045472402

linear2.weight f4 [4, 286]
0	0xbb2d8cd8	-0.0026481654
1	0x3c56a2c6	0.013100332
2	0xbd3f9726	-0.046775006
3	0x3d76dd0f	0.06026941
4	0x3d3f3403	0.04668046
5	0xbd31b718	-0.043387502
6	0x3cb1dc0a	0.021711368
7	0x3d048479	0.0323529
8	0xbbc5b3c2	-0.0060333917
9	0xbd4d43dc	-0.050113544
10	0xbcf9ee64	-0.030509181
11	0xbd471ddd	-0.048612464
12	0xbd1d85cc	-0.038457677
13	0x3d57bc66	0.052669905
14	0x3d16f848	0.036857873
15	0xbd1b7347	-0.037951734
16	0x3cc2ea0f	0.023793248
17	0x3d1239f5	0.035699803
18	0xbcf2000b	-0.029541036
19	0xbca881e2	-0.020569745
20	0xbc41d59b	-0.011830713
21	0x3cdb501c	0.026771598
22	0xbd64d78e	-0.05586963
23	0xbd493451	-0.04912216
24	0x3bbff610	0.0058581904
25	0xbd6584aa	-0.05603472
26	0x3bdac1b8	0.006675925
27	0xb9f9137c	-0.00047507498
28	0x3cf12d9b	0.029440692
29	0x3c761cdb	0.015021528
30	0xbc3748a0	-0.011186749
31	0xbca602f3	-0.020265078
32	0xbd4284af	-0.04748982
33	0x3cc3c1eb	0.023896178
34	0x3d356133	0.04428215
35	0xbbaccfc6	-0.005273792
36	0xbcadbdc5	-0.021208653
37	0x3d4b5510	0.04964167
38	0xbd507841	-0.050895933
39	0xbbf5ce99	-0.007501435
40	0x3d48dfe7	0.049041655
41	0xbd6ca455	-0.057773907
42	0xbd641d3f	-0.055691954
43	0xbb4446bc	-0.0029949388
44	0xbc957c74	-0.01824782
45	0xbd2de54f	-0.042455014
46	0xbce9ab5d	-0.028524095
47	0xbd502dfb	-0.0508251
48	0xbb9513a4	-0.0045494605
49	0xbbed868a	-0.0072487043
50	0xbd63b70f	-0.0555945
51	0x3c2a0d96	0.010379216
52	0xbd2c69d5	-0.042093117
53	0x3c137096	0.008999011
54	0xbc9a1feb	-0.018814048
55	0xbc0d791b	-0.008634831
56	0xbcc451b1	-0.023964735
57	0x3c9739b5	0.018460134
58	0x3c14837f	0.009064554
59	0x3cfae9e5	0.030629108
60	0x3b0c5a06	0.0021415963
61	0x3d44f00e	0.048080496
62	0xbc969bc8	-0.01838483
63	0x3c9a1c19	0.018812226
64	0xbd3a20c7	-0.045441415
65	0xbd5a436e	-0.053286962
66	0xbbab1134	-0.0052205566
67	0xbd160ba8	-0.03663221
68	0x3d258b22	0.04041589
69	0x3d2ec9db	0.042672973
70	0x3c620fec	0.013797741
71	0x3d0138b8	0.03154823
72	0xbcd6a2f5	-0.02620075
73	0xbd280483	-0.041019928
74	0x3c25e7f5	0.010126104
75	0x3d5f917f	0.054582115
76	0xbc667d1e	-0.014067916
77	0xbc2ae14e	-0.010429693
78	0xbcdd415b	-0.027008703
79	0xbd83d9dc	-0.06438038
80	0xbc4a28a4	-0.012338791
81	0xb8ef6c21	-0.00011416549
82	0x3d1a6a05	0.037698764
83	0x3c40f7a0	0.011777788
84	0xbc2fcf4f	-0.010730579
85	0x3c6e5914	0.014547605
86	0x3c6e6bdb	0.014552082
87	0xbd10eb3c	-0.035380587
88	0xbc100421	-0.008790047
89	0x3d5cc476	0.053898297
90	0x3accb48f	0.0015617775
91	0xbc330c4a	-0.010928223
92	0xbbadec3c	-0.0053077023
93	0xbab2355b	-0.0013596223
94	0xbc5ee4f1	-0.013604389
95	0x3a1438f4	0.00056542386
96	0xbd809029	-0.06277496
97	0x3cb4941b	0.022043278
98	0x3d2058bc	0.039147124
99	0x3ca50bad	0.020147169
100	0x3c8b1fd7	0.016982956
101	0x3d21b23a	0.03947661
102	0x3cc1190d	0.023571515
103	0x3bb91c5e	0.0056491336
104	0x3cf3f6a1	0.029780688
105	0x3d60c11b	0.05487166
106	0xbc9e7e1a	-0.01934724
107	0x3d4a22ee	0.049349718
108	0xbd13bbc3	-0.036067735
109	0x3c9dff66	0.019286823
110	0xbb9c2770	-0.0047654435
111	0x3d2061c3	0.039155733
112	0xbca2da96	-0.01987962
113	0x3ce3b1ae	0.027794685
114	0x3c426204	0.011864189
115	0x3d12032b	0.035647552
116	0xbd2366fe	-0.039893143
117	0xbaf45f30	-0.0018644091
118	0xbccfcb78	-0.025365576
119	0x3d178756	0.0369943
120	0x3d400390	0.046878397
121	0xbd2641f3	-0.040590238
122	0x3c3f5192	0.011677163
123	0x3b7fe46d	0.0039046064
124	0x3c78c1f2	0.015182959
125	0x3cf9ad8d	0.030478263
126	0xbcdf448e	-0.02725437
127	0x3d5ab878	0.05339858
128	0x39f71811	0.00047129442
129	0x3d406511	0.046971384
130	0xb9eef657	-0.00045578435
131	0x3d75a4ee	0.059971742
132	0xbd65c8bc	-0.05609964
133	0x3ce82754	0.028339066
134	0x3cdbd2f7	0.026833994
135	0x3d5456e5	0.05184068
136	0xbcbacffd	-0.022804255
137	0x3d61176c	0.054953977
138	0xbcbc56e9	-0.02299066
139	0x3caaf789	0.020869987
140	0xbc6b0392	-0.014344113
141	0x3d43c766	0.047797583
142	0x3c484d6c	0.01222549
143	0x3c407461	0.011746497
144	0xbc1707bd	-0.009218154
145	0xbcdd4428	-0.027010038
146	0x3ab41b09	0.0013740967
147	0xbcfa2145	-0.030533442
148	0x3c114ed1	0.008868889
149	0xbc973757	-0.018459005
150	0xbba1bf85	-0.004936161
151	0x3cf17c93	0.029478347
152	0xbc83c3dc	-0.016084604
153	0x3c8ad530	0.016947359
154	0xbcfcd4dc	-0.030863218
155	0xbd31de67	-0.04342499
156	0x3d249d1a	0.040188886
157	0xbd699bee	-0.05703347
158	0x3d4f75f9	0.050649617
159	0x3d8320f3	0.06402769
160	0xbcf964e1	-0.03044361
161	0xbc833336	-0.01601563
162	0x3d16b7ed	0.0367965
163	0x3cc80d82	0.024420504
164	0xbc847477	-0.016168816
165	0x3d47cbcd	0.048778344
166	0xbd46e4a8	-0.048557907
167	0x3d2bb125	0.041916985
168	0xbd369707	-0.044577625
169	0xbc0b3021	-0.008495362
170	0xbc42d319	-0.01189115
171	0xbd4fef4b	-0.050765317
172	0x3d653a03	0.055963527
173	0xbd1d3104	-0.038376823
174	0xbc322067	-0.010871983
175	0x3c8c2390	0.017106801
176	0xbd5ec7b8	-0.054389685
177	0x3cd3340a	0.02578165
178	0xbcb64445	-0.02224935
179	0xbc88ca56	-0.016698044
180	0xbb9cb66b	-0.004782488
181	0xbd461009	-0.048355136
182	0x3c667715	0.014066477
183	0x3d04d69b	0.032431226
184	0xbc3a4a06	-0.011370188
185	0x3cf598e3	0.029980129
186	0x3d59f610	0.05321318
187	0xba28311d	-0.000641601
188	0x3c48c8a8	0.012254871
189	0x3cc90a0e	0.024540927
190	0x3d260488	0.040531665
191	0x3d05ff45	0.032714147
192	0x3cb9b535	0.022669414
193	0xbbd63150	-0.00653664
194	0x3aa25625	0.0012385292
195	0xbcfa21bc	-0.030533664
196	0x3b4097c6	0.002938734
197	0x3d161057	0.036636677
198	0x3cca00d3	0.024658596
199	0x3d2be68e	0.04196792
200	0xbc6c1ccb	-0.014411162
201	0xbbdb5fc5	-0.006694766
202	0x3c9d784f	0.019222407
203	0xbc537c88	-0.0129081085
204	0x3d597b3a	0.053096034
205	0xbd09a15a	-0.033601142
206	0x3b914150	0.0044328347
207	0xbc1c2685	-0.009530668
208	0x3c253e91	0.010085718
209	0x3b430b6a	0.0029761442
210	0x3cb2e310	0.021836787
211	0x3d30bb41	0.04314733
212	0xbd0cbe1a	-0.034360982
213	0xbd5602db	-0.052248817
214	0xbc42928f	-0.011875763
215	0x3c11faa6	0.008909857
216	0xbcce1181	-0.02515483
217	0xbce745c1	-0.028231503
218	0xbd4d2d31	-0.050091926
219	0x3d484373	0.04889245
220	0xbcbc1981	-0.02296138
221	0xbcd2ba10	-0.025723487
222	0xbcb4515f	-0.022011457
223	0xbca4df5a	-0.020126034
224	0x3d41b438	0.04729101
225	0x3d68e77e	0.056861393
226	0x3d650c1c	0.05591975
227	0xbcb3f33b	-0.021966567
228	0xbd4adfb1	-0.049529735
229	0xbd038b37	-0.032115187
230	0x3d1df09d	0.038559545
231	0xbcac53b6	-0.02103601
232	0x3c19972a	0.009374419
233	0x3d46613a	0.048432566
234	0xbbf82467	-0.007572699
235	0xbcac6de2	-0.02104849
236	0x3d553cba	0.052059866
237	0xbc369986	-0.011145001
238	0xbd1b9d3c	-0.037991747
239	0x3b3e27bc	0.0029015383
240	0xbc91ea1e	-0.017811831
241	0xbd1ebdbf	-0.038755175
242	0xbcc194a5	-0.02363045
243	0x3cf1be85	0.029509792
244	0x3d3bafa0	0.045821786
245	0xbd084ac5	-0.03327443
246	0xbcd65abc	-0.026166312
247	0xbcfab6eb	-0.0306048
248	0x3b0e1a4a	0.002168315
249	0xbc076217	-0.008263133
250	0xbbabd8c9	-0.0052443487
251	0x3cc8e6a4	0.02452404
252	0x3c0c52d9	0.008564674
253	0x3d62b13e	0.055344813
254	0x3d1175ba	0.035512663
255	0x3d2e0462	0.04248465

linear2.bias f4 [4]
0	0xbd71daf6	-0.059046708
1	0xbd11c0f6	-0.035584413
2	0xbba25e97	-0.0049551236
3	0xbca0cd3c	-0.019629113
