from_youtube/model/model.pth (torch, 13715 bytes, 4 tensors)

linear1.weight f4 [256, 7]
0	0xbeac8ceb	-0.33701262
1	0xbdecd06f	-0.11563193
2	0xbe84b3b4	-0.25918353
3	0xbe39a488	-0.1812917
4	0x3e80b3c2	0.25137144
5	0xbe5d8c00	-0.21635437
6	0xbc268d62	-0.010165544
7	0x3e09e873	0.13467579
8	0xbe15c9bb	-0.14627735
9	0x3e6d7d65	0.23192365
10	0xbbdc0b66	-0.006715226
11	0xbe8e733f	-0.278223
12	0xbeb451b5	-0.35218588
13	0x3d9a35fe	0.075298294
14	0x3d831927	0.06401282
15	0x3e5c4739	0.21511544
16	0x3d6251ce	0.055253796
17	0x3d5e5b17	0.05428609
18	0xbef60b82	-0.48055655
19	0x3cf65fcb	0.030074975
20	0xbdbd4e4a	-0.09243448
21	0x3e719ff6	0.23596177
22	0xbeb948ad	-0.3618826
23	0xbe3931c6	-0.18085393
24	0x3d9f8a64	0.07790068
25	0xbe2106b9	-0.1572522
26	0x3e8fb7b9	0.28069857
27	0xbe94bb9f	-0.29049394
28	0xbe0fb0ef	-0.14032339
29	0xbec08199	-0.37598875
30	0x3e828c84	0.2549783
31	0x3ce8365a	0.02834623
32	0xbe33e583	-0.1756802
33	0x3e0b3b7f	0.13596915
34	0xbd93dd7c	-0.07219979
35	0xbeb5062f	-0.3535628
36	0xbdbc5d14	-0.09197441
37	0x3da3424d	0.0797163
38	0x3e5c495a	0.21512356
39	0x3b2640c6	0.0025368198
40	0x3eba0ebd	0.3633937
41	0xbe54ef38	-0.2079438
42	0x3e6ff20f	0.23432182
43	0x3dc29a60	0.09502101
44	0xbe81d24a	-0.2535575
45	0xbe842c5d	-0.25815096
46	0xbed066ab	-0.4070333
47	0x3df654fa	0.12027927
48	0xbe79f7c7	-0.24410926
49	0xbe16dc0d	-0.1473238
50	0xbdccc976	-0.09999363
51	0xbe4f4ade	-0.20243403
52	0xbeac07fa	-0.33599836
53	0x3e15e232	0.14637068
54	0x3c9bed1f	0.019033967
55	0xbe9da896	-0.30792683
56	0x3d9679f0	0.073474765
57	0x3d133fc6	0.03594949
58	0x3dc59fbc	0.096496075
59	0xbe96f720	-0.29485416
60	0x3e2b29af	0.1671512
61	0xbdf4b6e1	-0.11948944
62	0xbe0fd44a	-0.14045826
63	0xbda3f5ee	-0.08005892
64	0xbe8dd703	-0.27703103
65	0xbeaf5914	-0.3424765
66	0x3dd44a76	0.10365765
67	0xbed26155	-0.41089883
68	0x3d586bf6	0.052837335
69	0x3e038ec2	0.12847427
70	0xbe5c13d2	-0.21491936
71	0xbe64cb83	-0.22343259
72	0xbef75d77	-0.48313496
73	0x3df3fbff	0.11913299
74	0xbeba4bbe	-0.36385912
75	0xbe072ff4	-0.13201886
76	0x3e00e0ed	0.12585802
77	0xbed29215	-0.41127077
78	0x3dcd7088	0.10031229
79	0xbe83e9db	-0.25764355
80	0xbef34539	-0.4751375
81	0xbe8aab8c	-0.27084005
82	0xbe7c2886	-0.24624833
83	0x3e44692f	0.1918075
84	0xbdb037a0	-0.086043596
85	0xbe8f6b39	-0.28011492
86	0x3e077e18	0.13231695
87	0xbe21788c	-0.15768641
88	0xbe52e07b	-0.20593445
89	0xbdabe494	-0.08393207
90	0xbdb1edba	-0.08687921
91	0xbe397ee9	-0.18114819
92	0xbdbe8d08	-0.09304243
93	0x3e605aa5	0.21909578
94	0x3e71f9f4	0.23630506
95	0xbe894479	-0.26810053
96	0x3da841ce	0.08215676
97	0xbe97e2a8	-0.29665112
98	0x3de5c14a	0.112185076
99	0xbe0adc36	-0.13560566
100	0xbe283609	-0.16426863
101	0x3e300900	0.17190933
102	0xbe78ddef	-0.24303411
103	0x3e8fff44	0.2812444
104	0xbeaadfac	-0.33373773
105	0xbeb52d60	-0.3538618
106	0x3e24128b	0.16022699
107	0x3d9c4f58	0.07632321
108	0x3de8ddaf	0.11370408
109	0x3dd9a071	0.10626305
110	0xbf2149af	-0.6300306
111	0xbe2d8dd5	-0.16948636
112	0xbeb35576	-0.3502614
113	0x3e72ceed	0.23711748
114	0x3e89851b	0.26859364
115	0xbeb13a66	-0.34614867
116	0xbea3c26d	-0.31984273
117	0xbeb789e5	-0.35847393
118	0xbc5154ac	-0.012776535
119	0xbe60153e	-0.21883103
120	0xbe85a719	-0.26104048
121	0x3e860ef1	0.26183274
122	0x3e5080a1	0.20361568
123	0xbecbdb27	-0.39815637
124	0xbcc190fc	-0.023628704
125	0xbe608fd3	-0.21929865
126	0xbd87d337	-0.06632083
127	0x3e8615fa	0.26188642
128	0xbe48553d	-0.19563766
129	0xbe77e204	-0.24207312
130	0x3e1c66e8	0.1527363
131	0x3e246248	0.16053116
132	0xbe5e9b16	-0.21738848
133	0xbd7d01b2	-0.061769195
134	0xbe4319a3	-0.19052748
135	0xbe34b1c9	-0.17645945
136	0x3e127f3f	0.14306353
137	0x3e965d31	0.29367974
138	0xbe74b75a	-0.23898068
139	0x3deaa3fd	0.114570595
140	0xbdfe4639	-0.12415738
141	0xbda61d44	-0.08111051
142	0x3e93fde9	0.28904656
143	0xbe10fbb8	-0.14158523
144	0x3e35162d	0.1768424
145	0xbebd1aa1	-0.3693438
146	0xbd7d65fc	-0.061864838
147	0xbd2562d3	-0.04037745
148	0xbdb12312	-0.08649267
149	0x3e782670	0.24233413
150	0xbe404f8c	-0.18780345
151	0x3ca231d6	0.019799154
152	0x3e9e2df9	0.3089445
153	0xbda6df92	-0.081481114
154	0x3c03cfa9	0.0080451155
155	0x3dc2e148	0.09515625
156	0xbd91e1aa	-0.0712312
157	0xbe972b4d	-0.29525223
158	0xbbfda73f	-0.0077408846
159	0xbe7ee688	-0.24892628
160	0xbc583fbc	-0.013198789
161	0xbe4a5d34	-0.19762117
162	0xbe8879ea	-0.26655513
163	0xbecbda7e	-0.39815134
164	0xbf09ee36	-0.53879106
165	0x3e1a6092	0.15075901
166	0x3e0958c1	0.13412763
167	0x3db9be89	0.09069545
168	0xbe32c399	-0.17457427
169	0xbe9c5142	-0.30530745
170	0x3e3a2541	0.18178274
171	0x3dc80d6f	0.09768187
172	0xbe3a52fe	-0.18195722
173	0x3dff2b0a	0.12459381
174	0xbe015c3d	-0.12632842
175	0xbe7617a6	-0.24032459
176	0xbdf30d6b	-0.11867794
177	0xbe85f562	-0.26163775
178	0xbdd9a68b	-0.10627469
179	0x3cf21a5d	0.029553587
180	0xbe442199	-0.19153441
181	0xbe9bcc00	-0.30429077
182	0x3d34cb4c	0.04413919
183	0xbe58339b	-0.21113436
184	0xbe9bf068	-0.30456853
185	0xbe16c965	-0.14725263
186	0xbe30f228	-0.17279875
187	0xbcf6b0a2	-0.030113522
188	0x3e1542a8	0.14576209
189	0x3c60e3b1	0.013726161
190	0xbe2d42b3	-0.16919975
191	0x3e5e4e3a	0.21709529
192	0xbe0c806c	-0.13720864
193	0x3e41f904	0.18942648
194	0x3eb8ebc2	0.3611737
195	0x3e831ee6	0.2560951
196	0xbe20ef97	-0.15716396
197	0xbe3f1314	-0.18659621
198	0x3dbeb3fc	0.09311673
199	0xbe95f1a9	-0.29285935
200	0x3d91522e	0.07095753
201	0xbe6694f8	-0.22517765
202	0xbd827c24	-0.06371334
203	0x3df95c63	0.121758245
204	0xbe94de4b	-0.29075846
205	0xbe13c43f	-0.1443033
206	0xbe20a802	-0.1568909
207	0x3d8892ce	0.06668626
208	0x3e4dbd80	0.2009182
209	0xbdcd0da7	-0.100123696
210	0x3d7c9af8	0.061671227
211	0xbe4bbf1c	-0.19897121
212	0x3e4ce6cb	0.20009916
213	0xbe82e3de	-0.25564474
214	0x3e2b1412	0.16706875
215	0x3e46c4a9	0.19410957
216	0xbe3ee3e0	-0.18641615
217	0x3d8a2aab	0.067464195
218	0xbe16b111	-0.14715983
219	0x3e003136	0.12518772
220	0x3ad53804	0.0016267304
221	0xbe815b21	-0.25264838
222	0x3e19247f	0.14955328
223	0xbe9ffe0a	-0.31248504
224	0x3e94ea43	0.29084978
225	0x3e64f3ac	0.22358578
226	0xbe81b7c8	-0.25335526
227	0xbec6f71f	-0.38860413
228	0xbea63856	-0.32464856
229	0xbdfd452d	-0.1236671
230	0xbe8d313d	-0.27576628
231	0x3e4612fa	0.19343176
232	0x3e6cb766	0.23116836
233	0xbbec0cff	-0.0072036977
234	0xbe618d07	-0.22026454
235	0xbc3752a1	-0.011189134
236	0x3ed25bc3	0.41085634
237	0xbd52880e	-0.051399283
238	0xbe81a69a	-0.2532242
239	0xbe86d17d	-0.26331702
240	0xbe89c528	-0.2690823
241	0xbe12a2e8	-0.14319956
242	0x3bb00c23	0.0053725406
243	0xbf28c81b	-0.65930337
244	0x3e763142	0.24042228
245	0xbe662d8d	-0.22478314
246	0xbccf1999	-0.02528076
247	0xbd555b6f	-0.05208915
248	0x3e2dd790	0.16976762
249	0xbe86d86e	-0.26336998
250	0x3f01d11a	0.5070969
251	0x3d556c10	0.05210501
252	0xbed3cdd1	-0.41367963
253	0x3e8c9c84	0.27463162
254	0xbece5445	-0.40298668
255	0x3e439c42	0.19102576

linear1.bias f4 [256]
0	0xbeeef556	-0.4667155
1	0xbec20067	-0.37890932
2	0x3e1c8123	0.15283637
3	0x3d1c592b	0.038170975
4	0xbdfd1715	-0.12357918
5	0xba9e1557	-0.0012060803
6	0xbe9f08df	-0.31061456
7	0xbea49fd7	-0.32153198
8	0xbec40d9c	-0.38291633
9	0xbde85001	-0.113433845
10	0x3d30c6f5	0.04315849
11	0xbd5abb61	-0.053401355
12	0xbd4a0dd4	-0.049329594
13	0xbed2c3bf	-0.41164967
14	0x3c8959f8	0.016766533
15	0xbe7d43eb	-0.2473294
16	0x3d8c7eb6	0.06860106
17	0x3d423155	0.047410328
18	0x3ebbbaff	0.36666104
19	0x3ea20633	0.31645355
20	0x3e2543d5	0.16139157
21	0xbe8f7f77	-0.28026935
22	0x3dc12608	0.09431082
23	0x3d42a4c9	0.047520433
24	0xbedcae8d	-0.43101922
25	0x3db4dc53	0.08831086
26	0x3d91863a	0.0710568
27	0xbe8d7f33	-0.27636108
28	0x3e449a13	0.191994
29	0x3e1553a5	0.14582689
30	0xbe9f1b7a	-0.3107565
31	0xbd554665	-0.052069087
32	0xbe16a593	-0.14711599
33	0x3d37e0f4	0.044892266
34	0xbf099577	-0.5374369
35	0xbe077819	-0.13229407
36	0xbcc899f4	-0.024487473
37	0x3e39ac8b	0.18132226
38	0xbed563e1	-0.41677764
39	0x3d9c6912	0.07637228
40	0x3e317327	0.17329083
41	0x3e20e1a5	0.15711077
42	0xbce83605	-0.028346071
43	0x3b938fcb	0.0045032254
44	0xbed39076	-0.41321152
45	0xbea26b3c	-0.31722438
46	0xbe15681f	-0.145905
47	0x3e5c3f86	0.21508607
48	0xbe740000	-0.23828125
49	0x3e08897b	0.13333695
50	0xbef400e7	-0.47656938
51	0xbedafa4a	-0.4276908
52	0x3c908ec1	0.017646195
53	0xbe4f7a64	-0.20261532
54	0xbea8f935	-0.3300263
55	0xbdaf4485	-0.08557991
56	0x3e2c7ffb	0.16845696
57	0x3e0a2f6b	0.13494651
58	0x3eb7fa75	0.3593327
59	0xbecc2311	-0.39870504
60	0xbc497bb5	-0.01229756
61	0xbe82e2de	-0.2556371
62	0x3e0cc0f0	0.13745475
63	0xbec22029	-0.3791516
64	0xbeb2dff6	-0.34936494
65	0xbda54e7b	-0.080716096
66	0xbe9bf523	-0.30460462
67	0x3e8759a7	0.26435587
68	0xbebe84d2	-0.3721071
69	0xbe340432	-0.17579725
70	0x3d164b6b	0.036693018
71	0xbe1eba06	-0.1550065
72	0x3e9492ef	0.2901835
73	0xbd96a1e2	-0.073550954
74	0x3dbd6b50	0.09248984
75	0x3ebe6cfc	0.37192523
76	0xbec06b5c	-0.3758191
77	0xbbf6ce5a	-0.0075319232
78	0xbd2fe678	-0.0429444
79	0x3e9e5025	0.3092052
80	0xbe84736a	-0.25869304
81	0x3e5480c0	0.20752239
82	0xbec5f954	-0.38666785
83	0xbe470c1e	-0.19438216
84	0x3e5bd8fa	0.21469489
85	0x3d9ee510	0.07758534
86	0x3db3a8bd	0.08772419
87	0xbece2511	-0.40262654
88	0x3e942686	0.2893564
89	0xbe58fccf	-0.21190189
90	0xbe7d6453	-0.24745302
91	0xbe07d88c	-0.132662
92	0xbe12a8e9	-0.14322247
93	0xbe332116	-0.1749309
94	0xbd59cfbb	-0.053176623
95	0x3e8c5ad9	0.2741306
96	0xbdba620f	-0.091007344
97	0xbd9ddd56	-0.07708232
98	0x3d56fcb1	0.05248708
99	0x3dd77ced	0.105218746
100	0xbea0a24a	-0.31373817
101	0x3dbad26e	0.091221675
102	0x3dfae15b	0.122500144
103	0xbeb55b52	-0.35421234
104	0xbe16a470	-0.14711165
105	0x3e638c1b	0.22221415
106	0xbecca8c5	-0.3997251
107	0x3d8b0495	0.06787983
108	0xbe818b44	-0.25301564
109	0xbe9b4576	-0.30326432
110	0xbee272ad	-0.44228116
111	0x3e909400	0.28237915
112	0x3e9cc5d0	0.3061967
113	0xbc3f7578	-0.011685722
114	0xbecd2684	-0.40068448
115	0x3ea7e362	0.32790667
116	0x3e2b82ee	0.16749164
117	0x3e1e9a56	0.15488562
118	0x3e59d7dc	0.2127375
119	0xbd998584	-0.07496169
120	0xbdf317e8	-0.11869794
121	0xbea93203	-0.33045968
122	0x3d4b81a4	0.04968418
123	0xbe9153cb	-0.2838424
124	0x3e70ce3b	0.2351617
125	0x3e23fe93	0.16015081
126	0x3bd06d60	0.0063606948
127	0x3e50753b	0.2035722
128	0xbe85b3b7	-0.26113674
129	0xbd283a4a	-0.041071214
130	0xbc17fbf2	-0.009276377
131	0x3d414808	0.047187835
132	0xbd864303	-0.0655575
133	0x3c3999f7	0.011328212
134	0x3e7dcdfd	0.2478561
135	0xbe00f5c7	-0.12593757
136	0x3d198dc5	0.037488718
137	0x3e6d7519	0.231892
138	0x3d7674ae	0.06016987
139	0xbe8390b8	-0.2569635
140	0x3d491634	0.04909344
141	0xbe322a73	-0.17399006
142	0xbe641423	-0.22273307
143	0xbdd6968a	-0.10477932
144	0x3c6bbccb	0.0143882735
145	0x3e32cb06	0.1746026
146	0xbe62a17d	-0.22131915
147	0xbe26e9f6	-0.16300187
148	0x3e86ec89	0.26352337
149	0xbe99f948	-0.30073
150	0xbdb6da95	-0.0892841
151	0x3e7f5760	0.24935675
152	0xbe9ad3b3	-0.3023964
153	0xbd68200b	-0.056671184
154	0xbe6b0608	-0.2295152
155	0xbd267b71	-0.040645067
156	0xbd81c420	-0.06336236
157	0x3d7943a6	0.06085553
158	0xbe873935	-0.26410833
159	0x3e969d81	0.2941704
160	0xbe0a425a	-0.13501874
161	0xbd837b8a	-0.064200476
162	0x3eaac381	0.33352283
163	0xbefa11b6	-0.48841637
164	0x3d7a9215	0.06117447
165	0xbecd3fee	-0.40087837
166	0xbe946bc0	-0.28988457
167	0x3dedba14	0.11607757
168	0xbeb8a4c4	-0.36063206
169	0x3e044a19	0.12918891
170	0x3e7fe9ad	0.24991484
171	0x3db461e1	0.088077314
172	0xbe3e38c0	-0.18576336
173	0xbe938ebc	-0.28819835
174	0xbec068eb	-0.37580046
175	0x3e89090c	0.26764715
176	0x3e39fb57	0.18162285
177	0xbe2709f5	-0.16312392
178	0xbe684711	-0.2268336
179	0xbe3df1b2	-0.1854923
180	0xba081dac	-0.000519241
181	0xbe843de2	-0.25828463
182	0x3d77dd65	0.060513873
183	0xbe266392	-0.1624892
184	0x3e9580f1	0.29199937
185	0x3e01af8e	0.12664625
186	0x3e3f82a6	0.18702182
187	0x3d6a7bf1	0.057247106
188	0x3da1fb64	0.07909277
189	0xbe561715	-0.20907243
190	0xbe038923	-0.12845282
191	0xbf0ab469	-0.54181534
192	0xbe80888c	-0.25104177
193	0xbebafdd4	-0.3652178
194	0xbbb6a443	-0.0055737807
195	0xba523bb0	-0.00080197584
196	0x3e36a02c	0.17834538
197	0xbf01f2bc	-0.5076101
198	0xbc6f1a6b	-0.014593701
199	0xbeb03b94	-0.34420455
200	0x3e9b7112	0.30359703
201	0xbe272b2e	-0.16325065
202	0x3ce1baee	0.027554955
203	0x3b94ae90	0.004537411
204	0x3e6015e8	0.21883357
205	0xbe622a08	-0.22086346
206	0x3e8a5046	0.2701437
207	0xbe89ebde	-0.26937765
208	0x3dbf0d50	0.09328711
209	0x3c98269b	0.018573096
210	0xbe9c4880	-0.30524063
211	0xbdd3f717	-0.10349863
212	0xbe08ec42	-0.13371375
213	0xbe424f86	-0.18975648
214	0xbea09d77	-0.31370136
215	0xbd9f039f	-0.077643625
216	0x3dbd17e6	0.09233074
217	0xbece6edf	-0.40318963
218	0xbecd38c2	-0.40082365
219	0xbeb8c5ad	-0.36088315
220	0xbe99cba8	-0.3003819
221	0xbe3c87d1	-0.18411185
222	0xbe344737	-0.17605291
223	0xbec637b0	-0.3871436
224	0x3e40c92d	0.18826742
225	0x3e47b6c2	0.1950331
226	0xbe582186	-0.21106538
227	0xbe10303d	-0.14080901
228	0x3de00ce0	0.10939956
229	0xbeb792e4	-0.35854256
230	0xbd91f64e	-0.07127057
231	0x3c9a9096	0.018867772
232	0x3da1bb50	0.07897055
233	0xbed69799	-0.41912535
234	0x3cab1ec0	0.020888686
235	0xbda80f99	-0.082061
236	0xbdc8b98a	-0.09801014
237	0xbd4696be	-0.048483603
238	0x3c36311a	0.011120105
239	0xbe5f3f01	-0.21801378
240	0xbe88fc94	-0.26755202
241	0xbeb68045	-0.35644737
242	0xbedaff33	-0.42772827
243	0xbe8b3ba0	-0.27193928
244	0x3cae0232	0.021241281
245	0x3ccb2c52	0.024801407
246	0x3e67da91	0.2264197
247	0xbc60c94a	-0.013719866
248	0x3e79dd88	0.24400914
249	0xbf0c9459	-0.5491386
250	0x3b09b1dd	0.0021010556
251	0xbecdf867	-0.40228578
252	0x3e0035be	0.12520501
253	0xbdf1e300	-0.11810875
254	0xbd8cae8f	-0.06869232
255	0xbeae0461	-0.33987716

linear2.weight f4 [4, 256]
0	0xbc578ce0	-0.013156146
1	0x3bea743a	0.0071549686
2	0x3c86e58b	0.016466876
3	0x3bfe6ff3	0.00776481
4	0x3d268b77	0.040660348
5	0xbd1e5300	-0.038653374
6	0x3d177a7b	0.03698204
7	0xbbab3032	-0.005224251
8	0xbc574c7a	-0.013140792
9	0xbce97abf	-0.028500913
10	0xbccf1335	-0.025277713
11	0xbd41438f	-0.04718357
12	0x3d804376	0.06262867
13	0x3d478930	0.048714817
14	0xbc256a0c	-0.010096084
15	0x3c9adfcd	0.018905545
16	0x3d8ce765	0.068800725
17	0xbce96143	-0.02848876
18	0xbd3a5ca6	-0.045498513
19	0xbc0080bb	-0.007843192
20	0x3d8bbfdf	0.06823706
21	0x3d01ccf4	0.0316896
22	0xbd3413d4	-0.043964222
23	0xbd29c862	-0.041450866
24	0x3ce83333	0.028344726
25	0xbd6aa296	-0.05728396
26	0xbc2726fa	-0.010202164
27	0xbd714761	-0.058905963
28	0x3cdb981d	0.026805932
29	0x3c992694	0.018695153
30	0x3c811ddf	0.015761314
31	0x3cc9a009	0.024612444
32	0x3cdf557c	0.027262442
33	0x3ba1fbf8	0.004943367
34	0x3d4d01fc	0.05005072
35	0xbdb54af7	-0.08852189
36	0xbd5909a2	-0.052987702
37	0xbdb6bf51	-0.089232095
38	0x3c8bee12	0.017081294
39	0x3c952f35	0.018210987
40	0x3c8ef5e4	0.017451234
41	0xbd7643d8	-0.060123295
42	0x3cf43da6	0.029814553
43	0x3ca6ae45	0.02034677
44	0xbc27a2d5	-0.010231693
45	0x3d2e6c82	0.04258395
46	0x3c612d80	0.013743758
47	0x3d8999bb	0.06718775
48	0xbc2f0fab	-0.010684888
49	0xbca51067	-0.020149423
50	0x3c9d16c3	0.019175893
51	0xbd0a8d54	-0.033826187
52	0x3c1baf75	0.009502281
53	0xbd1892a6	-0.03724923
54	0xbd57d8ce	-0.052696995
55	0x3c74a3cb	0.014931629
56	0x3c4fc938	0.012682252
57	0xbbaa7627	-0.005202073
58	0xbd4f5bef	-0.050624784
59	0xbba2352e	-0.004950187
60	0x3cd75315	0.026284734
61	0xbd852b9c	-0.065024585
62	0xbc99491e	-0.018711623
63	0xbc5576e2	-0.013028832
64	0x3d0529ff	0.032510754
65	0x3d30a578	0.043126553
66	0xbc47e300	-0.012200117
67	0x3cc35ef6	0.023848992
68	0xbcf76466	-0.03019924
69	0x3cf63b97	0.030057712
70	0x3d600b92	0.054698534
71	0xbd85e4ec	-0.06537804
72	0xbd31ec7e	-0.043438427
73	0xbd24ffb9	-0.04028294
74	0x3cee03f9	0.029054629
75	0x3d1dd483	0.038532745
76	0xbc1c2fd6	-0.009532889
77	0x3d2762d1	0.040865723
78	0xbcc85be5	-0.024457881
79	0xbc3164be	-0.010827241
80	0xbc84a7d5	-0.01619331
81	0x3b57d5e7	0.0032933892
82	0x3d1429dc	0.036172733
83	0x3cb9465b	0.022616556
84	0x3d11d093	0.035599303
85	0xbd8e6075	-0.069519915
86	0xbd6e5073	-0.05818219
87	0xbb639cd9	-0.003473094
88	0x3cc8ebe2	0.02452654
89	0xba0b28c6	-0.0005308505
90	0xbadf4693	-0.0017034583
91	0x3cf2a397	0.029619021
92	0xbceeaeae	-0.029136028
93	0x3a399829	0.00070798636
94	0x3d2c9437	0.042133536
95	0xbca53c1e	-0.020170268
96	0xbc10970f	-0.008825078
97	0x3c7b685a	0.015344704
98	0xbd270462	-0.040775664
99	0xbc210b51	-0.009829358
100	0xbd456f41	-0.048201803
101	0xbc25472d	-0.01008777
102	0xbc44e004	-0.0120163
103	0xbd16ad95	-0.036786634
104	0x3cecf02d	0.028923118
105	0xbd9c7848	-0.07640129
106	0xbccfad0a	-0.025351066
107	0xbb8aa708	-0.0042313375
108	0xbcbdecec	-0.023184262
109	0xbcde9b03	-0.027173525
110	0x3c0d297f	0.0086158505
111	0x3c132477	0.008980862
112	0x3d919a43	0.07109501
113	0x3bc65af5	0.0060533234
114	0x3cb7adce	0.022421744
115	0x3d1ba121	0.03799546
116	0xbcd1ba21	-0.025601448
117	0xbd27403f	-0.040832754
118	0x3d8b7559	0.06809492
119	0x3bb93cc7	0.005652997
120	0xbd1704bd	-0.036869753
121	0x3a6adc3d	0.00089592097
122	0x3be20262	0.0068972567
123	0xbb936634	-0.0044982675
124	0xbd1d3eec	-0.038390085
125	0x3ccf5a8e	0.025311735
126	0xbc6ede14	-0.014579315
127	0xbc8317c3	-0.016002541
128	0x3c74ca1f	0.014940768
129	0xbcc630d2	-0.024193201
130	0xbd127150	-0.035752594
131	0xbc8b590a	-0.01701023
132	0xbd05eccc	-0.03269653
133	0xbce9d828	-0.028545454
134	0x3b4a7dc3	0.0030897714
135	0x3d17ad8d	0.037030745
136	0xbd495acc	-0.049158856
137	0xbd097ebb	-0.033568125
138	0xbd14a431	-0.036289398
139	0x3cb94306	0.022614967
140	0xbc4a3327	-0.012341297
141	0xbb9a959c	-0.004717542
142	0xbb1b86ae	-0.0023731398
143	0xbd46eba5	-0.048564572
144	0x3e011f87	0.12609683
145	0xbd29ed93	-0.041486334
146	0x3dad3909	0.08458144
147	0xbbf1731e	-0.0073684594
148	0x3d5635a8	0.052297264
149	0xbc3937a0	-0.011304766
150	0x3d19e34f	0.037570294
151	0x3d269102	0.040665634
152	0x3add41a5	0.0016880526
153	0x3c96b49b	0.018396666
154	0xbd4b6302	-0.049654968
155	0xbd3a7608	-0.04552272
156	0x3d38c4d5	0.04510959
157	0xbc1f96ce	-0.0097405445
158	0x3a83a464	0.0010043499
159	0x3c5819ec	0.013189774
160	0x3c12d276	0.008961311
161	0x3a920f83	0.0011143539
162	0x3aefc412	0.0018292686
163	0xbadf17dc	-0.001702066
164	0x3a200a63	0.00061050634
165	0x3c37fabf	0.011229216
166	0xbd50294d	-0.050820637
167	0xbcef9362	-0.029245082
168	0xbcfaa0ed	-0.030594314
169	0xbc863265	-0.016381452
170	0xbba5730a	-0.005049114
171	0x3c829ec4	0.015944846
172	0x3cc06055	0.023483435
173	0xbd6d9b35	-0.058009345
174	0x3d83ae02	0.06429674
175	0xbbb90032	-0.0056457752
176	0x3bc06b7e	0.005872189
177	0xbd0ed5fd	-0.034872044
178	0xbc8a817e	-0.01690745
179	0xbd289bb8	-0.04116413
180	0xbd05f071	-0.032700006
181	0xbcf2e005	-0.029647836
182	0x3caff69a	0.021479893
183	0xbd2e3bec	-0.042537615
184	0x3d64fb2e	0.055903606
185	0xbcc3e943	-0.023914939
186	0xbda4d015	-0.08047501
187	0xbc0be088	-0.008537419
188	0xbc518f9b	-0.012790586
189	0x3c4de372	0.012566434
190	0x3d22de2c	0.03976266
191	0xbd526101	-0.05136204
192	0xbcc4bbe5	-0.024015376
193	0x3d53ee11	0.05174071
194	0xbd3b1a0b	-0.045679133
195	0xbc801461	-0.015634717
196	0xbd536674	-0.05161138
197	0x3cfda6f1	0.030963393
198	0x3d0e64ad	0.03476398
199	0x3d5d75ce	0.054067425
200	0x3c9f580a	0.01945116
201	0x3d0655d8	0.03279671
202	0xbd1b3415	-0.037891466
203	0x3cd00cd5	0.025396744
204	0x3c53422f	0.012894197
205	0xbc66aee9	-0.014079788
206	0xbd48e2c8	-0.0490444
207	0xbcb90005	-0.022583017
208	0xbcf061b0	-0.029343456
209	0xbb6e7314	-0.003638451
210	0xbb05fb5a	-0.0020444007
211	0xb9ced38b	-0.00039448994
212	0xb9c06395	-0.00036695288
213	0xbd223770	-0.03960365
214	0xbd6587e0	-0.056037784
215	0xbd2da4b8	-0.042393416
216	0x3cd5e709	0.026111143
217	0xbd6cc599	-0.05780563
218	0xbca9c94c	-0.020725869
219	0x3d318098	0.043335527
220	0x3d077659	0.03307185
221	0x3d590bb9	0.052989695
222	0xbc922045	-0.017837653
223	0xbd5ebf0a	-0.054381408
224	0xbd0bdc7a	-0.03414581
225	0x3ce7cff3	0.0282974
226	0xbac0fa10	-0.0014722962
227	0xbcadc2f1	-0.02121112
228	0xbc7b1839	-0.015325599
229	0xbc1aa7e6	-0.009439444
230	0x3dd556e5	0.104169644
231	0xbd3a6d88	-0.045514613
232	0x3c544e1c	0.012958076
233	0x3c66d874	0.014089692
234	0xbcdb012a	-0.026733954
235	0x3d1ef236	0.03880521
236	0x3bf255d2	0.0073954845
237	0xbd07d7bc	-0.033164725
238	0x3cfe252a	0.03102358
239	0xbcbddf1b	-0.023177674
240	0x3b094cf4	0.0020950409
241	0xbcd6bb9a	-0.026212502
242	0xbd246818	-0.040138334
243	0x3be15cbf	0.0068775113
244	0xbcdc0c29	-0.026861267
245	0x3d6b08b7	0.057381358
246	0xbc2170b8	-0.009853534
247	0xbb960bf4	-0.0045790616
248	0xbd623a56	-0.055231415
249	0x3b46e8c9	0.0030351153
250	0xbd2d4903	-0.042305958
251	0x3b8a5718	0.004221808
252	0x3d047c8c	0.03234534
253	0x3c6b266d	0.014352423
254	0xbb469f5e	-0.0030307393
255	0xbc96805c	-0.018371753

linear2.bias f4 [4]
0	0xbb4a243b	-0.003084435
1	0xbdb6871c	-0.08912489
2	0xbd81534d	-0.063147165
3	0xbd864c8f	-0.06557571
