from_youtube/model/model_LR=0.1 Gamma=0.9 Ie=10.0% Fe=0.5% eDecay=0.005%.pth (torch, 2483 bytes, 4 tensors)

linear1.weight f4 [6, 13]
000000 b8 a2 92 bf ce 6c 9a be d3 32 25 bf 36 41 c3 3c
       -1.1455908 -0.30161136 -0.64530677 0.023834806
000010 49 2f 0a bf 10 02 cd bf 47 cd 0b c0 19 cf 06 c0
       -0.539784 -1.6016254 -2.1844041 -2.1063902
000020 3a 87 28 bf 4b 9f 00 c0 ed ed a3 bf 84 cf 1a bf
       -0.6583134 -2.0097225 -1.2806984 -0.60472894
000030 3a d4 09 41 9b a4 7f c0 ef fb f6 bf 88 78 10 c1
       8.614313 -3.9944217 -1.9295634 -9.029427
000040 40 97 47 c0 08 9a 1e c1 00 75 12 c1 fa d3 ec c0
       -3.1186066 -9.912605 -9.153564 -7.400876
000050 48 d4 30 c1 56 55 2f c1 6f e9 33 be 13 3f b9 c0
       -11.0518265 -10.958334 -0.17569517 -5.7889495
000060 02 1b a9 c0 64 2f 91 c1 97 6b a2 3f 26 13 27 3d
       -5.284547 -18.14814 1.2689084 0.040789746
000070 8b 71 ee be 14 8b b0 c0 a1 03 ae c0 cb 40 d4 c0
       -0.46571 -5.5169773 -5.437943 -6.6329093
000080 7b 18 67 c0 5d 73 82 c0 ac 56 99 c0 86 e4 19 3f
       -3.6108692 -4.0765824 -4.79183 0.60114324
000090 6a a1 9f c0 c9 fc 62 c0 81 ad 12 42 0c 93 9e c0
       -4.988454 -3.5466788 36.669437 -4.95545
0000a0 c1 78 8a c0 2a 24 e3 c0 52 f8 47 c1 52 1c 39 c1
       -4.3272405 -7.0981646 -12.498125 -11.569414
0000b0 07 c6 0b c1 a0 61 54 c1 f3 a9 4b c1 ad b2 b0 c0
       -8.7358465 -13.273834 -12.7289915 -5.521811
0000c0 29 16 cd c0 3c c1 37 c1 3f f6 03 c1 f6 27 0c c1
       -6.408955 -11.484676 -8.247619 -8.759756
0000d0 d8 01 e8 bf 28 a0 51 40 1a 7b 91 c0 ca 66 80 3f
       -1.8125563 3.2754002 -4.546277 1.0031369
0000e0 b2 c9 af 40 2f 89 bb 3f 83 61 1f 40 a6 fe 63 3f
       5.493371 1.465124 2.4903266 0.8906044
0000f0 6b 1a b3 be c3 0f ab c1 ed 26 c0 c1 a5 df a3 bf
       -0.34981093 -21.382696 -24.019007 -1.2802626
000100 d1 bd 24 44 2c ec ec 3f 51 91 81 3f c0 de d7 3d
       658.9659 1.8509574 1.0122472 0.10540533
000110 2a e4 8f c0 bc e8 45 c0 ff 67 86 c0 7b c6 a3 c0
       -4.496602 -3.09233 -4.200195 -5.1179786
000120 c4 98 ab c0 4a a1 d0 c0 07 22 55 be 8f 2b de c0
       -5.362398 -6.5196886 -0.20813762 -6.942817
000130 0e 6b e6 c0 49 0c 32 42
       -7.200568 44.511997

linear1.bias f4 [6]
000000 b5 d5 76 c1 06 02 ab c1 d5 c8 b4 c1 a3 ea aa c0
       -15.427175 -21.375988 -22.598063 -5.341142
000010 bf e1 df 42 82 15 a2 c1
       111.94091 -20.260502

linear2.weight f4 [3, 6]
000000 53 b9 8a bf 6b ea 5c 40 b5 b3 e5 bf 0b 64 29 41
       -1.0837806 3.4518077 -1.7945467 10.586925
000010 dc 12 5f bf 4a 30 a3 bf f5 52 50 c0 22 a2 07 c0
       -0.8713815 -1.2749112 -3.2550633 -2.1192708
000020 8a c0 df bf 55 6f 73 40 bc a4 7b c0 0c da 88 40
       -1.7480633 3.8036702 -3.9319296 4.276617
000030 b1 b1 67 40 07 d4 bc bf 39 de e9 c0 3b a6 11 40
       3.6202204 -1.4752206 -7.308377 2.275771
000040 39 14 86 c0 5c 63 60 c0
       -4.1899686 -3.5060644

linear2.bias f4 [3]
000000 3a 1e 7b c4 c0 9a 7a c4 d3 88 7a c4
       -1004.4723 -1002.41797 -1002.1379
