from_youtube/model/model_13-128-4.pth (torch, 10953 bytes, 4 tensors)

linear1.weight f4 [128, 13]
00000000: 2c2e 47bd 4e1c 273d 60bd 223d 4d58 38be
00000010: 3608 2bbc 3968 a7bb 248c 093d 8621 3bbd
00000020: 8def 4fbe 17c5 51be 3de0 e3be b8c8 9cbe
00000030: eb73 833e a219 8fbe 0de6 93be 17ae 3ebe
00000040: 4d4f 70be 012f 19bb 3782 a1be 4a80 3bbd
00000050: cea7 333e 8115 7fbe 88c3 093d 10a0 91be
00000060: 427b eebd 04e9 44be 8304 0d3e a3c5 cebd
00000070: 08ef 9fbd 5474 f4bd 6a82 f9bd e86b 253d
00000080: 0877 e83c 4d69 69bd fc38 343b b833 963d
00000090: 2b95 fcbd d7b6 22be cee2 36bf 2c15 2dbd
000000a0: c9e4 4ebe b371 13be 0ac4 20be 7e92 c73d
000000b0: b15f b43c 9b68 4bbd 5e3f c1be 66de babe
000000c0: 5f48 25be 738b 8cbe 00c9 8d3d c42f 64bd
000000d0: f84f 3abd e67f db3d 8b43 5bbe 07a2 85bc
000000e0: 1b9d 08be f3a0 c6be 5772 d4ba 5990 7abe
000000f0: 4115 183d 2ddc a0be 7d5d 94bc 932e 0cbe
00000100: 9d78 963e 0c93 3dbe 84e4 90be 76eb b93c
00000110: dafa 7d3e 6d58 313e f95c a6bd 5577 67be
00000120: e068 75bd 5cca 9bbe 597b 3ebe a159 f53c
00000130: 5bae 34bd 2144 7cbf f9a0 aebd c648 19be
00000140: ee24 57be 2dea 54bc 333e 61be 6311 e23d
00000150: 077c 1bbe 55d9 f1be b530 53bc 8444 b7bd
00000160: 8389 833d c0c1 003d e6a9 f13e 2d5a 873e
00000170: 41ab d23d 4347 50bd f719 aa3e 7e97 9bbd
00000180: 73e4 0e3e c408 f8bd b6f2 023d 887f 6d3d
00000190: 43a6 5dbe 526e a13d ebaa 433e b95b 2b3b
000001a0: 47e8 95bd 81eb bdbd 7b94 bf3c d0f3 613d
000001b0: 7770 37be 6517 ce3d c61e c2be 9bb2 ed3d
000001c0: cfbd 25be 9ad1 c6be ad90 78be 12c8 91be
000001d0: c1fd c03e 4239 033d e2b8 58be 0e54 56be
000001e0: 7e16 bdbe c17e 74bd 92bb 01be 7a83 b6be
000001f0: 3254 f23d 068a 613c 93f2 a6be 5b76 0bbe
00000200: cb84 62bc 1659 963e bda8 a6be f6c4 82be
00000210: 6583 93be 9bfa 57be 15e5 8ebe f892 483e
00000220: 6a38 43be 91e0 00bc a312 b2bd 3271 043e
00000230: 36b1 8f3d c2c9 a2bd 9bce cf3e 7178 a0be
00000240: 9c7e 173d 41b5 5dbe 4da9 ad3d eb4a 9fbe
00000250: e604 be3d 7021 89be 44cb 9fbe 1309 ba3d
00000260: d9fa 353e 24d6 5abe b8d3 2dbe b59c 62be
00000270: 2c32 333e e704 02be dd54 41be 190f 43be
00000280: ef62 12be 1884 b0be a449 4dbe 71eb 3cbe
00000290: b078 afbe 1a2b 29be c74c 1c3d 8b95 fdbd
000002a0: c9f2 e63d 1671 6cbe b46a edbd 99db b63d
000002b0: 0457 9ebe 0c6e 0ebe 8b33 98be 7902 f13d
000002c0: b208 96be 746f 6b3c 02ff bfbe e176 a1be
000002d0: 5281 0e3d baac 953d cd72 aa3e 736c 1e3e
000002e0: 4e4a 06bd 8e1c cc3b f08f 6a3d 33c0 783b
000002f0: a251 19bf 4023 44bf 7767 8dbe 3c71 2bbe
00000300: b927 783e a27c 7c3e b2ce 7b3f f0fd 7e3d
00000310: 58cf 173e b82c 8a3e 7ea3 3f3e 6735 95bd
00000320: d3eb f63d d185 73bd e3a2 18be 1dfd 64bd
00000330: 56a3 3a3d 143e bc3d 18d1 27be 7fa1 05bf
00000340: e9e0 13be 212a 8fbe 7fc7 73bd c21a 653e
00000350: 9772 b0be 3e08 c2be 88aa 9ebe 3a90 c8be
00000360: 9493 cfbd 8e94 02be bcaf 1ebe 951f c63d
00000370: 0a00 fdbe 7512 c2be 9c5f df3d 6393 88be
00000380: 822b 6fbe f685 1c3c cbaf 8f3d 868f 46be
00000390: eef9 e63d e8c6 a9be 2c65 ddbd 4b3d 36bd
000003a0: 2fe4 6bbc 2d4c 92be c6f4 d6be b4b0 09bd
000003b0: 4746 5a3d 63f1 b9be 1bbb 5fbe b9c7 efbd
000003c0: eea4 8dbe 25e1 78be 9524 a63d 1430 4abe
000003d0: 1bd8 853d 8e0c a13d 2eed 03be e301 88bd
000003e0: 0f63 1fbe b1a6 6bbc fa66 4fbd 40d2 963d
000003f0: 205a c93c 0253 cfbd c911 edbd 3383 71be
-0.048628017 0.040798478 0.039731383 -0.18002434 -0.010438969 -0.00510886 0.033580914 -0.045686267
-0.20306225 -0.2048534 -0.44507018 -0.30621886 0.25674376 -0.27949244 -0.28886452 -0.18621098
-0.23467751 -0.0023373964 -0.3154466 -0.045776643 0.17544481 -0.24910547 0.03363374 -0.2844243
-0.11644603 -0.19229513 0.13771252 -0.1009629 -0.078092635 -0.1193625 -0.12183078 0.04038611
0.028377071 -0.05698519 0.0027499786 0.07334083 -0.12333139 -0.1589006 -0.71439826 -0.04225652
-0.20204462 -0.14398842 -0.15699783 0.09744738 0.022018285 -0.049660306 -0.37743658 -0.36497802
-0.16140889 -0.2745014 0.06923103 -0.055709615 -0.04548642 0.10717754 -0.21412484 -0.016312612
-0.13341181 -0.3879467 -0.0016208392 -0.24469127 0.037129644 -0.3141798 -0.018110985 -0.13689642
0.29388896 -0.18513125 -0.28299344 0.022695284 0.24802724 0.17318888 -0.08123202 -0.22604115
-0.05991447 -0.30427825 -0.18601741 0.029949965 -0.04411159 -0.98541456 -0.08526797 -0.14969167
-0.21010181 -0.012995285 -0.21996383 0.110384725 -0.15184031 -0.47236124 -0.012890031 -0.08948615
0.06422713 0.031434774 0.47199935 0.26435986 0.1028657 -0.05084921 0.33222935 -0.07597254
0.13954334 -0.12111047 0.03196975 0.05798295 -0.21645455 0.0788237 0.19108169 0.00261472
-0.07319694 -0.092734344 0.02338623 0.05516416 -0.17913996 0.10063056 -0.37914103 0.11606332
-0.16185687 -0.38831788 -0.2427394 -0.28472954 0.376936 0.032037027 -0.21164277 -0.20930502
-0.36931223 -0.059691194 -0.12669209 -0.35647184 0.11832465 0.0137658175 -0.32606944 -0.13619368
-0.013825606 0.29364842 -0.32550612 -0.25540894 -0.28811184 -0.21091692 -0.2790915 0.19587314
-0.19064489 -0.007866041 -0.08694961 0.12933806 0.07016222 -0.079486385 0.40587315 -0.3134189
0.03698598 -0.21651174 0.08479557 -0.31111845 0.09278278 -0.26783323 -0.31209767 0.09083762
0.17771472 -0.2137075 -0.16975296 -0.22130091 0.17499608 -0.12697183 -0.18880029 -0.19048728
-0.14295553 -0.3447578 -0.20047623 -0.18449189 -0.34271765 -0.16520348 0.038159158 -0.12382039
0.11276776 -0.23090014 -0.11592618 0.08928604 -0.30925763 -0.13909167 -0.29726824 0.1176805
-0.2930351 0.014369834 -0.37499243 -0.3153601 0.0347913 0.073083356 0.3329071 0.15471058
-0.032785706 0.00622899 0.057266176 0.0037956357 -0.59890187 -0.7661629 -0.27618 -0.16742414
0.24233903 0.24656919 0.98362267 0.062253892 0.14825189 0.26987243 0.18714711 -0.07285576
0.12056699 -0.05945379 -0.14905886 -0.05590545 0.045565926 0.09191528 -0.16388357 -0.5219955
-0.14441265 -0.2796183 -0.059516426 0.22373489 -0.34462425 -0.37896913 -0.3098948 -0.39172536
-0.1013557 -0.12751982 -0.15496725 0.096739925 -0.49414092 -0.37904707 0.10906908 -0.26674947
-0.2335644 0.009553423 0.07015952 -0.19390687 0.11278139 -0.33159566 -0.10810313 -0.044492047
-0.014397665 -0.28573743 -0.41983622 -0.033615783 0.053289678 -0.36316976 -0.21848719 -0.11708016
-0.27664894 -0.24304636 0.08112446 -0.19744903 0.065353595 0.07863723 -0.12883446 -0.06640985
-0.15565132 -0.014383004 -0.050635315 0.07364321 0.024579108 -0.10123254 -0.11575658 -0.23585205

linear1.bias f4 [128]
00000000: ae59 a63d 04bc 3e3e 6630 10be 086d bbb9
00000010: 1d55 8b3d 817f b0bd 0f89 783d 5ce3 943c
00000020: 349d 3d3d 30f0 16be 8f22 dabd 8285 8cbe
00000030: 5ac4 d6bd 6fee 543e 6d0c 8d3e 8d48 383e
00000040: c586 91bd 91d4 a3be 7308 51be b3a3 c8be
00000050: 4dfb 293a c360 0b3e 0ebf ccbd ac74 53be
00000060: 2c01 d73e bc99 e83d d922 99be b663 923d
00000070: aaca 6d3e 052a 77bc 21a1 333d f208 f2bc
00000080: 59d7 71be 23ca d83e b213 a7be 5ba4 71be
00000090: 754b 2ebe 92e9 f23d 6ded 90be db8c 05be
000000a0: 51d8 48bc ab6d c1bd d19a 44be 507b c2bd
000000b0: d6e0 8fbe 8768 3dbe c049 cfbe 2595 adbc
000000c0: af60 3abe 78bc 953e e84e 22be 06ac 6e3e
000000d0: 8f6d 20be 1271 0fbe 1f06 80be 1514 b1be
000000e0: 07ab 05bc 2d87 01bf e857 a9be 842d 8abe
000000f0: e18c e6bd 8a41 b3bc a954 953c 74e9 a9bd
00000100: 98b1 9cbc 56da 79bd dc1b 22be defd fc3d
00000110: e756 38be 1d1e c9be 6b2d 673c 9ec3 513d
00000120: 736d b4be f3b5 9dbd 3145 96be d805 d8bd
00000130: 835c 85bc b15c a9bd c59c 103e a0e5 a9bd
00000140: 9bfe 95bc c31e 0bbe 5651 d6bd def3 7a3d
00000150: 3c14 debd 2818 063d 89fa 9f3d 20d0 453e
00000160: c5f6 f53c f252 9f3d d1f5 e2bd f1de f93d
00000170: 30d1 243e 8147 99be 91cc 09be 362e 6dbe
00000180: 1f86 643b 6e90 423e f68d 07be 8f7b e83d
00000190: cd43 973d 7870 16be 24ad 7e3e 5a2f 493e
000001a0: aabc d03d 611f a2be 0096 04bd 0736 32be
000001b0: a5e1 87be 13be 043e 16ec b03d fdb6 8a3d
000001c0: c996 ea3d 2475 29bd b0ce 41be 4849 8bbe
000001d0: ea3b babe 45ce 4abe 66df 283d b982 913c
000001e0: f9d8 333d 554c 713e d758 b3be d02c 52bd
000001f0: c5ed 1b3c 0c60 c1be 97fc 90bd 2f92 453e
0.08122574 0.1862641 -0.14080963 -0.00035748654 0.068033434 -0.086180694 0.060677584 0.01817482
0.0462925 -0.14740062 -0.10651123 -0.27445608 -0.1048667 0.2079408 0.27548543 0.17996426
-0.071057834 -0.31998113 -0.2041338 -0.39187393 0.0006484285 0.1361113 -0.09997378 -0.20649976
0.41993082 0.113574475 -0.299094 0.071479246 0.23221841 -0.015085702 0.043854836 -0.029545281
-0.23617305 0.42341718 -0.32632214 -0.23597853 -0.17020972 0.11860956 -0.28306141 -0.13042013
-0.012258605 -0.09444746 -0.19199683 -0.09496176 -0.28101224 -0.18496905 -0.40485954 -0.021189282
-0.18200944 0.29245353 -0.15850413 0.23307809 -0.15666793 -0.14007977 -0.2500467 -0.34585634
-0.008158452 -0.50596887 -0.3307488 -0.2698785 -0.11257339 -0.021881837 0.018228846 -0.08296481
-0.019127652 -0.060999237 -0.1583094 0.12353109 -0.180019 -0.39280787 0.01410995 0.051211946
-0.35239753 -0.0770072 -0.29349664 -0.105479896 -0.016279465 -0.082696326 0.14122303 -0.082957506
-0.018309882 -0.13585953 -0.10464732 0.061267726 -0.10843703 0.03273788 0.07811458 0.19317675
0.030024895 0.077794924 -0.11082042 0.12200726 0.16095424 -0.29937366 -0.13456942 -0.2316216
0.0034869981 0.19000408 -0.13237748 0.11351692 0.07385979 -0.14691341 0.24870735 0.1964697
0.10192235 -0.31664565 -0.032369614 -0.17403422 -0.2653934 0.12963133 0.0863878 0.067731835
0.11454541 -0.04137148 -0.18926501 -0.27204347 -0.36373836 -0.19805248 0.041228674 0.017762529
0.043908093 0.23564275 -0.35028717 -0.051312268 0.009517138 -0.3776859 -0.07079428 0.19294046

linear2.weight f4 [4, 128]
00000000: 9000 23bd 22f1 443d bbd7 083e 3b2c a2bc
00000010: fd14 fabb 72a0 453e e6ca 74bd a461 ca3d
00000020: a032 c9bc e730 3ebc 5004 3cbc 48aa be3c
00000030: 0cc3 303d 6ae8 31bd 0429 1abe b460 503e
00000040: 7d03 0c3e 0a07 7e3b f693 873b a992 3838
00000050: 0d72 9d3d 3b37 36bd baa2 e93c ee82 a53c
00000060: 3809 36be 1ef7 8cbd 10de 76bc 69b4 22bd
00000070: dcc3 f6bc f693 2dbd 1df9 9a3c 48ce 20bd
00000080: ed35 4fbc 4f4b 633d 58a3 393d 8286 40bd
00000090: 5a3d ad3d 1f20 24bb 10e8 5bbc 35fa 9c3c
000000a0: 2001 dcbb e956 86bd 98ec 44bd 9a56 00bd
000000b0: 35d5 be3c cc73 c13c 0b1d ae3a 3f79 813c
000000c0: 1edc 50bd 5a0a e7bd 01e3 883d e6be 71bb
000000d0: 1392 843d 464a 823c 5c7f c8bd 668c 4ebd
000000e0: a1df 593d 2fe8 cebc 7e2d d4bd 7c1f f1bc
000000f0: 549b f23d 57ae 1dbd 77ee cc3d 8af0 343d
00000100: c764 d1bc 5aad adbb 8174 0e3d 0787 f7bc
00000110: 0f31 e93d e9c2 e43d 0c08 95bd 44f9 053e
00000120: cb13 1abc 42e3 a7bd dd1f 27be 2f65 b03b
00000130: 88c5 de3c d8bd 97bc 54d9 96bd b6e6 2b3b
00000140: ee38 8ebd 6e8a f9bc 2a5b 10bd 1590 d5bc
00000150: a423 26bd beba 53bd b4b8 83bd df89 f9bc
00000160: b9e5 56bd 3de2 2cbd c7a3 65bd 84e8 09bc
00000170: b6c5 45bd ab5c a5bd 2552 87bd 6180 9dbc
00000180: af2a 2abd 0dd7 90bd 8edc eabc 4420 e33b
00000190: 3ea1 bcbc 2506 b1bc ca16 bbbd cf0b 4dbc
000001a0: 2207 82bd ae20 24bd 53d7 f6bc e28a 9fbd
000001b0: 605a 5ebc 3868 8cbc 170f 2b3c 5a44 a4bc
000001c0: 370f 2a3b 1ab6 183e 5fe8 a73c 27be 833d
000001d0: df96 09bc f12a dfba 77d0 893c 4529 53bd
000001e0: 1f5b 87bd 6aaa 18bd d81a 15bd 3095 03bd
000001f0: 082a 86be 792c fb3c 1fc8 97bd 09a3 1e3d
00000200: 1d5d 27bc c8dc 3b3c a080 953d d0e3 963b
00000210: 35bc 99bc 4106 203e ecf7 10bc 680e 353d
00000220: 945e 5fbd b94e d4ba 501b df3c 84ea b43d
00000230: 0f59 913d 66cb b9bb 6dbc 40bd 5005 d73d
00000240: cb38 d03d 5dd6 53bb 6376 bcbc 4ae4 32bd
00000250: a1ec 5c3a 306e 9d3c 680f 5d3d 1569 923d
00000260: d314 c0bd 689e 43bd 45d0 a93b 28dd 7bbd
00000270: 7fd2 84bd 27be 5b3d 9a1c 813b 1b23 713d
00000280: 23e7 61bd 464d a4bd 2424 cf3c f5c4 29bd
00000290: 328f 903d 68e8 ba3d 4784 03bd b0d8 80bc
000002a0: 3ac7 a4bd e67b 803c c39e 66bd f8b6 0cbd
000002b0: 3133 eabb ca15 ddbb 7652 3d3d 1398 053d
000002c0: 3b02 99bd f9be 47bd 8fc8 06bc d1b4 51bd
000002d0: 2423 9dbb c032 1d3e 9d94 8abd 3e1c bbbb
000002e0: 868b a13d 02ad 963b 9465 e03b 3c3e 353c
000002f0: 25f7 053e 790e 08bd c410 cb3c da92 b3bd
00000300: 9cc5 14bc 9529 c03a d963 783d 8af0 49bd
00000310: 202f 2f3d bc77 993c 2f7d 57bc ddda 95bc
00000320: 5c22 b83a 0a69 46bd f5de 06bc 0433 f23b
00000330: 80db b23d 28f1 943c fb4a 863d 50b5 193d
00000340: 9aee 5dbd 77cb 343d 9ffc 26bc 604e b53c
00000350: b1b6 8cbd f0cd 1ebd cd60 af3c 8435 05bb
00000360: 37c0 03bd b39f f13c d99b 3fba 444a 96bb
00000370: 9295 503a 1a9c 31bc 05e5 f13b f6ff a7bc
00000380: 892a 03bd e00b 6dbd a275 3bbd 398c 42bb
00000390: 1a38 92ba ecfc 38bc 2245 7e3c da73 81bc
000003a0: 1142 d5bc ace0 76bd 41ed a5bc 9904 393c
000003b0: 7716 d73b 0924 72bb 269a e93d bd63 31bb
000003c0: bdc7 5abc c173 f33d 6a97 0e3d cf94 ba3c
000003d0: 2eac 893d b713 ad3c 742d 053d 767c 2abd
000003e0: a4c1 cd3b b611 483d 2f4f 4a3c bc6e bbbc
000003f0: 2d9e e63a d35b acb8 2baa 303c c492 733d
-0.03979546 0.048081525 0.13363545 -0.019796481 -0.0076318965 0.19299486 -0.05976381 0.09881905
-0.024560273 -0.011608339 -0.011475638 0.023274556 0.04315476 -0.043434538 -0.15054709 0.2034939
0.13673206 0.003876152 0.0041375114 4.4005606e-05 0.07687769 -0.044486266 0.028519977 0.020204034
-0.17776954 -0.06883071 -0.015067592 -0.039722834 -0.03012269 -0.042377435 0.018917615 -0.039259225
-0.012647134 0.05549174 0.045321792 -0.047003277 0.084589675 -0.002504356 -0.013422027 0.019162277
-0.0067140013 -0.065595455 -0.048077196 -0.03133259 0.023295024 0.023614787 0.0013283802 0.015804885
-0.05099117 -0.11281271 0.066839226 -0.0036887466 0.06473174 0.015904557 -0.09789917 -0.050426863
0.053191785 -0.025257198 -0.103602394 -0.029433958 0.11846033 -0.03849634 0.10006421 0.04417471
-0.02556075 -0.005300206 0.034779076 -0.030215753 0.1138631 0.11169989 -0.072769254 0.13083369
-0.009404133 -0.08197643 -0.16320749 0.005383156 0.0271938 -0.018523142 -0.07365671 0.0026230044
-0.06944452 -0.030461516 -0.03524319 -0.02606968 -0.040561333 -0.051691763 -0.06431714 -0.03046125
-0.052465174 -0.042207945 -0.056064393 -0.008417252 -0.048284255 -0.08074316 -0.06607465 -0.019226255
-0.041544612 -0.07072268 -0.028669622 0.0069313366 -0.023026105 -0.021609375 -0.09135206 -0.012515022
-0.06349017 -0.04007023 -0.030131971 -0.07790162 -0.013571352 -0.01713954 0.010440609 -0.020052124
0.002594901 0.14913216 0.020496545 0.06432753 -0.008397787 -0.0017026347 0.016823037 -0.05155303
-0.06609177 -0.037271895 -0.036402553 -0.0321247 -0.26203942 0.030660855 -0.07411217 0.0387297
-0.010215071 0.011466213 0.07299924 0.004604794 -0.018766502 0.15627386 -0.008848172 0.044203192
-0.054533556 -0.0016197778 0.027234703 0.08833793 0.07097065 -0.005669999 -0.047054697 0.1049906
0.101670824 -0.0032323815 -0.02300567 -0.043674745 0.00084275944 0.01921758 0.05396977 0.07148949
-0.09378972 -0.04775849 0.0051822984 -0.061490208 -0.064854614 0.05364814 0.003940177 0.05887137
-0.05515207 -0.08022551 0.025285788 -0.0414476 0.07058562 0.09126359 -0.03210857 -0.015728325
-0.08045812 0.01568408 -0.05630375 -0.03435418 -0.007147216 -0.006746982 0.04622122 0.032615732
-0.074711286 -0.04876611 -0.008226528 -0.05119783 -0.004795449 0.15351391 -0.06766627 -0.005710154
0.0788794 0.004598261 0.0068480466 0.011062201 0.1308256 -0.033216927 0.024788268 -0.08768244
-0.009080317 0.001466083 0.060642097 -0.04930166 0.04276955 0.018733852 -0.013152405 -0.018292839
0.0014048326 -0.048440017 -0.008231868 0.0073913354 0.087332726 0.018181399 0.0655727 0.03752643
-0.054182626 0.04413935 -0.0101920655 0.022132099 -0.06870783 -0.038770616 0.021408463 -0.0020326087
-0.032165732 0.029495096 -0.0007309295 -0.00458649 0.0007956858 -0.01084044 0.0073820376 -0.020507794
-0.032022987 -0.057872653 -0.04576648 -0.002968563 -0.0011155636 -0.01129077 0.015519412 -0.015802313
-0.02603248 -0.060272858 -0.020254733 0.0112926 0.0065639573 -0.0036947748 0.114063546 -0.0027067505
-0.013353285 0.11887313 0.03481237 0.022776036 0.06722294 0.021127565 0.03251405 -0.0416226
0.0062791873 0.048845015 0.01234798 -0.02287995 0.0017594747 -8.218703e-05 0.010782759 0.05946614

linear2.bias f4 [4]
00000000: d828 30be 0e7e d8bd fa76 f4be 9557 32be
-0.1720308 -0.10570918 -0.47747022 -0.17416222
