from_youtube/model/model_LR=0.1 Gamma=0.8 Ie=0.2% Fe=0.05% eDecay=0.01%.pth (torch, 2477 bytes, 4 tensors)

linear1.weight f4 [6, 13]
0	0x3ead3ec0	0.33836937
1	0xbec19ef4	-0.37816584
2	0xbe2b26e2	-0.16714051
3	0xbe0ee97a	-0.13956252
4	0xbf25ac9a	-0.64716494
5	0xbf089776	-0.5335611
6	0xbf11b47d	-0.5691603
7	0xbf082980	-0.53188324
8	0xbf3b9a91	-0.73282725
9	0x3df1e96b	0.11812099
10	0x3bc112b5	0.0058921226
11	0x3d88c83c	0.06678817
12	0xbf449157	-0.7678427
13	0xbf3708f9	-0.71498066
14	0x3d90262f	0.07038533
15	0x3ed7b4b1	0.42130044
16	0x3e4a3d11	0.19749857
17	0x3c7ad0ee	0.015308602
18	0x3ed44420	0.41458225
19	0x3f242acf	0.6412782
20	0x3dda9842	0.10673572
21	0xbeb363c7	-0.35037062
22	0xbf5ad72b	-0.8548457
23	0xbf2839bf	-0.65713114
24	0xbf56537a	-0.83721125
25	0x3ddbaa19	0.10725803
26	0xbf556e03	-0.8337099
27	0xbf11f940	-0.5702095
28	0xbf134e93	-0.5754177
29	0xbf2c2e19	-0.6725784
30	0xbf069707	-0.525742
31	0xbf4228da	-0.75843585
32	0xbea815db	-0.32829174
33	0xbef9998a	-0.48749954
34	0xbf02fae7	-0.51164097
35	0xbefe4377	-0.49660847
36	0xbf243e73	-0.6415779
37	0xbeb9804f	-0.36230704
38	0xbf5b21eb	-0.8559863
39	0xbf0b654e	-0.54451454
40	0xbf3ea059	-0.7446342
41	0xbeafb0d9	-0.34314612
42	0xbf47bf59	-0.7802635
43	0xbf2743ed	-0.6533802
44	0xbef2ba83	-0.47407922
45	0xbf3546d8	-0.70811224
46	0xbf10c6cf	-0.5655336
47	0xbf58af11	-0.8464213
48	0xbf024a92	-0.50895035
49	0x3cb85450	0.02250114
50	0xbf42ab16	-0.76042306
51	0xbe2ea166	-0.17053756
52	0xbf34d102	-0.7063142
53	0xbf3febf9	-0.7496944
54	0xbf5cde1e	-0.86276424
55	0xbf363a7b	-0.71182984
56	0xbf32b2a3	-0.6980383
57	0xbf27cf82	-0.65551007
58	0xbf0cb80b	-0.5496833
59	0xbf396fbd	-0.72436124
60	0xbf24b8dd	-0.6434458
61	0xbf6657ae	-0.8997754
62	0xbf31ee8a	-0.69504607
63	0xbf581fc2	-0.8442346
64	0x3e28ad0b	0.1647226
65	0x3d8cbb2b	0.06871637
66	0xbf2f93ec	-0.68585086
67	0xbf4e2869	-0.8053041
68	0xbec33537	-0.38126537
69	0xbf3ffba3	-0.7499334
70	0xbf4ade73	-0.7924568
71	0xbec56583	-0.3855401
72	0xbf3c120d	-0.73465043
73	0xbf7967aa	-0.97423804
74	0xbc27b0a6	-0.010234987
75	0xbe880600	-0.26567078
76	0xbe8d1fa2	-0.27563196
77	0xbfbf2c6e	-1.4935434

linear1.bias f4 [6]
0	0xbfa8f287	-1.3199013
1	0xbebabed0	-0.36473703
2	0xbefca0d5	-0.49341455
3	0xbf573a9b	-0.840738
4	0x3ed1a76e	0.4094805
5	0xbfaaf1bd	-1.3355023

linear2.weight f4 [3, 6]
0	0x3cae8ec3	0.021308308
1	0xbdeb78e9	-0.11497671
2	0xbe0ecac2	-0.13944533
3	0xbf887f88	-1.066392
4	0xbe950872	-0.29108006
5	0xb89e809e	-7.557984e-05
6	0x3d124efc	0.035719857
7	0xbef1f693	-0.47258434
8	0x3ed6b02d	0.41931286
9	0x3e94bfaa	0.29052478
10	0x3fa51aae	1.2898767
11	0xbeb17a34	-0.34663546
12	0xbd226659	-0.039648388
13	0xbef06924	-0.46955216
14	0xbf0fbcdc	-0.5614755
15	0xbe823c67	-0.25436708
16	0x3dff220a	0.12457664
17	0x3e578fca	0.21050945

linear2.bias f4 [3]
0	0x3dfdd4e9	0.12394125
1	0x3f2263d0	0.6343355
2	0xbf4b15e5	-0.79330283
