from_youtube/model/model_Network 13-64-3.pth (torch, 6131 bytes, 4 tensors)

linear1.weight f4 [64, 13]
000000 fa d7 a3 3d d5 6e 06 3f a3 60 42 3f 4e 0c 9d 3f
       0.08000179 0.52512866 0.75928706 1.226938
000010 2a bc 5d bf 39 ba 34 3f b9 7a 2b 3e fc b2 0b bf
       -0.8661524 0.70596653 0.16746034 -0.54569983
000020 40 70 8e bf 58 71 15 c0 ae 02 67 c0 37 41 4f bf
       -1.1128006 -2.335043 -3.6095386 -0.80958885
000030 bd e3 6f 42 75 79 77 be 72 29 67 3e 47 1b 00 be
       59.9724 -0.24167426 0.22574404 -0.12510405
000040 5d 43 3f 3e 88 82 5e bf 57 18 8c bf 4c 15 e9 be
       0.18678041 -0.86917925 -1.0944928 -0.4552406
000050 f5 71 36 bf 80 8f 21 bf 55 5d 02 c0 d4 6d 8a bf
       -0.71267635 -0.6310959 -2.0369465 -1.0814767
000060 c6 37 24 3e 43 73 01 3f 8e 0b d3 bd 68 5d 28 be
       0.16036901 0.505665 -0.10304938 -0.16441882
000070 fa a2 0c bf 83 a5 99 bf 83 c2 b9 bf 2c a7 4b bf
       -0.5493618 -1.2003635 -1.4512485 -0.7955196
000080 2f 4e 0e bf bc e4 14 c0 b6 55 70 bf 2d 80 34 3f
       -0.5558805 -2.3264608 -0.93880785 0.7050808
000090 f4 bd 6b 3e 43 65 d2 3e 51 47 68 c0 ad af 34 bf
       0.2302168 0.41092882 -3.6293528 -0.7058056
0000a0 6e d9 fa bf 1a 0f 85 bd 74 72 27 3d 54 78 9d 3f
       -1.9597604 -0.06497021 0.040880635 1.2302346
0000b0 c8 7f 49 3f 9c 30 96 bf db 2a 5c bf 6c 86 1e c0
       0.78710604 -1.1733584 -0.8600289 -2.4769545
0000c0 d1 b0 0c c1 73 5e 40 c0 f1 88 e8 bf f7 9c 7e 42
       -8.793168 -3.0057647 -1.8166791 63.653286
0000d0 d6 d2 4b 3f fa 74 2e 3e 4e de 8b be 18 70 0a 3f
       0.79618585 0.1703681 -0.27318043 0.5407729
0000e0 c9 c5 42 3f 85 78 e9 3f ff 73 26 be 8a bd 0c bd
       0.76083046 1.8239905 -0.16255186 -0.034360446
0000f0 5b 6b 8e 3b 19 e7 9d c0 dc 49 7d c0 64 2d fc be
       0.004346294 -4.93446 -3.957633 -0.4925338
000100 07 dd a5 42 ae d3 60 40 1c 78 14 40 2f 27 c3 3f
       82.931694 3.51292 2.319831 1.5246333
000110 22 9c ad bf 97 59 c9 be 81 d3 0e c0 a3 03 f5 bf
       -1.3563273 -0.39326164 -2.2316592 -1.9141735
000120 77 d1 11 c0 71 8b 05 bf db 43 02 c0 c6 bf 19 3f
       -2.2784097 -0.52165896 -2.0353916 0.6005825
000130 05 ac b5 3f 40 60 92 42 af 89 1d bf 5e b5 1e 3f
       1.4193121 73.18799 -0.61538213 0.61995494
000140 20 db 2a 3f 24 a4 78 3e a5 77 4b 3e da fd 7a 3f
       0.6674061 0.24281365 0.1986986 0.98043597
000150 4a 66 fb 3f 94 cb 93 bf 5c b4 b4 bf 3e 8b a6 c0
       1.9640591 -1.1546502 -1.4117541 -5.2044973
000160 f5 a1 94 c0 21 4c 2d c0 7a f9 ab 42 51 21 08 c0
       -4.64477 -2.7077715 85.98726 -2.1270335
000170 16 ce d2 bf 57 77 eb bf 8b 7d da bf 34 e0 dd bf
       -1.6469142 -1.8395795 -1.7069563 -1.7334046
000180 e2 86 09 c0 35 de d9 bf 5b 32 d5 bf 1a a4 ed bf
       -2.1488576 -1.7020937 -1.6655992 -1.8565705
000190 a9 0d e9 bf 37 dd e4 bf c9 ef ed bf 5d 2c 86 be
       -1.8207294 -1.788001 -1.8588802 -0.26205721
0001a0 12 dc 7d 3f de c1 00 3e 2a 1c c6 be 9e f2 04 bf
       0.99163926 0.12573954 -0.38693362 -0.51932704
0001b0 ce b6 74 bf 56 1f 02 bf 3d cb 8e bf 0f 96 71 bf
       -0.9559144 -0.50829065 -1.1155773 -0.94369596
0001c0 5d 6a 96 bf 2f a4 ba bf 12 e6 9c bf ca 26 4e bf
       -1.175121 -1.4581355 -1.2257712 -0.8052794
0001d0 c5 0f 7a bd 2e 9e ba bf a0 a9 cc bf aa 0b 89 bf
       -0.061050195 -1.4579523 -1.5989265 -1.0706685
0001e0 30 1e da bf ce 64 6c bf 35 67 10 bf fb 3b 18 bf
       -1.7040462 -0.92341316 -0.5640748 -0.5946652
0001f0 10 48 bb be 2f 55 c7 3e 2d cb 44 3f 89 eb 05 bf
       -0.36578417 0.38932177 0.7687252 -0.52312523
000200 37 90 9a bf 85 cd 09 bf 82 54 10 c0 f6 f3 a9 bf
       -1.2075261 -0.5382922 -2.255158 -1.3277576
000210 ab 38 43 3d 73 ad c8 3f 37 d5 98 be 0f 43 c1 bf
       0.047661465 1.5677933 -0.2985017 -1.509859
000220 f6 ef 5e 3f ad 5d bf 3d 83 a1 b6 bf cc d9 e5 bf
       0.870849 0.09344039 -1.426804 -1.7957091
000230 98 ce 2a c0 39 5c 13 c0 a3 c1 bb c1 58 45 8b 3f
       -2.6688595 -2.3025038 -23.46955 1.0880537
000240 c3 04 80 bf 35 a0 62 bf d2 76 4c be 92 dd 29 3d
       -1.0001453 -0.88525707 -0.19967201 0.04147107
000250 09 93 e4 bf 53 aa 8a bf 2d 1d a9 bf e1 5b 6e c0
       -1.7857372 -1.0833229 -1.3212029 -3.7243578
000260 b3 06 27 c0 e9 8a c8 bf 5b 08 d8 be 4d f9 74 42
       -2.609784 -1.5667392 -0.42193875 61.243458
000270 00 49 aa 40 e1 90 1f 40 e6 8c f5 bf 7f 42 e6 bf
       5.321411 2.4932177 -1.9183624 -1.7989043
000280 ae bc c0 c0 47 63 4b c0 94 08 1c c0 73 04 c5 bf
       -6.023032 -3.1779344 -2.4380236 -1.5391983
000290 c5 c6 a5 bf 24 4c e6 3f d9 27 3c 40 77 fc 3e 40
       -1.2951285 1.7991986 2.939932 2.9841592
0002a0 3a 27 d2 c0 76 37 d7 bf ef df ec bf 60 d8 0d c0
       -6.5672884 -1.68138 -1.8505839 -2.2163315
0002b0 85 e1 e8 bf 6c 9a f4 bf 8a 85 fe bf 79 a3 fd bf
       -1.8193823 -1.9109626 -1.9884503 -1.9815513
0002c0 c0 fe f9 bf 7b 04 c8 bf d2 59 eb bf fb 81 02 c0
       -1.9530869 -1.5626367 -1.8386786 -2.0391834
0002d0 f5 61 dc bf 93 1b 7f 3e e1 80 d8 bf e5 5f d9 bf
       -1.7217394 0.24912862 -1.6914331 -1.698239
0002e0 3d 78 fb bf 3e 03 06 c0 9e aa 06 c0 4c de d5 bf
       -1.9646069 -2.093948 -2.1041636 -1.6708465
0002f0 cd c3 e9 bf 79 09 c2 bf e7 e2 ef bf a5 ee f0 bf
       -1.8262879 -1.5159141 -1.874112 -1.8822829
000300 db fc d2 bf 54 3e fd bf 86 20 8c be bc 84 42 bf
       -1.6483415 -1.9784646 -0.27368563 -0.75983787
000310 26 77 2b bf 02 10 c9 be de 31 d8 3e 6d f8 be bd
       -0.6697868 -0.39270025 0.42225546 -0.09324727
000320 26 17 0a bf c8 cc 68 3d d1 5f a6 bd 7b ec c3 be
       -0.5394157 0.05683592 -0.08123744 -0.38266358
000330 8d be 7b bf 48 b6 7c bf fa 9f 71 bf 93 ad a8 bf
       -0.9833763 -0.9871564 -0.9438473 -1.3177971
000340 38 81 40 40 e2 88 3a 40 05 fb 0d 40 3e f2 6e c0
       3.007887 2.9146047 2.218446 -3.7335353
000350 a1 ec 7e c0 3a be fd bf 23 43 01 bf a0 04 25 bf
       -3.9831927 -1.9823678 -0.5049307 -0.6446018
000360 23 45 d6 be 2e 54 19 40 65 b7 d7 3f 8b f9 58 3f
       -0.41849622 2.395763 1.6852843 0.8475577
000370 6d e0 45 42 04 26 14 3d 58 cc be 3e ca 7d 99 3e
       49.469166 0.036169067 0.37265277 0.29978782
000380 bf 34 98 3f 04 60 2c bf ba 65 4c 3f a6 31 af 3f
       1.1891097 -0.6733401 0.7984272 1.3687027
000390 a2 0e e4 bc f5 91 ff bf f5 d1 7b c0 fe f8 8f c0
       -0.027839009 -1.9966418 -3.9346898 -4.4991446
0003a0 3c 93 19 c0 43 92 9d 42 24 ce c0 bd 87 a3 f1 3d
       -2.3996115 78.78567 -0.09414318 0.117987685
0003b0 13 85 8c be f2 d5 ca bc 02 0f b0 be 2b c1 44 be
       -0.27445278 -0.02476022 -0.3438645 -0.19214313
0003c0 8b c0 a3 3d 54 f4 6a be 2b 0e 7d be 5f f5 29 bd
       0.07995709 -0.22944766 -0.24712436 -0.04149377
0003d0 3a 65 05 be b6 ec 83 bd 01 45 42 bf 26 de 5e bf
       -0.13026896 -0.064416334 -0.7588654 -0.8705772
0003e0 f7 91 7c 3f ee 34 2b 3d 1c 0b aa be 36 e6 0c bf
       0.98660225 0.041798525 -0.332116 -0.55038774
0003f0 d8 e3 0c 3e 41 8f 1c bf 44 df eb bf 79 10 fe bf
       0.1375879 -0.6115609 -1.842751 -1.9848777

linear1.bias f4 [64]
000000 dd 76 a4 40 c2 5b df bf 5e 1f 8d 3e 4c 28 ff 3f
       5.1395097 -1.7449877 0.27562994 1.9934173
000010 35 6d 04 41 42 35 f5 40 34 26 de 40 a7 be 2c 3f
       8.276662 7.662751 6.9421635 0.6747841
000020 9d e0 85 40 93 ee 84 40 66 5e 56 c0 63 ad 0e 40
       4.1836686 4.154123 -3.3495116 2.2293327
000030 0f 72 2c c0 74 df ce 3e 0b ec 6a 3f 43 25 1d 3e
       -2.6944616 0.40404856 0.91766423 0.15346245
000040 88 6e 11 41 3f 82 d6 40 78 d0 c5 bf d7 b9 19 40
       9.089485 6.703399 -1.5454245 2.4019678
000050 0d fa 0d 40 0f a7 03 40 a2 57 66 40 4a 05 dd 3f
       2.218387 2.0570714 3.5990987 1.7267239
000060 eb c2 94 40 4e 6d 85 3f c3 28 fc 3e d3 9c bf 3f
       4.6487937 1.0423982 0.4924985 1.4969734
000070 9a 6a 1e be ad c8 b7 3f 92 4b 6d c0 92 ca 58 bf
       -0.15470353 1.4358116 -3.7077374 -0.846841
000080 9c 9c 98 3f de 08 da bf d0 c6 ed 40 46 55 1e bf
       1.1922793 -1.7033956 7.430519 -0.61848867
000090 45 46 51 3f ec 4d 94 c0 4e 4f 46 41 c0 3e 69 40
       0.8174785 -4.634512 12.3943615 3.644455
0000a0 f0 b3 88 c0 a6 d8 7d 40 7e 8b ad 40 79 82 02 40
       -4.271965 3.9663482 5.423278 2.0392134
0000b0 f9 25 9e bf f5 ba 27 40 10 0c 02 3e 8a 37 61 40
       -1.2355338 2.620786 0.12699914 3.5190148
0000c0 94 75 69 40 6f f3 92 40 54 50 2e 40 35 81 91 40
       3.6478014 4.592216 2.7236528 4.5470223
0000d0 21 29 a0 40 bb c8 3a c0 e2 b2 68 c0 c9 71 51 40
       5.0050206 -2.9185016 -3.6359181 3.27257
0000e0 15 03 8b 40 1b 06 9c 40 78 25 69 c0 f3 c2 7a 41
       4.344126 4.8757453 -3.642912 15.672595
0000f0 92 95 7b 40 fc 82 88 40 06 81 39 40 d0 72 13 c0
       3.931004 4.2659893 2.8985 -2.3038826

linear2.weight f4 [3, 64]
000000 19 70 ea bf fb e7 22 bf 19 e4 06 bf 88 0c b7 be
       -1.831546 -0.63635224 -0.526918 -0.35751748
000010 6c 37 2c bf 69 de dd bf 41 1c d6 c0 53 33 e6 3f
       -0.6727207 -1.7333499 -6.690949 1.7984413
000020 c2 b8 a5 c0 a3 3c be c0 83 83 ab 3f c2 82 06 c0
       -5.1788034 -5.944902 1.3399509 -2.1017308
000030 ac 44 29 40 34 e0 f7 3f 4c 3a ee 3f fb 58 2f c0
       2.6448164 1.9365296 1.8611541 -2.739806
000040 60 9f cc bf 7d 75 81 c0 c6 dd 68 3e 4b 35 af c0
       -1.5986137 -4.045592 0.2274085 -5.4752555
000050 0c 6c bf bf 76 1f b5 bf 51 c4 91 3f 38 c3 10 bf
       -1.4954848 -1.4150226 1.1388036 -0.5654788
000060 bd e1 3d c0 0b 1a 02 40 74 f6 03 40 c3 fd ff 3f
       -2.966903 2.0328395 2.0619173 1.9999317
000070 2e 73 cb bf 7b 1d 68 3f 5c 69 19 3e c1 35 24 40
       -1.5894525 0.90669984 0.14981598 2.5657809
000080 f4 e6 e0 3f 9d e1 21 40 6b 79 14 c1 36 c0 b8 bd
       1.7570481 2.5293953 -9.279643 -0.09021036
000090 c2 12 08 40 3d aa be 40 6c 62 14 c0 84 4d 70 c0
       2.126145 5.958281 -2.3185072 -3.7547312
0000a0 3b 11 2b bf 92 22 89 c0 da d7 98 c0 cf 04 3d 3f
       -0.66823167 -4.28547 -4.776349 0.7383546
0000b0 b3 c7 87 3f 38 90 da bf d3 80 49 40 3a cf 55 c0
       1.0607818 -1.7075262 3.1484878 -3.340773
0000c0 21 c0 a4 c0 b3 97 69 c0 68 b8 d8 bf 82 80 69 c0
       -5.148453 -3.649884 -1.6931276 -3.6484685
0000d0 55 d0 90 c0 8a 71 97 3f 92 de d3 40 a9 42 14 c0
       -4.525431 1.1831524 6.620919 -2.3165686
0000e0 3b 12 da be eb dd eb bf 6c 94 d6 3d e4 55 e6 bf
       -0.42592034 -1.8427099 0.10477528 -1.7994962
0000f0 c3 0c 8b c0 39 fe 67 c0 17 c2 4e be 47 7f bd 3f
       -4.345308 -3.6248915 -0.20191227 1.4804467
000100 bc 4f 02 c0 ca 3d da be 15 33 83 3f ab bd 13 c0
       -2.0361166 -0.42625266 1.0249964 -2.3084514
000110 bb c2 8e c0 c6 cf 05 c0 06 64 97 c0 c4 84 9b bd
       -4.461271 -2.0908065 -4.73096 -0.075936824
000120 70 47 77 bc 86 6b 9b 3d f3 2f c7 3f e8 3d b9 c0
       -0.015092716 0.07588868 1.5561508 -5.788807
000130 85 11 26 3f da 1c 81 bb a4 a8 6c bd 7d 5c bd 3e
       0.6487048 -0.003940207 -0.057778016 0.36984625
000140 08 e9 0f be 5e 27 1c c0 08 e6 ab be 18 5b 3f c0
       -0.14053738 -2.4399028 -0.33573937 -2.989935
000150 04 43 00 3c c8 4b 27 c0 1b 99 df 3f a1 7e 7a 3e
       0.007828478 -2.6140003 1.7468599 0.24462368
000160 57 a4 ea be dd 25 ac 3e 37 9f 0a 3f 6c 37 3b 3e
       -0.45828506 0.33622637 0.5414919 0.1828286
000170 63 e1 1e 41 19 6d 34 be 09 c0 7b 40 ce a1 23 40
       9.930026 -0.17619742 3.933596 2.5567508
000180 48 99 45 3b 81 28 31 40 9e 8b dc c0 b6 17 7c be
       0.0030151177 2.7680972 -6.892043 -0.2461842
000190 72 18 62 3d 09 04 c8 40 b0 7f 42 3f aa b4 c2 bd
       0.055199094 6.2504926 0.75976086 -0.09507115
0001a0 15 e3 69 c0 f8 96 46 be 80 b6 e9 3d c8 0e 26 3f
       -3.654485 -0.19393528 0.11411762 0.64866304
0001b0 d2 18 03 3f dc 54 24 c0 92 ae 97 3d e4 d2 b6 bd
       0.5120975 -2.5676794 0.074063435 -0.08926943
0001c0 1c 9b fb 3e 85 34 f1 3d e3 9a 0f c0 07 3d ad 3e
       0.49141777 0.117775954 -2.2438285 0.33835623
0001d0 d8 43 ec 3d b5 5d 16 40 91 27 c4 40 a4 b1 e5 3d
       0.11536378 2.3494694 6.12983 0.11215523
0001e0 91 61 d2 be e8 c5 68 3d b2 6a 26 be 55 1d be bf
       -0.41090062 0.056829363 -0.16251639 -1.4852701
0001f0 18 b1 e0 3d d7 b6 20 3e 8e af 01 c0 0a c1 b1 3e
       0.10971278 0.15694748 -2.02634 0.3471759
000200 af 48 19 c0 cc e5 89 3e 01 08 2e 3d 0f 46 94 c0
       -2.3950613 0.26933134 0.042488102 -4.633552
000210 78 ec e6 c0 f1 30 9b bf 30 27 02 c1 66 52 d3 be
       -7.216366 -1.2124311 -8.134567 -0.41273803
000220 b0 16 1d bf 5f f6 c0 3e 28 4e 70 40 94 e1 06 c1
       -0.61362743 0.37687966 3.7547703 -8.430073
000230 01 33 50 3f ba b6 7b 3e db de 81 be ab d4 1d 40
       0.81327826 0.24581423 -0.25365338 2.4661052
000240 7b 31 b8 be aa 4c a1 c0 83 c7 06 bd d3 b7 bd bf
       -0.3597525 -5.0406084 -0.032905113 -1.4821724
000250 9c e0 28 3d cd 6b 52 bf 53 af fe 3f fd db d6 bd
       0.04122983 -0.8219574 1.9897255 -0.10491178
000260 d1 4f 5f be 60 b1 66 be b4 e4 37 3e 8c ca 99 be
       -0.21807791 -0.225286 0.17958337 -0.30037344
000270 5b 7d 2a 41 e3 7d 5f be 28 dd 8c 40 64 c5 67 40
       10.655604 -0.21825366 4.4019966 3.6214228
000280 bd 5c 67 3e b0 03 15 40 9b c6 22 c1 e3 97 0b 3e
       0.2259397 2.32835 -10.173488 0.13632159
000290 e8 40 99 3a aa 18 12 41 f4 3f 61 bf 1a 0c b0 bd
       0.0011692317 9.1310215 -0.8798821 -0.08596058
0002a0 45 4c f8 3f 3a 33 c2 3d 74 b4 c2 bd 2a df 39 3e
       1.9398276 0.09482427 -0.09507075 0.18151537
0002b0 bd d8 08 3f 79 c6 82 bf f0 e0 7a 3e 88 a6 8b 3c
       0.53455716 -1.0216819 0.2449987 0.017047182
0002c0 38 75 f8 3e b9 13 b6 3e 00 12 1b c0 07 fd 71 3e
       0.4852693 0.35561922 -2.4229736 0.23631679
0002d0 f1 bc 44 be 13 f0 a7 3f ed 26 09 41 e0 b5 47 3c
       -0.192127 1.312014 8.572003 0.0121893585
0002e0 af fa 9a 3e 4f bf 07 3e df 8f 5d 3e 18 48 f1 bf
       0.3026938 0.13256572 0.21636914 -1.8850126
0002f0 c6 89 6b be 3c dc 9c bd 1d b1 67 bf ca 46 34 3d
       -0.23001775 -0.07659194 -0.9050463 0.044012822

linear2.bias f4 [3]
000000 d1 b0 be c0 0a 16 ca c0 66 91 1a c1
       -5.959084 -6.3151903 -9.660498
