from_youtube/model/model_LR=0.01 Gamma=0.9 Ie=10.0% Fe=0.5% eDecay=0.005%.pth (torch, 2489 bytes, 4 tensors)

linear1.weight f4 [6, 13]
1.8776226 2.1879003 2.0324464 2.19511 2.0894918 2.0206 1.8936801 1.7063568
1.2226721 1.3113029 1.0901642 1.4392282 2.658177 -0.33404642 -0.06836152 -0.32460117
0.12941985 0.1544765 0.18178566 -0.0957234 -0.27874807 0.009939553 -0.17508185 0.10773114
-0.2620102 -0.18983808 0.13422936 -0.28593072 -0.305636 -0.3077399 -0.19348596 -0.132176
-0.032803956 -0.13381454 -0.2071601 -0.31471965 0.10143184 0.19336522 -0.09123577 0.072578706
0.0064270366 -0.04742637 -0.18263048 -0.23578905 -0.5328257 -0.37232232 -0.58155584 -0.11548321
-0.03231362 0.16125536 0.06356194 -0.29575044 0.9394251 1.0102489 1.240552 1.1111591
1.2239214 1.2051854 0.98019433 0.8813067 0.2538107 0.009811709 0.06359436 0.6051298
1.2004417 1.5124152 2.369767 2.414048 2.26622 2.1956375 2.2662647 2.2510703
2.0648534 1.7121785 1.8057827 1.2231344 1.5112207 2.5738537
00000000: f055 f03f 8f06 0c40 9a13 0240 af7c 0c40
00000010: 3cba 0540 8351 0140 1c64 f23f e669 da3f
00000020: 8580 9c3f c6d8 a73f 808a 8b3f a138 b83f
00000030: 921f 2a40 2208 abbe 2001 8cbd 2032 a6be
00000040: a386 043e 162f 1e3e 0526 3a3e a10a c4bd
00000050: 11b8 8ebe 82d9 223c a848 33be 25a2 dc3d
00000060: 3326 86be ea64 42be 6c73 093e 8365 92be
00000070: 527c 9cbe 1690 9dbe 2f21 46be 2559 07be
00000080: 715d 06bd ae06 09be c721 54be ef22 a1be
00000090: 7fbb cf3d 8801 463e d2d9 babd 25a4 943d
000000a0: e499 d23b 2742 42bd 7c03 3bbe af72 71be
000000b0: 4467 08bf 08a1 bebe d8e0 14bf 7682 ecbd
000000c0: 495b 04bd 2020 253e c32c 823d 9a6c 97be
000000d0: 2a7e 703f d64f 813f 68ca 9e3f 763a 8e3f
000000e0: 75a9 9c3f 8443 9a3f 04ee 7a3f 519d 613f
000000f0: 7af3 813e 4ac1 203c c33d 823d c9e9 1a3f
00000100: 13a8 993f d296 c13f 43aa 1740 c37f 1a40
00000110: c009 1140 5385 0c40 7b0a 1140 8911 1040
00000120: 8f26 0440 aa28 db3f e323 e73f ab8f 9c3f
00000130: ae6f c13f 05ba 2440

linear1.bias f4 [6]
1.9796278 -0.009612715 -0.2267763 -0.32127655 1.1582508 2.325925
00000000: 7264 fd3f a67e 1dbc 0c38 68be 5c7e a4be
00000010: 9041 943f f5db 1440

linear2.weight f4 [3, 6]
-1.3126298 -0.04010448 -0.2200545 -0.10526374 -1.1323829 -1.6874968 -1.3574297 0.06905771
0.3205454 -0.14138798 -0.90988964 -1.6189327 -1.2376326 0.21953505 -0.31134152 0.22776644
-1.4579781 -1.3884715
00000000: 4104 a8bf 9844 24bd f855 61be 8494 d7bd
00000010: ecf1 90bf e5ff d7bf 42c0 adbf 216e 8d3d
00000020: 871e a43e 03c8 10be 87ee 68bf 3039 cfbf
00000030: bf6a 9ebf cccd 603e 2868 9fbe 9b3b 693e
00000040: 079f babf 6fb9 b1bf

linear2.bias f4 [3]
-0.6271504 -1.3270673 -0.800475
00000000: ee8c 20bf 57dd a9bf eeeb 4cbf
