from_youtube/model/model_LR=0.1 Gamma=0.8 Ie=0.2% Fe=0.05% eDecay=0.01.pth (torch, 2471 bytes, 4 tensors)

linear1.weight f4 [6, 13]
000000 ca 6e 2f c0 4b f5 03 c0 d4 5e f1 bf 6d 03 d0 bf
       -2.741137 -2.0618465 -1.8857064 -1.6251045
000010 91 45 be bf f9 a1 93 bf 32 03 92 bf e5 52 60 bf
       -1.486498 -1.1533805 -1.1407225 -0.87626487
000020 81 19 74 bf b6 7e aa bf f0 30 fb bf 09 2d 08 c0
       -0.95351416 -1.3319919 -1.962431 -2.1277487
000030 6b 85 49 bf dd ec c9 bf 6a ea ba bf a6 cd dc bf
       -0.78719205 -1.577541 -1.4602787 -1.7250259
000040 a1 7c eb bf 9e 06 f1 bf e1 c9 cd bf e1 bf ea bf
       -1.8397409 -1.8830144 -1.6077234 -1.8339807
000050 ec fc d4 bf 6b 34 e8 bf cd c3 c9 bf 7a 8f b8 bf
       -1.6639686 -1.8140997 -1.5762879 -1.4418786
000060 9e 8e d9 bf 90 35 05 3e fa ec 92 be 63 bd 54 bf
       -1.6996648 0.13008714 -0.28696424 -0.8310148
000070 10 5d 41 bf 2e 10 8e bf c7 c8 9c bf 33 25 8a bf
       -0.7553263 -1.1098688 -1.2248772 -1.0792602
000080 aa 1c 7a bf d9 ec 60 bf 3a 6c 26 bf 10 d2 31 3e
       -0.9769999 -0.878614 -0.6500889 0.17365289
000090 04 ef 74 be 5e f9 ec bd 3d cc a3 bf ff cc 42 bf
       -0.23919302 -0.115710005 -1.2796704 -0.7609405
0000a0 a6 29 06 bf c6 f2 1d bf bb 4c 13 bf a3 80 32 bf
       -0.524073 -0.6169857 -0.57538956 -0.69727534
0000b0 86 6f 5b bf ae a2 00 bf 0f f0 f9 be 7c 3d 29 bf
       -0.85717046 -0.5024823 -0.48815963 -0.6610944
0000c0 b3 d9 1d bf e7 f3 b8 be b1 61 bd be b1 fa c9 be
       -0.6166031 -0.36123583 -0.36988595 -0.39449075
0000d0 c1 5b 5e bf 70 b0 6b bf 45 58 1a bf c7 30 89 bf
       -0.86858755 -0.920661 -0.6029094 -1.0718011
0000e0 cb f8 84 bf b8 06 88 bf c5 ee 45 bf 46 06 21 bf
       -1.0388426 -1.062705 -0.7731746 -0.629002
0000f0 fb ac 7a bf 97 17 6a bf a7 d6 7d bf 29 c2 22 bf
       -0.979202 -0.91442245 -0.9915566 -0.63577515
000100 df 83 53 be 58 46 10 bf 93 9c 29 bf f6 78 5d bf
       -0.20655774 -0.56357336 -0.6625454 -0.86512697
000110 1c 93 5c bf e6 42 fe be ab d7 43 bf ac 09 24 bf
       -0.8616197 -0.49660414 -0.7650096 -0.6407726
000120 04 4b 08 bf 44 43 0c bf 77 bc b6 be bc 67 cf be
       -0.53239465 -0.5479014 -0.35690662 -0.4050883
000130 fb ec 03 bf cb 94 be be
       -0.5153348 -0.37222895

linear1.bias f4 [6]
000000 3a 84 56 40 cc b8 dd 3f 34 df cb bf 35 ef df be
       3.3518205 1.732202 -1.5927491 -0.43737188
000010 91 eb 86 3f 81 f4 aa 3e
       1.0540639 0.33389667

linear2.weight f4 [3, 6]
000000 cb 6a a9 3e cd b9 ab be 8b 75 53 bf f6 43 ec be
       0.3308929 -0.33540192 -0.8260123 -0.461456
000010 c1 4c 83 3e 39 22 0e bf 70 e4 df 3e 4c d4 0a be
       0.25644496 -0.5552097 0.4372897 -0.13557547
000020 19 bd dd be f8 7b cf 3e a7 5d 72 be b0 7c 8e be
       -0.43308333 0.40524268 -0.23668538 -0.27829504
000030 a8 90 49 40 c2 e1 01 40 e3 bb 15 bf a9 ee 9b 3f
       3.149454 2.0294042 -0.5848982 1.2182208
000040 ea 09 cd 3f 68 4a de 3f
       1.601865 1.7366457

linear2.bias f4 [3]
000000 8a 23 89 c0 ce 45 7c c0 c1 38 35 c0
       -4.2855883 -3.9417605 -2.831589
