from_youtube/model/model_LR=0.1 Gamma=0.9 Ie=10.0% Fe=0.5% eDecay=0.00025%.pth (torch, 2559 bytes, 4 tensors)

linear1.weight f4 [6, 13]
00000000: 27c7 51bf f52d f6be 0197 09bf 8f8b ffbe
00000010: 14ba 13bf d006 5fbf ae71 06bf 72b5 37bf
00000020: e106 bcbe de8b 17bf a125 46bf 356e 21bf
00000030: b986 45bf 1e77 38be 348a f9bd 7b02 c9bc
00000040: 4612 243e 9d59 52be 8b0f e9bd 9a57 e7bd
00000050: 6c55 aebe 98d6 96bd fc3c 46be 8432 20be
00000060: 354a efbc 7448 d7bd 6b81 27bf 4edb 04bf
00000070: 348e 1fbf f039 54bf c2da d3be cece 32bf
00000080: a9a8 e3be 0297 b9be d1ea 24bf 9c6a b4be
00000090: f638 d0be 4d4d 11bf 5ef5 c2be 4f19 6abf
000000a0: 0006 47bf be42 d0be 0a38 0abf 5429 04bf
000000b0: d34b 1ebf a2e3 47bf 7aaf 15bf b636 c5be
000000c0: 2224 cdbe 9dc2 14bf f6d1 eabe a22c 0fbf
000000d0: 1048 c5be c205 4ebf ea4a 1cbf 171f f3be
000000e0: c7a0 1bbf 57e7 26bf 5ffc f7be 0ca3 31bf
000000f0: cba2 b0be 17b2 16bf d150 ffbe df13 fbbe
00000100: 1a64 16bf a5c5 6bbf 226c 89bf f03b 62bf
00000110: 85ef 8cbf c3dc a8bf 04b1 86bf c284 a3bf
00000120: 55bc b4bf 34f4 85bf 12b3 afbf f355 68bf
00000130: c6ed a0bf bef2 62bd
-0.8194451 -0.48081937 -0.5374604 -0.49911162 -0.5770581 -0.8711977 -0.5251721 -0.7176124
-0.36723998 -0.59197795 -0.7740117 -0.6305879 -0.77158695 -0.1801419 -0.12184563 -0.024537316
0.16022596 -0.20541997 -0.11379918 -0.112960055 -0.34049547 -0.07365149 -0.19359201 -0.1564427
-0.02921019 -0.10511866 -0.6543185 -0.5189713 -0.6232636 -0.82900906 -0.41377836 -0.6984681
-0.44464615 -0.36248022 -0.644208 -0.35237586 -0.40668458 -0.56758577 -0.38077825 -0.9144487
-0.7774353 -0.4067592 -0.5399176 -0.5162556 -0.6183445 -0.78081715 -0.5847088 -0.38518304
-0.4006663 -0.58109456 -0.45863312 -0.5592748 -0.38531542 -0.80477536 -0.6105181 -0.47484657
-0.607922 -0.65196747 -0.4843473 -0.69389415 -0.344992 -0.58865494 -0.49866346 -0.49038598
-0.5874649 -0.92098457 -1.0736125 -0.8837271 -1.1010596 -1.3192371 -1.0522771 -1.277489
-1.4119974 -1.046515 -1.3726523 -0.9075615 -1.2572563 -0.05540728

linear1.bias f4 [6]
00000000: 45d6 603d 7b44 89bf 0b61 713e 7a73 8e3e
00000010: af06 3dbe 6b8b a83f
0.054891843 -1.0724024 0.23572175 0.27822477 -0.18459581 1.3167547

linear2.weight f4 [3, 6]
00000000: 25ce 7940 8734 03bf b111 6040 ee25 4d40
00000010: a0d6 5240 5ab1 8940 25f3 593e a8b0 32bf
00000020: 05f1 0a3f 73a6 943e c61e 363d e657 37bc
00000030: b93c d2be 103c 27bd 2797 f0be b0f2 f5be
00000040: e403 97be ab63 59bd
3.903207 -0.51252025 3.5010798 3.20544 3.2943497 4.3028994 0.21284159 -0.69800806
0.54274017 0.2903324 0.04446294 -0.01119039 -0.41061953 -0.040828764 -0.4699032 -0.48036718
-0.29495156 -0.053073566

linear2.bias f4 [3]
00000000: 9861 3ac2 4a38 38c2 d969 34c2
-46.595306 -46.05497 -45.103367
