from_youtube/model/model_LR=1 Gamma=0.9 Ie=10.0% Fe=0.5% eDecay=0.005%.pth (torch, 2471 bytes, 4 tensors)

linear1.weight f4 [6, 13]
0	0x3f6ea9f9	0.9322811
1	0x3c88b2ca	0.016686816
2	0x3f9ae0a1	1.2099801
3	0xbf0d09d7	-0.5509314
4	0xc008d5be	-2.1380458
5	0xbfd6f81b	-1.6794466
6	0xc0153726	-2.331491
7	0xc019aefc	-2.4013052
8	0xbfd0aedd	-1.6303364
9	0xbfe0bf9c	-1.7558475
10	0xbfb16f25	-1.3862044
11	0x3f0d7183	0.5525133
12	0xc15fd3cb	-13.989207
13	0xc170bef4	-15.046619
14	0xc12e4f3c	-10.894344
15	0xc19e9ce6	-19.82661
16	0xc1591520	-13.567657
17	0xc1c69bd1	-24.826082
18	0xc202a3e0	-32.660034
19	0xc1c73024	-24.898506
20	0xc1e969c0	-29.176636
21	0xc218322c	-38.048996
22	0xc22f1a0a	-43.77543
23	0x420c4c50	35.074524
24	0xc180600d	-16.0469
25	0xbdcd9837	-0.10038798
26	0x410dde4c	8.866772
27	0x4148ac38	12.542046
28	0x40804fb5	4.00973
29	0xc1b36f68	-22.429398
30	0xc1ca6108	-25.297379
31	0xc15e2f9a	-13.886621
32	0xc1a9e7fd	-21.238276
33	0xc19f78cd	-19.933985
34	0xc2073c19	-33.80869
35	0xc1d01889	-26.01198
36	0xc06e921b	-3.7276676
37	0x409cb03c	4.896513
38	0xc1097410	-8.590836
39	0x4147a757	12.478354
40	0xc16a102f	-14.628951
41	0xc0dff663	-6.9988265
42	0xc1399c12	-11.600603
43	0x418bebf4	17.490211
44	0xc1795da2	-15.58536
45	0xc1d1b827	-26.214918
46	0xc2140856	-37.00814
47	0xc1824ec4	-16.28846
48	0xc08e5b8c	-4.448675
49	0x403b5a01	2.9273684
50	0x409814db	4.752546
51	0x4006ce3b	2.1063373
52	0xc1a7b82e	-20.964931
53	0xc1f9c1f5	-31.219706
54	0xc2028363	-32.628307
55	0xc213b710	-36.928772
56	0xc204f18a	-33.235878
57	0x424754b3	49.832714
58	0xc23bef97	-46.983974
59	0xc1b17b2d	-22.185144
60	0xc10531cd	-8.324658
61	0xc05e60f6	-3.474668
62	0xc08aa72f	-4.332908
63	0x419c3b84	19.52906
64	0xc0850099	-4.156323
65	0xc0c9c0b4	-6.3047733
66	0x41ae3cf5	21.779764
67	0xc1120630	-9.126511
68	0xc1d1793b	-26.184195
69	0xc19c5bd6	-19.544842
70	0xc21e9271	-39.64301
71	0xc217789d	-37.867786
72	0xc223dc88	-40.965363
73	0xc2769c25	-61.652485
74	0xc25c6b6c	-55.104904
75	0xc21c769d	-39.115833
76	0xc198b178	-19.086655
77	0xc2196dff	-38.357418

linear1.bias f4 [6]
0	0xc14ca904	-12.791264
1	0xc2c20f1b	-97.0295
2	0xc31287fe	-146.53122
3	0xc2c14e1e	-96.65257
4	0xc348a246	-200.63388
5	0xc3584f68	-216.31018

linear2.weight f4 [3, 6]
0	0xbec40ee2	-0.38292605
1	0x41c50286	24.626232
2	0x3f4e7f69	0.8066316
3	0x41a0fb1a	20.122608
4	0x40b9e6f1	5.809441
5	0xc1c49e50	-24.577301
6	0xbe9fe4ec	-0.3122934
7	0xbe239479	-0.15974607
8	0xc1df2f96	-27.898235
9	0x420f01e0	35.75183
10	0xbf016a00	-0.5055237
11	0xc1bfa689	-23.956316
12	0x40e9f239	7.310818
13	0x41fba74d	31.45669
14	0xc1fb010b	-31.37551
15	0xc22784a0	-41.879517
16	0xc1ff18d9	-31.887133
17	0xbeb87be4	-0.3603202

linear2.bias f4 [3]
0	0xc52dd5f0	-2781.371
1	0xc52ddabc	-2781.671
2	0xc52d8d6c	-2776.8389
