from_youtube/model/model.pth (torch, 13715 bytes, 4 tensors)

linear1.weight f4 [256, 7]
0	0xbdf503e1	-0.119636305
1	0xbebba784	-0.36651242
2	0x3e03e4ba	0.12880221
3	0x3e059977	0.13046823
4	0x3e1b24b9	0.15150727
5	0xbcde52a9	-0.027139025
6	0xbe2d3f4e	-0.1691868
7	0xbd42c731	-0.047553245
8	0x3e17f094	0.14837867
9	0xbe022e6e	-0.12713024
10	0xbe02272c	-0.12710255
11	0x3e4e5844	0.20150858
12	0xbe21872b	-0.15774219
13	0xbe7a9a33	-0.24472885
14	0x3e80df50	0.25170374
15	0x3def73a1	0.11691976
16	0x3df3aa81	0.118977554
17	0xbd1f31de	-0.038865916
18	0xbdee758d	-0.11643515
19	0x3e84c972	0.2593494
20	0xbe8f0750	-0.27935266
21	0xbea3befc	-0.31981647
22	0xbc6f2567	-0.01459632
23	0xbeb3278e	-0.34991115
24	0x3e78c6ee	0.24294636
25	0xbe74a336	-0.23890385
26	0x3deb9a74	0.11504069
27	0xbe939ff5	-0.28832975
28	0x3e0724f8	0.13197696
29	0x3e03d5ca	0.12874523
30	0xbdce9276	-0.10086529
31	0x3cd285f1	0.025698634
32	0x3e3956c7	0.18099509
33	0xbe30bb26	-0.17258891
34	0xbeade966	-0.3396713
35	0xbcac4e89	-0.021033542
36	0xbe2bfcb5	-0.16795619
37	0xbdc5e71f	-0.096632235
38	0x3dee8f33	0.11648407
39	0xbec20658	-0.37895465
40	0xbe87dc3b	-0.2653521
41	0x3d16d33b	0.03682254
42	0xbecb34af	-0.39688632
43	0xbe2c6d9f	-0.16838692
44	0x3ebc53ed	0.3678278
45	0xbeb621ce	-0.35572666
46	0x3e2b42ac	0.16724652
47	0xbcf2352c	-0.02956637
48	0xbd008680	-0.03137827
49	0xbe842edf	-0.2581701
50	0xbe6201ad	-0.22070952
51	0xbe886084	-0.26636136
52	0xbdcc114b	-0.09964236
53	0x3da94f09	0.08267028
54	0x3e11dec2	0.14245132
55	0x3de0f2b2	0.109837905
56	0xbd3f07da	-0.046638347
57	0x3d6687d9	0.0562819
58	0xbd85a959	-0.06526441
59	0x3e2426f0	0.16030478
60	0xbe96409a	-0.29346162
61	0x3ed74794	0.42046797
62	0xbeafc004	-0.34326184
63	0x3e8ba14e	0.27271503
64	0xbebe6079	-0.37182978
65	0xbeb1e84e	-0.34747547
66	0x3c20bf32	0.0098112095
67	0x3c08d27a	0.008350963
68	0x3ecf9fcb	0.405516
69	0xbda1d5a3	-0.07902076
70	0xbe16b9fb	-0.14719383
71	0xbe6fa5e6	-0.23403129
72	0xbda9a6a0	-0.08283734
73	0x3ea6fdf0	0.32615614
74	0x3d2dcf33	0.04243393
75	0x3e5368f4	0.20645505
76	0xbedaccc3	-0.42734346
77	0x3dd0ef88	0.10201937
78	0x3ddeb62a	0.10874589
79	0x3e478b6c	0.19486779
80	0xbe3d8e30	-0.18511271
81	0x3e301250	0.17194486
82	0x3df1175c	0.117720336
83	0xbe4a9cc0	-0.19786358
84	0x3e83b1e6	0.25721663
85	0x3e2d01be	0.16895196
86	0xbe3c986d	-0.18417521
87	0xbe12e494	-0.14345008
88	0xbe10e2c5	-0.14149006
89	0xbe3992fa	-0.18122473
90	0xbd63106c	-0.055435583
91	0x3e53878f	0.2065718
92	0xbe945ef2	-0.28978688
93	0x3ded6bf3	0.11592855
94	0x3e7322df	0.23743771
95	0xbb9bc0fa	-0.004753229
96	0xbe35f127	-0.17767774
97	0x3e05089e	0.12991568
98	0x3ca0014e	0.019531872
99	0x3e327343	0.17426781
100	0x3dd75f4b	0.105162226
101	0xbe4d68a8	-0.20059454
102	0xbe4a870f	-0.19778083
103	0x3ea71909	0.32636288
104	0xbee669b3	-0.45002517
105	0xbd45bac9	-0.048273835
106	0x3d491bd8	0.04909882
107	0x3dfa6a30	0.12227285
108	0xbea89cf3	-0.32932243
109	0xbe9c7b94	-0.30563033
110	0x3eeca9fa	0.46223432
111	0x3e310008	0.17285168
112	0xbef6c09f	-0.48193833
113	0xbe9ccca2	-0.30624872
114	0xbecb75c2	-0.3973828
115	0xbe94f249	-0.290911
116	0xbe495009	-0.19659437
117	0xbe8e8433	-0.27835235
118	0x3e53cf2a	0.20684496
119	0xbd8dde9c	-0.06927225
120	0xbe2a8175	-0.16650946
121	0x3e1f2d40	0.15544605
122	0xbbac3060	-0.00525479
123	0x3e22eb81	0.1591015
124	0x3f036104	0.5131991
125	0xbe9e921f	-0.30970857
126	0xbe1544c6	-0.14577016
127	0xbd8bcf0b	-0.068266
128	0x3e78a474	0.24281484
129	0xbe9c17ae	-0.30486816
130	0x3e758ae2	0.23978761
131	0x3df4fa50	0.11961806
132	0xbe853acd	-0.26021424
133	0xbe5b7c49	-0.2143413
134	0xbe6083f6	-0.21925339
135	0xbd77cbbd	-0.060497034
136	0xbe423347	-0.18964873
137	0xbd7e99ab	-0.062158268
138	0x3e6d2a4d	0.23160668
139	0xbcdd0000	-0.026977539
140	0xbe267b66	-0.1625801
141	0xbeb9e514	-0.36307585
142	0x3db412ca	0.08792646
143	0xbe49f870	-0.19723678
144	0xbec294e1	-0.3800421
145	0x3d8b13c3	0.067908786
146	0xbe73691d	-0.23770566
147	0xbd9bdf95	-0.07611004
148	0xbdc39bc6	-0.09551196
149	0xbdda82f7	-0.10669511
150	0xbe95787e	-0.2919349
151	0x3e0223cd	0.1270897
152	0x3cebb53c	0.028772943
153	0x3bd45006	0.006479266
154	0xbeb49e6d	-0.3527712
155	0xbe846015	-0.25854555
156	0x3e728127	0.2368208
157	0xbe5b0cc5	-0.2139159
158	0x3d036fa3	0.032088887
159	0x3c904929	0.01761301
160	0x3d2d747d	0.04234742
161	0x3e9f0f10	0.3106618
162	0x3e54dde1	0.20787765
163	0xbd68f023	-0.056869637
164	0xbe3878cf	-0.18014835
165	0xbecd6aaa	-0.4012044
166	0x3e187ad9	0.14890613
167	0xbebbdcc7	-0.36691877
168	0xbe297d8d	-0.165518
169	0xbe83d19d	-0.2574586
170	0xbe476122	-0.19470647
171	0x3e181d42	0.14854911
172	0x3cd85cb7	0.026411397
173	0xbe602ec6	-0.21892843
174	0x3db68028	0.089111626
175	0xbef30b22	-0.4746943
176	0xbd80c5d3	-0.06287732
177	0xbec14139	-0.37745073
178	0x3e69edfb	0.22844689
179	0xbeefd3a7	-0.46841165
180	0xbe9dcce8	-0.30820394
181	0x3e376b64	0.1791206
182	0xbe791a87	-0.24326526
183	0xbe92ba4a	-0.28657752
184	0xbec74127	-0.38916895
185	0xbe99667a	-0.29960996
186	0x3e195ef6	0.14977631
187	0x3dce457d	0.100718476
188	0x3dea860c	0.11451349
189	0x3e415d4c	0.18883246
190	0xbe50e253	-0.20398836
191	0xbddde103	-0.10833933
192	0xbdea4425	-0.11438779
193	0x3e32a963	0.17447428
194	0x3d386fae	0.04502838
195	0xbe62231e	-0.22083709
196	0x3e48b8fe	0.19601819
197	0x3e367c03	0.17820744
198	0xbda9be73	-0.082882784
199	0x3dd39aa1	0.103322275
200	0x3e83c87f	0.25738904
201	0x3f1def6d	0.6169346
202	0xbe7314ee	-0.23738453
203	0xbdbae597	-0.09125822
204	0x3d0a3c52	0.033748932
205	0x3e1e7197	0.15473019
206	0x3d0f97a0	0.03505671
207	0xbdb96988	-0.090533316
208	0xbe4044cf	-0.18776248
209	0xbf05e11c	-0.52296615
210	0xbd6539fd	-0.055963505
211	0x3e755a0a	0.23960128
212	0xbe3ef6d0	-0.18648839
213	0x3e4bb81e	0.19894454
214	0xbcde5722	-0.027141158
215	0x3e54dfe6	0.20788535
216	0xbef305da	-0.47465402
217	0xbed9f376	-0.42568558
218	0x3e1dd9ed	0.15415163
219	0x3e675d24	0.22594124
220	0xbe98b4ef	-0.2982554
221	0xbe051156	-0.12994894
222	0x3eb1b042	0.34704787
223	0x3e1bba65	0.15207823
224	0xbea6d2ba	-0.32582647
225	0x3bde871d	0.006791009
226	0xbe05297e	-0.1300411
227	0x3d815dfa	0.06316753
228	0xbeb609de	-0.35554403
229	0xbd024cc4	-0.03181149
230	0xbeb8640c	-0.3601383
231	0xbe26803e	-0.16259858
232	0xbe97c614	-0.2964331
233	0xbdbe2379	-0.092841096
234	0x3e831b71	0.25606874
235	0x3d96816e	0.073489055
236	0x3efd1f9a	0.49438173
237	0x3e7f90ec	0.24957627
238	0xbed06546	-0.40702266
239	0x3dae9810	0.08525097
240	0x3ccd5dd1	0.02506915
241	0xbcb16620	-0.021655142
242	0x3cb41880	0.021984339
243	0x3f159747	0.58433956
244	0xbc6ef19d	-0.014583972
245	0x3d3478af	0.044060405
246	0x3e929ae9	0.28633812
247	0xbeddfe96	-0.43358296
248	0xbeac79fb	-0.33686814
249	0xbede0746	-0.43364924
250	0xbeac7a9d	-0.33687297
251	0xbeb1c089	-0.34717205
252	0x3e0394af	0.12849687
253	0x3e0ae3c0	0.13563442
254	0x3cd3f49d	0.025873477
255	0xbe8a5679	-0.27019098

linear1.bias f4 [256]
0	0xbe76e025	-0.24108942
1	0xbca52e1e	-0.020163592
2	0x3d99cf52	0.07510246
3	0xbe817cf3	-0.2529064
4	0xbd8698c6	-0.06572108
5	0xbce5676a	-0.028003413
6	0xbe9bad54	-0.30405676
7	0x3e32860d	0.17433949
8	0xbe98fb82	-0.29879385
9	0x3bfc5c6f	0.0077014486
10	0x3e95bf38	0.2924745
11	0xbe1a0a9c	-0.1504311
12	0x3e276eeb	0.16350906
13	0xbe778d1d	-0.24174924
14	0x3e2e073a	0.16994944
15	0xbdc4a1ce	-0.09601174
16	0xbdd4ff91	-0.10400308
17	0x3e6b4f5a	0.22979489
18	0xbe725b58	-0.23667657
19	0xbcd566e7	-0.026050044
20	0xbe22f494	-0.15913612
21	0xbe1e51d6	-0.15460905
22	0x3d9a08c2	0.07521202
23	0xbec088a1	-0.3760424
24	0xbe93e955	-0.28888956
25	0xbea9bcb7	-0.3315179
26	0xbe5d9ad2	-0.2164109
27	0xbe79fbce	-0.24412462
28	0xbeda0a76	-0.42586106
29	0xbe984b86	-0.2974512
30	0x3e36e6c2	0.17861465
31	0x3d1cb8e2	0.038262255
32	0xbeb4be38	-0.35301375
33	0x3e1b0c77	0.15141474
34	0xbcc1342d	-0.02358445
35	0xbe1f8dfa	-0.15581504
36	0xbd9afb59	-0.07567472
37	0x3e3237ad	0.17404051
38	0x3e91aaab	0.28450522
39	0xbe48d28f	-0.19611572
40	0xbeee3cf5	-0.46530882
41	0xbecaf170	-0.39637327
42	0xbe9c1aff	-0.30489346
43	0xbd0ae70c	-0.03391175
44	0x3d9fb7ce	0.0779873
45	0x3e8e4f6e	0.27794975
46	0xbd8b40d9	-0.06799478
47	0xbd229cd1	-0.039700333
48	0xbdb1fd8d	-0.08690939
49	0xbe7a6e5d	-0.24456163
50	0xbe749d42	-0.23888114
51	0x3dd2d38b	0.10294255
52	0x3e46cb21	0.19413425
53	0xbe42c278	-0.19019496
54	0x3e6b126c	0.22956246
55	0xbe33eae7	-0.17570077
56	0xbdd8744f	-0.10569059
57	0x3eaa1758	0.33220935
58	0x3e0569eb	0.13028686
59	0xbd5ee87c	-0.054420933
60	0x3de8c0cf	0.113649
61	0xbed22c2b	-0.41049322
62	0xbedc141c	-0.42984092
63	0x3de6057b	0.11231514
64	0x3e11604f	0.14196895
65	0xbea1be4b	-0.31590495
66	0x3e5a9bdd	0.2134852
67	0xbea9d5be	-0.33170885
68	0xbe9b1db8	-0.3029611
69	0xbe53c0fc	-0.20679086
70	0x3e6a7f85	0.22900207
71	0x3e707451	0.23481871
72	0x3e36b8ad	0.17843886
73	0x3e84e6a7	0.25957224
74	0xbd22e1da	-0.03976617
75	0xbcec5a97	-0.02885179
76	0xbe736a7a	-0.23771086
77	0x3e6a97d4	0.2290948
78	0xbec77842	-0.38958937
79	0x3e5ea98b	0.21744363
80	0xbebc1b31	-0.36739495
81	0x3e3115e8	0.17293513
82	0xbdd6405c	-0.10461494
83	0xbdaccb77	-0.08437245
84	0x3d727f09	0.05920318
85	0xbea66d8c	-0.32505453
86	0xbebf17d4	-0.37322867
87	0xbdd29757	-0.10282772
88	0xbeaf613a	-0.34253865
89	0xbee5df89	-0.44897106
90	0x3e59c4aa	0.21266428
91	0x3e34e5c3	0.17665772
92	0x3e869fed	0.2629389
93	0x3de985be	0.114024624
94	0xbdf16867	-0.11787491
95	0x3d1bc9cf	0.038034257
96	0xbe871834	-0.26385653
97	0x3e4ccc7c	0.1999988
98	0xbee0ead2	-0.43929154
99	0xbe0608ef	-0.13089345
100	0x3ea97585	0.33097473
101	0xbeeff779	-0.46868494
102	0xbefacc76	-0.48984116
103	0xbe2ece8e	-0.17070982
104	0x3e8221c1	0.25416377
105	0xbe651562	-0.22371438
106	0x3d1532b6	0.036425315
107	0x3e621c82	0.22081187
108	0xba7695b8	-0.0009406465
109	0xbe935352	-0.28774506
110	0xbec66a4f	-0.38752982
111	0xbd1d1d8a	-0.03835825
112	0x3eae65a4	0.3406192
113	0x3d97dc79	0.07415099
114	0xbd40bd54	-0.047055557
115	0xbe056e47	-0.13030349
116	0xbe7f20a0	-0.24914789
117	0x3ec87668	0.39152837
118	0xbe1e4d80	-0.15459251
119	0x3e9ce429	0.30642822
120	0xbe95259b	-0.29130253
121	0x3dca382c	0.09873995
122	0x3b6f26ed	0.0036491707
123	0x3e36bef6	0.17846283
124	0x3dd4ed7a	0.103968576
125	0xbe158614	-0.14601928
126	0xbe80c106	-0.25147265
127	0x3e9b0ba5	0.30282322
128	0xbdb66a00	-0.08906937
129	0xbe8562e3	-0.26052007
130	0xbd3c806c	-0.04602091
131	0xbe9bb9e7	-0.3041527
132	0x3d2ddb43	0.042445432
133	0x3df70e8d	0.12063322
134	0xbebe48d7	-0.37164947
135	0x3e3af964	0.18259197
136	0x3ec1ee37	0.37877056
137	0x3e5055e8	0.2034527
138	0xbc8d7706	-0.017268669
139	0xbe53870b	-0.20656984
140	0x3b0dbf66	0.0021628975
141	0x3e999a00	0.30000305
142	0xbec0411d	-0.37549677
143	0x3e29dcdf	0.16588162
144	0x3e80c6d4	0.25151694
145	0xbd70f7d7	-0.05883011
146	0x3df6c713	0.12049689
147	0xbebe42e3	-0.37160406
148	0xbeca99a8	-0.39570355
149	0xbd944c74	-0.07241145
150	0xbc9ce997	-0.019154353
151	0xbd862d6b	-0.065516315
152	0xbe36d02e	-0.17852852
153	0x3e84fd7e	0.2597465
154	0xbebd2f81	-0.36950305
155	0xbe77106a	-0.24127355
156	0x3db5fd84	0.08886245
157	0x3e8c8448	0.27444673
158	0x3df2347f	0.11826419
159	0x3dbca2f6	0.0921077
160	0x3ddcfc67	0.107903294
161	0xbe0e8533	-0.13917999
162	0x3e53a06f	0.2066667
163	0xbe0cb8b6	-0.13742337
164	0x3dc9c605	0.09852222
165	0xbe3bf3d0	-0.18354726
166	0x3e359097	0.17730938
167	0x3d17942c	0.037006542
168	0x3e9eff1d	0.3105401
169	0x3e08e1c9	0.1336738
170	0xbea2fd99	-0.31834105
171	0xbec5c34d	-0.38625565
172	0xbe939917	-0.28827736
173	0x3d74141f	0.0595895
174	0x3a408af3	0.0007344924
175	0xbee0542a	-0.43814212
176	0x3e07c337	0.13258062
177	0xbe6ef8a7	-0.23337041
178	0x3d8dbd74	0.06920901
179	0x3e894ae2	0.26814944
180	0x3e6db18b	0.23212259
181	0x3e404469	0.18776096
182	0xbe5de602	-0.21669772
183	0x3e481c0b	0.19541948
184	0xbe011942	-0.12607291
185	0x3e7bd92d	0.24594565
186	0xbe39cd90	-0.18144822
187	0x3cf9e715	0.030505696
188	0x3cab5895	0.020916263
189	0xbe752c14	-0.23942596
190	0x3d550517	0.052006807
191	0xbe28f50d	-0.1649973
192	0xbe8c3480	-0.27383804
193	0x3e880a01	0.26570132
194	0x3c0b8bdc	0.008517232
195	0x3eb8e09b	0.3610886
196	0x3e7ae869	0.2450272
197	0x3e50b9c8	0.2038337
198	0x3d3427ec	0.043983385
199	0xbee1cd19	-0.4410179
200	0xbcf834b9	-0.030298578
201	0x3e7a6f9c	0.24456638
202	0xbe70156c	-0.23445672
203	0x3d9ef706	0.0776196
204	0xbd42b4f6	-0.04753586
205	0x3e42b8db	0.1901583
206	0xbd94ddf1	-0.072688945
207	0xbe0b857b	-0.13625138
208	0xbd3396bf	-0.043844935
209	0x3e5dfd49	0.21678652
210	0x3ded12de	0.11575864
211	0xbef00c9b	-0.46884617
212	0x3dfabd46	0.12243132
213	0x3e9fac54	0.31186163
214	0xbea4a4ac	-0.32156885
215	0xbece35c1	-0.40275386
216	0x3e090928	0.13382399
217	0xbea85c1d	-0.32882777
218	0x3e78c822	0.24295095
219	0x3e75e70b	0.24013917
220	0x3c6631bd	0.0140499445
221	0x3e4aabbe	0.19792077
222	0xbe0b8553	-0.13625078
223	0xbde6f159	-0.11276502
224	0xbdacb748	-0.084333956
225	0x3db2d99c	0.08732912
226	0xbee624f4	-0.44950068
227	0xbee19372	-0.44057804
228	0xbe6699d0	-0.22519612
229	0xbeaf2a19	-0.34211805
230	0x3e35cda3	0.17754225
231	0x3e0e568f	0.13900207
232	0xbdb178b7	-0.08665603
233	0x3e83876c	0.25689256
234	0xbe055749	-0.13021578
235	0x3ea6eb7f	0.32601544
236	0x3d5c91c6	0.053849958
237	0xbd996779	-0.07490439
238	0xbe862d0f	-0.26206252
239	0xbe3c6b1c	-0.18400234
240	0xbe9c75ba	-0.30558568
241	0xbe91f8ee	-0.2851023
242	0x3d3e76c5	0.046499986
243	0xbeaa428d	-0.332539
244	0xbe9e7cdd	-0.30954638
245	0x3d7ab02b	0.061203163
246	0x3dd9d9ac	0.10637221
247	0x3eb8a218	0.36061168
248	0x3e95e008	0.29272485
249	0xbe62798b	-0.22116677
250	0x3e68741c	0.22700542
251	0x3e65a208	0.22425091
252	0xbe5c7783	-0.21529965
253	0x3c8dd5af	0.017313806
254	0xbed46f1a	-0.41491014
255	0xbd8d18bc	-0.06889483

linear2.weight f4 [4, 256]
0	0xbd33b724	-0.04387583
1	0xbd0421c5	-0.032258768
2	0x3d49d671	0.049276773
3	0xbd42e10a	-0.047577895
4	0x3bfb48a0	0.0076685697
5	0xbd7b56b3	-0.06136198
6	0xbcb7927a	-0.022408713
7	0xb7813651	-1.5403291e-05
8	0xbc9f4338	-0.019441232
9	0xbcc5839d	-0.02411061
10	0x3c686d60	0.014186233
11	0xbd133121	-0.035935525
12	0x3d1c3586	0.03813698
13	0x3c800b34	0.015630342
14	0x3d7713af	0.060321506
15	0xbd721c17	-0.05910882
16	0x3c315700	0.010823965
17	0xbd5c85be	-0.053838484
18	0xbd14e801	-0.03635407
19	0x3cd3b162	0.025841419
20	0x3d1163ff	0.035495754
21	0xbd5a80d6	-0.053345524
22	0xbbb1735d	-0.0054153637
23	0xbb389f62	-0.0028171171
24	0x3cd626ed	0.026141608
25	0xbc81edce	-0.015860464
26	0xbcf422a2	-0.02980167
27	0xbc9a0305	-0.018800268
28	0x3d0913c3	0.033466112
29	0xbca70f40	-0.020393014
30	0xbd9802ad	-0.07422385
31	0xbd1db0b7	-0.038498607
32	0xbb888fda	-0.004167539
33	0xbcf0457e	-0.029330011
34	0xbc6d1f8c	-0.014472853
35	0x3ce4da6c	0.027936183
36	0x3d329146	0.043595575
37	0x3c7154ef	0.014729722
38	0xbce01411	-0.027353318
39	0xbc7118b3	-0.014715361
40	0x3cdbb669	0.026820378
41	0x3b5d7d41	0.003379658
42	0x3c9b50a5	0.018959353
43	0x3c8c1391	0.017099174
44	0xbcbe9fda	-0.023269583
45	0xbd386728	-0.045020252
46	0xbd264e05	-0.04060175
47	0x3d1b8d08	0.037976295
48	0xbcbf765c	-0.023371868
49	0x3cce7677	0.025202973
50	0xbd0479d9	-0.032342765
51	0x3cb43410	0.021997482
52	0xbc62e9aa	-0.013849655
53	0xbd092c78	-0.033489674
54	0xbcfef253	-0.031121409
55	0x3c399cab	0.011328856
56	0x3c01ddf4	0.007926453
57	0x3da934f2	0.08262052
58	0x3cd90863	0.026493257
59	0xbcb069b8	-0.021534786
60	0x3b9ca379	0.0047802296
61	0xbcd6f3c7	-0.026239289
62	0x3c2709cf	0.01019521
63	0x3c586a63	0.013208958
64	0x3c1d1bc3	0.009589138
65	0x3ce41f79	0.027847039
66	0x3c51444c	0.012772631
67	0xbcdcd022	-0.026954714
68	0x3b8314cf	0.0040002833
69	0xbbbc587d	-0.0057478533
70	0x3d376a96	0.044779383
71	0x3d96981d	0.07353232
72	0xbd35eaf8	-0.044413537
73	0xbc9a2a07	-0.018818868
74	0x3ccd96ca	0.025096316
75	0xbc9248a1	-0.017856898
76	0x3c003b14	0.007826585
77	0xbca34be6	-0.019933652
78	0x3c7c39ca	0.015394637
79	0x3ab991a3	0.0014157783
80	0x3c2fd3c3	0.01073164
81	0x3cb87e26	0.02252109
82	0x3b8c2df1	0.0042779376
83	0x3d5f7caa	0.05456225
84	0xbd6ae690	-0.057348788
85	0xbcce9f78	-0.025222525
86	0x3c9a799c	0.018856816
87	0x3c899c2d	0.016798103
88	0xbc81863f	-0.015811084
89	0xbd33be85	-0.043882865
90	0x3cb22365	0.021745393
91	0x3c8cfb46	0.01720966
92	0xbc4f5cd8	-0.012656413
93	0x3c22e349	0.009941884
94	0xbc9deb54	-0.019277252
95	0xbd169e77	-0.036772218
96	0xbcb75f76	-0.022384387
97	0x3b4566b9	0.0030121042
98	0x3c654789	0.013994106
99	0xbc82beab	-0.015960058
100	0xbc8d2b20	-0.017232478
101	0xbb6a1394	-0.0035717236
102	0x3abd04cc	0.0014420985
103	0x3cf35474	0.029703356
104	0x3d3d0df2	0.046155877
105	0xbcaad665	-0.020854184
106	0xbc39ef53	-0.011348563
107	0x3d85fd17	0.06542414
108	0x3d052528	0.032506138
109	0xbd35808b	-0.04431204
110	0x3d270f13	0.04078586
111	0xbccf8fb3	-0.025337076
112	0xbd3f8d71	-0.04676575
113	0x3cfd6577	0.030932171
114	0xbcdb285b	-0.026752641
115	0x3da6c9a2	0.08143927
116	0xbd0551d9	-0.03254876
117	0x3bc63ab9	0.0060494808
118	0xbba39d4a	-0.0049931156
119	0x3d75bf19	0.059996698
120	0x3d211533	0.039326858
121	0x3d913d9e	0.07091831
122	0x3ca54287	0.020173324
123	0xbc1df6bf	-0.009641348
124	0xbc0e3564	-0.0086797215
125	0xba8fc54e	-0.0010968836
126	0x3b94998b	0.0045349053
127	0xbc9f7567	-0.019465161
128	0xbcbc810a	-0.02301075
129	0x3c51a643	0.012795988
130	0xbd62fa00	-0.0554142
131	0x3d3c218a	0.045930423
132	0x3d0ac3c3	0.0338781
133	0x3cde95d7	0.027171059
134	0xbcbfdeea	-0.023421723
135	0x3d823c55	0.06359164
136	0x3d2473ba	0.040149428
137	0x3d170717	0.036871996
138	0xbd462090	-0.048370898
139	0xbc72299c	-0.014780428
140	0x3d32987f	0.043602463
141	0x3cb8b1e8	0.02254577
142	0xbd1ad934	-0.037804797
143	0xbc4f9c73	-0.012671578
144	0xbc0439b5	-0.008070399
145	0xbd337e3d	-0.043821562
146	0xbd3ce050	-0.04611236
147	0x3d0c2201	0.034212116
148	0xba87f737	-0.0010373358
149	0x3ad53d55	0.0016268889
150	0x3d0c43c1	0.034244303
151	0x3cc484d2	0.023989115
152	0xbcffb76d	-0.031215394
153	0x3d0c6003	0.03427125
154	0x3cf3b883	0.029751068
155	0x3d9e018e	0.0771514
156	0xbd5f4984	-0.05451347
157	0xbdb6f94d	-0.08934269
158	0xbd362aa1	-0.044474248
159	0x3c78ba11	0.01518108
160	0xbd19d261	-0.03755415
161	0x3dd42f4b	0.10360583
162	0xbc412739	-0.011789137
163	0x3cf69082	0.030098204
164	0xbba663f4	-0.0050778333
165	0xbc4def2a	-0.012569228
166	0x3cb041fb	0.021515837
167	0x3d92fe33	0.07177391
168	0xbd01f0dc	-0.031723842
169	0xbcb1c7fa	-0.021701802
170	0x3d267849	0.040642057
171	0x3a3073fe	0.00067311514
172	0xbcc43000	-0.02394867
173	0x3cc13ec3	0.023589497
174	0xbb155b96	-0.0022790185
175	0x3d665278	0.056230992
176	0x3d5afd6d	0.053464342
177	0x3d59a8d3	0.05313952
178	0xbdd55e4c	-0.10418376
179	0x3c9413b7	0.018075807
180	0xbc9600ea	-0.018310983
181	0x3d991fcf	0.0747677
182	0x3baa5430	0.005198024
183	0xbd08657a	-0.0332999
184	0x3d307c79	0.043087456
185	0xbd03e9c6	-0.032205366
186	0x3c703dd8	0.014663182
187	0x3d169492	0.03676278
188	0x3b390cf2	0.0028236476
189	0xbce2f74d	-0.027705813
190	0xbd4b7773	-0.049674463
191	0xbd397a28	-0.045282513
192	0x3ba1423c	0.004921226
193	0xbd38e4c5	-0.045140047
194	0xbd140505	-0.0361376
195	0xbd992b0b	-0.07478913
196	0xbc40ef4f	-0.011775806
197	0xbc77e1ca	-0.015129516
198	0xbd1fc101	-0.039002422
199	0x3d1a8901	0.037728313
200	0x3ca5cf5c	0.020240478
201	0x3d6fc48c	0.05853705
202	0xbd2d283f	-0.04227471
203	0x3c2856a7	0.010274566
204	0x3ca3c2a0	0.019990265
205	0x3c8b8523	0.017031258
206	0xbcf25962	-0.029583637
207	0xbd539a10	-0.051660597
208	0x3d29b03c	0.041427836
209	0xbc1851e2	-0.009296866
210	0xbc9d7048	-0.019218579
211	0x3cf1ea29	0.029530602
212	0x3cbdfffa	0.023193348
213	0x3b243ecb	0.0025061842
214	0xbac83290	-0.0015273858
215	0xbc34c624	-0.0110335685
216	0x3c88b88e	0.016689565
217	0x3d445bf8	0.04793927
218	0x3c80d69f	0.01572734
219	0x3aedb959	0.0018136903
220	0xbce88e73	-0.028388238
221	0x3c028b89	0.007967838
222	0x3d1e5c4e	0.038662247
223	0x3d40f57d	0.047109116
224	0xbbc548f0	-0.0060206577
225	0x3c58bd23	0.013228687
226	0x3d168c2d	0.036754776
227	0x3d0cf32a	0.034411587
228	0xbc561803	-0.013067248
229	0x3cd24a89	0.025670307
230	0xbd13b63b	-0.03606246
231	0xbc6b3048	-0.014354773
232	0xbb50994d	-0.0031829656
233	0xbc4a2d66	-0.012339925
234	0x3d038c1b	0.032116037
235	0x3d0d418c	0.03448634
236	0x3c8437db	0.016139915
237	0x3bee2ab3	0.0072682737
238	0xbd4283b5	-0.047488887
239	0xbc7bffea	-0.015380839
240	0xbc0c6791	-0.008569614
241	0x3c29bf9c	0.010360625
242	0xbc2dd09e	-0.01060882
243	0x3cf7b9b8	0.030239925
244	0x3c8ffbbc	0.017576091
245	0x3cd152f8	0.025552258
246	0x3b8844d4	0.0041585956
247	0x3d2aae4a	0.04167012
248	0xbd0777b0	-0.033073127
249	0x3d6a8ef3	0.057265233
250	0xbd0a2e4c	-0.03373556
251	0x3d165a78	0.03670737
252	0x3cbf26ee	0.023333993
253	0x3cea11d8	0.028572962
254	0x3c1c204d	0.0095291855
255	0xbca81cbe	-0.020521518

linear2.bias f4 [4]
0	0xbd45cb50	-0.048289597
1	0xbbab6d39	-0.005231526
2	0x3d2bc006	0.041931175
3	0x3c369d9d	0.011145976
