from_youtube/model/model_LR=0.1 Gamma=0.9 Ie=10.0% Fe=0.5% eDecay=0.0001%.pth (torch, 2489 bytes, 4 tensors)

linear1.weight f4 [6, 13]
000000 77 02 81 bf 68 b8 84 bf 4d 94 8d bf 06 bb 63 bf
       -1.0078877 -1.0368776 -1.1060883 -0.8895725
000010 d0 ef 85 bf 13 8c 8e bf ff 3b 4c bf 75 89 2c bf
       -1.046381 -1.1136497 -0.79779047 -0.6739724
000020 c1 b0 42 bf 99 23 56 bf 06 ee 72 bf 4c f3 63 bf
       -0.76050955 -0.8364807 -0.94894445 -0.89043117
000030 18 25 94 3d 3f ed 5b bf 69 ac 25 bf 53 f5 41 bf
       0.072336376 -0.85908884 -0.647162 -0.7576496
000040 d4 ed 68 bf 55 73 ee be d0 b5 dd be f3 5c de be
       -0.90987897 -0.46572366 -0.43302774 -0.4343029
000050 b5 39 10 bf 19 0b 3c bf 18 04 ec be 4e 98 5f bf
       -0.56338054 -0.73454434 -0.46096873 -0.87341774
000060 ae ef 15 bf 4c db 2f bf ef 8e a3 bf a2 3e 67 bf
       -0.5856885 -0.68693995 -1.2777995 -0.90329945
000070 df c0 77 bf 4a 21 a7 bf 94 37 63 bf 58 97 61 bf
       -0.9677867 -1.3057034 -0.8875668 -0.8812156
000080 f2 63 96 bf c6 6b 5c bf cb 8c a1 bf 6f 1a a9 bf
       -1.1749251 -0.8610195 -1.2621092 -1.3211192
000090 ad 40 9e bf 7a 2d 88 bf 96 10 44 3e bd 6d 9c bf
       -1.2363487 -1.0638878 0.19146952 -1.222099
0000a0 bc 2d 8d bf 78 2f 8c bf d8 4b 9b bf ec 48 b0 bf
       -1.1029582 -1.0951986 -1.2132521 -1.3772254
0000b0 c2 de a7 bf 6b a6 99 bf f6 a6 b6 bf f7 ce a4 bf
       -1.3114855 -1.2003912 -1.4269702 -1.2875661
0000c0 3c e4 a6 bf f4 70 9b bf 9a fa 86 bf d0 7b 84 be
       -1.3038402 -1.2143846 -1.0545228 -0.2587571
0000d0 21 be 27 bf 39 2e dd be b0 9b 14 bf 34 a8 4a bf
       -0.6552449 -0.43199328 -0.5805006 -0.7916291
0000e0 5b e1 19 bf 44 97 0c bf eb e6 18 bf ce 96 0c bf
       -0.6010949 -0.54918313 -0.5972735 -0.5491761
0000f0 c7 e0 f8 be c3 73 ae be 65 96 d5 be 44 9c 12 bf
       -0.48608992 -0.34072694 -0.41716304 -0.5726969
000100 f2 80 2f bf db 3e 3d bf dc 00 1d bf 38 24 d5 be
       -0.6855613 -0.73924035 -0.61329436 -0.41629195
000110 bf 85 38 bf 5c 62 27 bf d8 4c 49 bf 03 d2 a7 be
       -0.7207908 -0.6538446 -0.7863288 -0.32777414
000120 a7 7b 31 bf 79 e8 03 bf 62 f3 15 bf 5b 7d 17 bf
       -0.69329304 -0.515266 -0.585745 -0.5917565
000130 fa 8a b9 be 1c 5a cc be
       -0.36238843 -0.39912498

linear1.bias f4 [6]
000000 99 ad 86 3f 37 e3 6a 3e 0f e8 aa 3f b1 f0 b9 3f
       1.0521728 0.22938238 1.3352069 1.4526578
000010 9c 2a 29 be ae a9 0d bf
       -0.1652016 -0.55337036

linear2.weight f4 [3, 6]
000000 00 a4 3b be bc 97 d0 be 38 c2 4a 3d 6b 47 ad 3d
       -0.1832428 -0.40740764 0.049501628 0.084608875
000010 7b 12 bf be 3b 1b c7 3e cb 45 e6 3f d6 8d 09 40
       -0.37318787 0.38887963 1.7990049 2.149282
000020 dd 66 06 40 93 09 76 40 b8 cc 11 40 2e 95 02 40
       2.1000283 3.8443344 2.27812 2.0403552
000030 d4 82 b0 3e 13 87 f3 be fb 65 18 be 39 63 2c 3e
       0.34474814 -0.4756399 -0.14882652 0.16834725
000040 89 de 9e be 6b 0e 45 be
       -0.31029156 -0.19243781

linear2.bias f4 [3]
000000 2b ee 0f c2 08 2e 13 c2 4c 4d 10 c2
       -35.982586 -36.794952 -36.075485
