from_youtube/model/model.pth (torch, 13715 bytes, 4 tensors)

linear1.weight f4 [256, 7]
00000000: 6bed 91bd 6c32 fdbd 3db4 a4be d75c 4abe
00000010: d68b 1cbe 1c6b c2be dfb4 a6be c62a 803d
00000020: dc42 29be 2968 8dbe 30fd 74bd 72a1 433e
00000030: 8975 b43e 619c b1be bfbe 333e e5ef 74be
00000040: 26dd 3f3d 3745 bbbe a03b 803e 76d7 b73d
00000050: 9fd3 25be 40b0 13be 654a 90be 81db 543e
00000060: 534e a63e 129a f93d 7c4a 973e 8c66 263b
00000070: 3178 ba3e 5b6f 90be 3986 9b3e dbde ab3e
00000080: 9ddb 7e3e 0d1d 00be 56f9 68be e6f8 07be
00000090: 07cb 5fbe 065c 91be 527f f73d f51b a3be
000000a0: 0171 213d 683b 09be 0615 f73d e9fa 8dbe
000000b0: 3c7f f8be 0881 febe 5b4c b73d 9c90 2c3e
000000c0: 7fc4 5a3e cc3d a03d 3a93 6c3e d9fa 033e
000000d0: 0b55 763e 2ed8 f43d 597f 543e 5e9c 283e
000000e0: 8b1b 333e c9f6 bebe a9b1 f8bd 2c86 dabe
000000f0: 8209 d93d 7365 b43e 701d a33e dd01 cbbe
00000100: 94a7 7e3e eb60 e93d 506b ef3d 3438 5fbe
00000110: 5271 7abe 4dc5 ae3b 5801 14be 7f16 82be
00000120: 1085 713e 150a c2be 3e9d 253e efd6 a7be
00000130: 1972 733d 4e18 6a3e c529 0e3e 2e08 24be
00000140: bcbe 253e bc12 30bb b145 c2bd 7557 89be
00000150: d172 9e3e 083e 613e f8b5 373e 9f0c 8d3e
00000160: 1d02 9ebe 9301 aebe 00d3 993e 83c8 923e
00000170: 3dfc c7bc 77a1 ae3e 284e 1a3c f18e 023e
00000180: 2315 693e 3073 ee3d ba25 013e b411 80be
00000190: 5647 233e 8e20 1e3e 0726 233c f3cd fa3e
000001a0: da0c 45be 0195 1a3e 1127 8dbe 9b36 69be
000001b0: 421f 82bd 3b18 143d 3e5a 9cbc 8b56 43be
000001c0: 7c8d 903e df44 9f3e 519a 08be 3fbe 3fbe
000001d0: c54f 9bbe 8c04 ad3e 2f94 29be e191 d13d
000001e0: e774 94be 5c76 0c3d 4705 39bc 5a2e 6dbe
000001f0: d750 44bd b9ea d73d b762 23be 33b1 493e
00000200: 1868 3dbd d405 323e 94d9 47be 0618 56be
00000210: 2626 9ebd e5f0 69be cf54 f03d 5bd1 3e3e
00000220: 2f78 5fbe 906d 403d 280b 7dbd 2565 863e
00000230: d9a0 0f3e 9a1a c0be fde1 973e 37f2 f03d
00000240: 25f4 9dbd 3d87 57be bc1f 1cbc fbd0 783d
00000250: 5e39 0b3e 8f91 8ebe f60d 913e 3c74 233e
00000260: 1316 743d e7fd 5e3e bfd2 813e 3a1a 1fbe
00000270: c8e7 8d3e 68d2 103e ad6f 8ebe 82b8 46bd
00000280: df72 cd3d b468 ab3e f8f3 873e c778 173e
00000290: 896f c83d 2a53 84bd 88f4 6abe b48f 843e
000002a0: e729 8c3e 9380 78be 0d4a c2be 86b3 963d
000002b0: c083 613e c26e 70be 4e19 973e b195 86be
000002c0: 1750 e83d b4cb 9abe a52e dcbc 044d a23e
000002d0: 60d3 6ebe 85ca 313e a8e3 553e 58f5 9cbe
000002e0: 7785 1fbe 4ec3 92be b2ec 1cbe f727 7a3e
000002f0: 5618 c0be cf40 2cbe 72fa 4dbe 4377 11bc
00000300: 1b07 113e abd3 c93d 32b8 82bd 9cd5 f83d
00000310: bcb3 dc3d ffe7 223e c4f2 873e bf72 7e3e
00000320: a6f6 a13e 38ee 303e 8ccb a8be 9b09 afbe
00000330: 8382 2abe 41fb 13be 6aa2 403e 53fc ca3c
00000340: 24ed d93e 991c 26be 017e 10be 94ee 183e
00000350: 1be9 b13e ff27 c5be cfe4 afbd bc66 723e
00000360: f5fc 74be 9711 a9be f52f 7fbe ec8e 343e
00000370: cfd0 e83d 98e8 a1bc f5ab 883e 5589 b0bb
00000380: 6284 9ebe 2685 18be da30 133d 2130 95be
00000390: bd97 a2be bf31 313e 2240 15be c8e3 d8bb
000003a0: f39e 94be a060 83be 14b8 22be f959 753e
000003b0: 2f7d dcbe d2eb 1e3e bb87 ec3d d8ae 4f3d
000003c0: 37d5 5a3d 383c 48bd f666 373e e630 fc3e
000003d0: ddca 703e c4d6 1a3d f6c0 c0be 3d79 aabc
000003e0: a8eb ccbd 30cf 943e 0113 f23c 8f86 f0bd
000003f0: 07da c1be fe3a 0abc 70a0 8abe 8b8b 94bb
-0.07125362 -0.12363133 -0.3216876 -0.19761978 -0.15287718 -0.37972343 -0.3255987 0.062581584
-0.16529411 -0.2761853 -0.05981177 0.19104555 0.35245922 -0.3468962 0.17553233 -0.23919638
0.046841763 -0.36576244 0.2504549 0.08976643 -0.16194008 -0.14422703 -0.2818176 0.20786859
0.32481632 0.1218759 0.29549015 0.0025390713 0.36419824 -0.28209957 0.3037584 0.33568463
0.24888463 -0.12511082 -0.22751364 -0.13278541 -0.21854793 -0.2839052 0.12084831 -0.31857267
0.03941441 -0.13401568 0.12064557 -0.27730492 -0.48534572 -0.49707818 0.089501105 0.16852039
0.2136402 0.07824287 0.23103037 0.1288866 0.24055879 0.119552955 0.20751704 0.164659
0.17490976 -0.37297657 -0.12143261 -0.4268049 0.105975166 0.3523365 0.31858397 -0.3964986
0.24868613 0.11395439 0.1169039 -0.21798784 -0.24457291 0.0053335787 -0.14453638 -0.25407788
0.23585916 -0.37898317 0.16173264 -0.3278117 0.059434984 0.22860834 0.13883121 -0.16018745
0.1618604 -0.0026866635 -0.09485949 -0.26824537 0.30946973 0.2199632 0.1794051 0.27548692
-0.30860987 -0.33985576 0.30043793 0.28668603 -0.024412269 0.34107563 0.009418048 0.1274984
0.2276197 0.11643064 0.12612048 -0.25013506 0.15945181 0.15442106 0.009957797 0.48985252
-0.19243184 0.15095903 -0.27568868 -0.22774737 -0.06353618 0.03615592 -0.019086 -0.19075982
0.28232944 0.31107232 -0.13340117 -0.18724917 -0.30334297 0.33792531 -0.16560434 0.10232902
-0.2899544 0.034292564 -0.011292762 -0.23162213 -0.047928657 0.10542817 -0.15955625 0.19696502
-0.04624185 0.17385036 -0.19516593 -0.20907602 -0.0772212 -0.228458 0.11734926 0.1863455
-0.2182319 0.046979487 -0.061778218 0.26249042 0.14026202 -0.37520295 0.29664603 0.11764949
-0.077125825 -0.21047683 -0.00952905 0.060746174 0.13596103 -0.27845427 0.28330964 0.15962309
0.059591364 0.21776544 0.253561 -0.15537348 0.27715898 0.14142764 -0.27819577 -0.048515804
0.100316755 0.3347832 0.2655332 0.14792167 0.09786899 -0.06461175 -0.22944844 0.25890887
0.2737572 -0.24267797 -0.3794712 0.0735846 0.22022915 -0.23479751 0.29511493 -0.2628608
0.11343401 -0.30233538 -0.02687771 0.31699383 -0.2332282 0.17362411 0.20887625 -0.30655932
-0.15578257 -0.2866463 -0.15324667 0.24429308 -0.37518567 -0.16821598 -0.20115069 -0.008878532
0.14162867 0.098548256 -0.06382789 0.12150118 0.10776469 0.15908812 0.26552403 0.2484846
0.3163349 0.17278373 -0.32967794 -0.34187016 -0.16651349 -0.14451315 0.18811956 0.02477852
0.42563736 -0.16221847 -0.14110567 0.1493476 0.34748158 -0.38507077 -0.08588564 0.23672003
-0.2392462 -0.33021232 -0.24920638 0.17632645 0.11367952 -0.01976423 0.26693693 -0.005387465
-0.30960375 -0.14894542 0.03593526 -0.29138282 -0.31756392 0.17304133 -0.14575246 -0.0066189505
-0.2902752 -0.25659657 -0.15890533 0.23960103 -0.43064258 0.15519646 0.11549326 0.050703853
0.053425994 -0.048885554 0.1791037 0.49256057 0.23514886 0.037802473 -0.37647218 -0.020809764
-0.10005885 0.29064322 0.029550077 -0.11744415 -0.37861654 -0.008436916 -0.2707553 -0.0045332364

linear1.bias f4 [256]
00000000: 44fa 9bbe 45bc a5be e946 b0be 4b35 873e
00000010: 2298 923e 8f30 953e 849d e7be 96f0 76bd
00000020: bfdc 383e 0a6c 313e 48ee 85bc a6c2 133d
00000030: fa91 983d 0345 db3d cce7 363e fe55 8a3d
00000040: 20bf b73e 0551 28bd db3f 46be 4cd6 86bd
00000050: 3e62 5fbe eb83 40be e26b a5be d081 9cbe
00000060: cb2a aabe b0f2 883e 48b7 2b3e f460 973d
00000070: 0734 48be 0d45 14be f3b9 3abe 3738 663d
00000080: 915c 59be 10ea e8bd f115 7fbd dc6e e6bd
00000090: 9520 b8be 669f 9e3e c232 0abe 8a76 12bd
000000a0: d311 7c3e d91b 26be 3521 f53d aecb 323d
000000b0: a69b 9cbe b0cf 343e f3eb b93d cd05 9abe
000000c0: b4bf 083e d8e7 173e afbc 8fbc ed8c fb3c
000000d0: de36 123e 2887 30be d8e7 b53e 6079 9c3e
000000e0: 5e1b 7d3e 4c1c 33be 0d6f 273e 5db8 6f3e
000000f0: a73c b73e b35f 0cbe 3a16 cc3d 396c 5ebe
00000100: cbe1 cbbe caf9 9fbd 47e4 a6be c787 283e
00000110: 12f5 8fbe 20da 81be d2ff 7d3e 7b60 8a3d
00000120: 7a28 32bd 9f90 9ebe 5d2e 25be 1d77 99be
00000130: 823a 90bd 46d6 563d f680 3abe acb1 e3bc
00000140: 0dfa 54be 2208 1cbe ee40 243e 8cad b6bd
00000150: 6c3b be3e 1ff4 213d 54a0 b8be c077 ce3d
00000160: 2632 9e3d 64b0 65be 9649 6dbe 7aac 91bc
00000170: 3002 d2bd b7f5 aabe cb11 733e cb73 64bc
00000180: 1d1a 5f3e 29b8 373e 6bd8 963e e14a 5bbe
00000190: 4c67 e7bd 65f1 bcbe d8bf 303e 7855 33bd
000001a0: f0ef d5bd f0f1 97be 00e9 8f3e d321 1c3b
000001b0: cd2f 553c c441 89be 316a a33d 9053 77be
000001c0: 051c 1dbd 3a7d 913d 7bf2 953e aecb cfbe
000001d0: cc00 06bd cecc b4be 6c3e 56be 321f 173e
000001e0: ff68 d73d 49aa 8a3e 2e4c 80be e46e 7c3e
000001f0: 4121 683e d2b6 94be eea3 1ebd 0fc7 af3e
00000200: bf1b 7e3e a499 a1be 79a5 a83e 1c75 c7be
00000210: ed75 1ebd 2be0 e6be 8e5f 8bbe 0b6d 18be
00000220: 0724 88be 3f87 923e 8ba2 9abc acce 393d
00000230: 6c81 6c3e 352e a8be e3e1 963c bad1 30bd
00000240: a020 a2be 3cdb a43e 4875 a13e 506f b73e
00000250: 0c94 443e 10a5 cdbd b800 173e 1940 aa3e
00000260: cd28 2f3e ccbf 183e 680c babe 02af a3be
00000270: e7d2 a23e ec4d 993e 6659 d03d ea42 94be
00000280: c1ab 693e 479f a2be e156 793d 8640 a1be
00000290: 4339 023e 5322 20be 412c be3d 6b51 e6be
000002a0: 1694 30bd 20f1 aabe 4b6e 893e 15ca da3d
000002b0: f08a 633e e9d4 673d a451 b6be 4942 30be
000002c0: 9ee4 323d f23c 9abe ccc9 153e 10f4 8ebe
000002d0: 0eba 07bd fd06 1ebe 6512 51bd 7dc7 33bd
000002e0: a17c 483e bb79 863e ea2e ae3e 4b14 f5bd
000002f0: 6739 09be 9b60 da3d 9108 433e d165 c8be
00000300: 0fe9 6abe cba9 903e 3747 e2bd a7ab 63be
00000310: b393 97be 38df 813e a739 acbe fbb3 44be
00000320: bf5b 7d3d 9f71 9a3d 4bb3 cb3d e387 cdbe
00000330: b1af 9ebe 885d 67bd 5943 b0be 6b35 543e
00000340: c230 d73e 0e4a d1bd 4829 bebd a203 cfbe
00000350: b6cf 4a3e 474a b1be d6ec d93b 6cbe 5f3e
00000360: 4cf3 c73e 27fc 99be 6c35 3bbe 2cc1 8cbe
00000370: b293 d4be cdd2 ebbe 5c33 3ebe c912 62bd
00000380: 3a09 0e3e 18c2 12be 671a 353e e955 9d3e
00000390: 23c3 f0be 79e4 44bd b662 883e 9db0 93be
000003a0: f182 83be 23b7 a0be 0e86 f53d 9d93 683e
000003b0: e4b6 64be cbd4 bcbe bc0b b53e 9fb2 41be
000003c0: 9ab0 02bf c47b f0bb 5727 523e fd45 11be
000003d0: a4d1 e8bd 39f3 9e3e 6a9e 273d ae2c 00be
000003e0: af10 833e 04a9 683d 55a7 9b3e 916e 813e
000003f0: b8c0 873d 4c31 7c3e f4f5 bebe 3711 96bd
-0.30464375 -0.323702 -0.344291 0.26407847 0.28631693 0.2913861 -0.45237362 -0.060288034
0.18052958 0.1732637 -0.016348973 0.036074303 0.07449718 0.10706522 0.17861861 0.06754683
0.35888004 -0.04109289 -0.19360296 -0.06583843 -0.2181482 -0.18800323 -0.3230887 -0.3056779
-0.33235773 0.26747656 0.16769135 0.07391539 -0.19551097 -0.14479466 -0.18234996 0.056205954
-0.21226718 -0.11372769 -0.062276784 -0.112516135 -0.35962358 0.30980986 -0.13495925 -0.03575758
0.24616174 -0.1622156 0.11969224 0.043651275 -0.305875 0.17657351 0.09078207 -0.3008255
0.13354379 0.14834535 -0.017546026 0.030706847 0.14278743 -0.17239058 0.35528445 0.30561352
0.24717471 -0.17491263 0.16350956 0.23410173 0.35788462 -0.13708381 0.09965177 -0.21720971
-0.39820704 -0.07811315 -0.32596037 0.16458045 -0.2811666 -0.2536173 0.24804619 0.067566834
-0.043495633 -0.30969712 -0.16130967 -0.2997369 -0.070424095 0.05245044 -0.18213257 -0.027794681
-0.20798512 -0.15237477 0.16040394 -0.0891982 0.3715471 0.039539453 -0.3605982 0.10081434
0.07724409 -0.22430569 -0.23172602 -0.017782439 -0.102543235 -0.3339059 0.23737256 -0.013943623
0.21787305 0.17941345 0.2946199 -0.21415283 -0.11298999 -0.3690292 0.17260683 -0.04378268
-0.10446155 -0.2967677 0.28107452 0.0023823872 0.013011885 -0.26807988 0.07979239 -0.2415297
-0.0383568 0.07103963 0.2928656 -0.40585083 -0.032715604 -0.35312504 -0.2092225 0.14757994
0.10518073 0.27083042 -0.2505812 0.24651676 0.22668935 -0.2904573 -0.038730554 0.34331557
0.24815272 -0.3156253 0.32938746 -0.38956535 -0.03868668 -0.45092902 -0.2722134 -0.14885347
-0.26589987 0.2861881 -0.018876335 0.045363113 0.23096246 -0.32847753 0.018418258 -0.04316876
-0.31665516 0.32198513 0.3153479 0.35827112 0.191971 -0.10041249 0.14746368 0.33252028
0.17105408 0.14916915 -0.3633759 -0.31969458 0.3180153 0.29942262 0.101733014 -0.289573
0.22819425 -0.31762144 0.06087387 -0.3149454 0.12717156 -0.15638094 0.092857845 -0.44983992
-0.043109976 -0.3338709 0.2684196 0.10683075 0.22220969 0.05659953 -0.35609162 -0.17212786
0.043675058 -0.30124623 0.1462776 -0.2792058 -0.03313642 -0.15432353 -0.051042933 -0.04389142
0.19578792 0.26264748 0.34020168 -0.11966761 -0.13400804 0.10662957 0.19046237 -0.3914018
-0.22940467 0.28254542 -0.110487394 -0.22233449 -0.29604873 0.25365615 -0.33637735 -0.19209282
0.061855074 0.07541203 0.09946307 -0.40142736 -0.30993417 -0.056485683 -0.34426382 0.20723502
0.42029387 -0.10219203 -0.092852175 -0.4043246 0.19805798 -0.34626982 0.0066505475 0.21849984
0.39052808 -0.3007519 -0.18282098 -0.27491128 -0.41518933 -0.46059266 -0.1857428 -0.055193696
0.13870707 -0.14331853 0.17685853 0.30729607 -0.47023878 -0.04806945 0.2663781 -0.28845683
-0.25685838 -0.31389722 0.119884595 0.2271256 -0.22335392 -0.36881098 0.35360515 -0.18915795
-0.5105072 -0.0073389728 0.2052282 -0.14186855 -0.11368111 0.3104494 0.04092256 -0.12517044
0.25598666 0.05680181 0.30401102 0.25279668 0.06628555 0.2462818 -0.37297022 -0.07327502

linear2.weight f4 [4, 256]
00000000: 10db 3ebd 3923 f0bc 9013 2a3b 450b 2abd
00000010: e69f d63c 542d 843d 4e1d 00bd c584 3cbd
00000020: e41d 8bbd 642e a03c 4ae7 5f3d a2eb 4bbc
00000030: 569f 40bc 98b2 5fbd 455c 193a 42ad 67bc
00000040: 425f cfbb 01e1 e5bc a0f9 343d 112d 8b3b
00000050: a78b 143d 10ab a53c c881 67bd c055 f43c
00000060: b088 12bd 74b8 c53c fe45 30bd bb7b e43c
00000070: b7d8 e43c c5b4 b9bc e34e 1d3d 3d1d 9cbc
00000080: 1c92 823d 816d 1b3d 9aba 43bd d849 593d
00000090: 1b2d 5d3d d922 cfbc 4c70 053c ba8e 8bbd
000000a0: 7ade 63bd cce1 d73c 45a5 563a c00e 23bd
000000b0: 4729 05bd 71ee 99bd 7554 85bd 3028 4ebd
000000c0: dccd 06bd acc9 f9b8 d229 54bc 23f9 28bb
000000d0: 3631 93bc abf8 e93c ad6b 0abd 1d4b 86bc
000000e0: 45b3 ddbc 7f73 dfbc 4b92 423c 75d6 7abc
000000f0: d842 0ebd 8713 6d3d debc 2b3d 1328 21bb
00000100: 4653 04bc 508c 023d 6a83 2e3d 576e 80bd
00000110: 82a8 373c 8277 36bb 34a0 5a3d 37cd fd3c
00000120: 29d7 8d3d b053 103d c157 8bbd 109c 723d
00000130: fc8f a6bc 7da2 d33c 742e 6fbb e0d3 38bc
00000140: 6506 37bd e81a bdbc 3d36 d03b e7e2 19bd
00000150: b6aa 4cbd 72da c63c 9cde d0bc 11d1 5b3d
00000160: 7ec8 e23c fd6b 86bc 4ac0 333d a66b 293d
00000170: fb77 9fbc 4367 373b aabc 773d 3f57 f2bb
00000180: f648 bcba f434 6ebd 3850 96ba 22e8 803d
00000190: 0a52 81bd 526b 43bd 648e 343d 9406 f73b
000001a0: 82ea c1bc 2c7c 5abd 1ef8 1abd 040b 40bc
000001b0: a551 883c 5af3 7dbc 9c4c 1dbb 66ad 2d3d
000001c0: 50de a8bd 5177 f63c 43bf 20bd eabd 413d
000001d0: 7412 dc3c 0416 0abc ad4c 36bd 65ef 52bd
000001e0: cfc5 cf3c 32cd 813d baa3 113d 4315 303d
000001f0: 7aa1 eebc 4ba7 3fbb 5c38 fd3c d828 693d
00000200: 0122 ba3c 1f63 a73a 43ec 4a3c 6939 033d
00000210: b71e 283c 9f0a 94bc d65b 4ebd 3b81 e43c
00000220: 44c6 333d 6802 d0bb 8dfd 10bc c657 2b3d
00000230: 55ca 9e3a f846 28bd 4756 cbbc ce9a a3bb
00000240: 4b8a 5fbc 399d 1d3d 8342 7abc 0253 9a3a
00000250: 64b6 42bd d5ae 36bd 77c3 af3c 0506 673c
00000260: 6e7d 19bd ac80 dbbb 73b6 493c 82ae 5cbd
00000270: b49d 5cbd a342 26bc 18af eb3b bd4d df3c
00000280: 31aa eabc 2cb5 2c3c d35e f73c 6f62 243c
00000290: 3456 d13c 303b 23bd 682c 4abd 20fc d93c
000002a0: 5210 b63c 4f8d a23c e2d7 3b3d 854e cebc
000002b0: 7804 b13c 78fb 7c3c 4faa d5bc 00ad b93c
000002c0: e2c7 193c 899d f83c 6805 31bc 335a 59bb
000002d0: fc28 243c 523d c33c ed7f afbb 2f91 503c
000002e0: 9cc2 debc 6ed8 b03c ce6e bb3c 2a6b 5fbd
000002f0: e623 56bd 0a8a 813d 790d b13c da41 8ebc
00000300: 2fa3 ad3c 06d0 4a3d e44b 48bd 503d 893a
00000310: 72e9 acbc 1d4b 2c3b a45e 2abd 60de 3f3d
00000320: 5001 933b f40f c33b acd6 683d 8703 48bd
00000330: 1dcd 123d 131f 833c 6490 b43c f1ab 73bd
00000340: ea5e b63d b285 6e3d 70a0 9fbc 6117 fabc
00000350: 5a1c 213c 5cfb e9bc 8a3f 9bbc bdee c83c
00000360: 5c0b a7bb 8553 a2bd 65fe 1e3d a3be 13bd
00000370: 34c4 ce3b 274c 32bd 4682 9a3b 0a55 413c
00000380: b71f 8b3c 5770 133c d910 063a 2323 c0bc
00000390: 1fec 66bc 8098 873c 1d8c 2c3c 0ce9 863c
000003a0: 9db1 1cbc f954 95bd 7484 203d a101 12bd
000003b0: 0e8c 0e3d 1254 a1bc af53 3fbd 32e2 28bd
000003c0: a234 bbba 6c55 483d 7756 1ebc 0aae 4c3d
000003d0: 855a e63c c56d 0c3a 41e3 bebb eb85 913d
000003e0: 1122 f3bc 4d2f 39bb 29a1 abba 8227 5f3a
000003f0: a364 febc 4684 81bd 0dd3 13bd ec42 aebc
-0.046595633 -0.02931367 0.0025951602 -0.041514654 0.026199292 0.06453958 -0.031277947 -0.046025056
-0.067928106 0.01955337 0.054663934 -0.012446316 -0.011756739 -0.05461368 0.0005850236 -0.014140429
-0.0063284943 -0.028061392 0.044183373 0.0042473157 0.036265995 0.02022317 -0.056520253 0.029826045
-0.035774887 0.024135806 -0.0430355 0.02789103 0.027935369 -0.022669205 0.03840531 -0.01905691
0.063755244 0.037946228 -0.04778538 0.05304894 0.053998094 -0.025285171 0.008144449 -0.06814332
-0.055632092 0.026352786 0.0008188079 -0.03980899 -0.03251007 -0.07516182 -0.065102495 -0.050331295
-0.032911167 -0.000119108096 -0.012949424 -0.0025783263 -0.017967802 0.028560957 -0.033794094 -0.016393239
-0.027063021 -0.027276753 0.011875699 -0.01530992 -0.034731716 0.05787995 0.041928165 -0.0024590536
-0.008076495 0.031872094 0.042605795 -0.06271046 0.011209609 -0.0027842228 0.053375438 0.030981643
0.06925804 0.03523606 -0.06803847 0.059230864 -0.020332329 0.025834316 -0.0036496194 -0.011280984
-0.044683833 -0.023084119 0.006354122 -0.037569907 -0.04996749 0.024274085 -0.025496773 0.053666178
0.027683493 -0.016408915 0.043884553 0.041362427 -0.01946639 0.0027985133 0.06048266 -0.0073956545
-0.0014365006 -0.05815597 -0.0011467999 0.06294276 -0.06314476 -0.04770977 0.044081107 0.007538626
-0.023671392 -0.053341076 -0.03783428 -0.011721376 0.016640494 -0.015499914 -0.0024001962 0.042401694
-0.08245528 0.030086191 -0.0392449 0.047300257 0.026864268 -0.0084281005 -0.044506717 -0.051497836
0.025362877 0.06337966 0.035556532 0.042989027 -0.029129732 -0.0029244001 0.030910663 0.056923717
0.022721292 0.0012770629 0.012385431 0.032037172 0.010261229 -0.01807147 -0.05038055 0.027893653
0.043890253 -0.006347943 -0.008849514 0.041831754 0.0012114743 -0.041083306 -0.024821414 -0.0049928194
-0.013643811 0.038480017 -0.015274647 0.0011774006 -0.047537223 -0.044600327 0.02145551 0.014100556
-0.037473135 -0.0066986885 0.012311566 -0.05387736 -0.053861335 -0.010147723 0.0071925037 0.027258748
-0.028645607 0.010541242 0.030196583 0.010033234 0.0255538 -0.039851367 -0.049358755 0.02660948
0.022224579 0.019842772 0.04586018 -0.025183925 0.021608576 0.015440814 -0.026082186 0.0226655
0.009386035 0.030348556 -0.010804512 -0.0033165335 0.010019537 0.02383295 -0.005355826 0.012729927
-0.027192406 0.021587577 0.022879984 -0.05454556 -0.05228033 0.06325157 0.02161287 -0.017365385
0.021195976 0.049514793 -0.0489005 0.0010470543 -0.02110741 0.0026289888 -0.041594163 0.046842933
0.0044862404 0.0059528295 0.056845352 -0.04883149 0.035840143 0.016006028 0.022041507 -0.059490148
0.08904822 0.05823297 -0.019485682 -0.030528726 0.00983342 -0.02856224 -0.018951196 0.024527902
-0.0050977897 -0.07926086 0.03881683 -0.036070477 0.0063100103 -0.043529656 0.004715237 0.01180006
0.016982896 0.008998952 0.0005114205 -0.023454254 -0.014094382 0.01655221 0.0105314525 0.016468547
-0.009563831 -0.07291598 0.039188817 -0.035646085 0.034801535 -0.019693408 -0.046710666 -0.04123134
-0.0014282654 0.04890959 -0.0096641695 0.049970664 0.028119335 0.0005356933 -0.0058254306 0.07105621
-0.02967933 -0.0028256953 -0.0013094294 0.0008512662 -0.031053847 -0.06324057 -0.036089946 -0.021272145

linear2.bias f4 [4]
00000000: 20d5 743d 1cb2 413d 8d7b 3bbd 2001 fe3c
0.059773564 0.047289 -0.045772124 0.031006396
