from_youtube/model/model_13-6-3.pth (torch, 2045 bytes, 4 tensors)

linear1.weight f4 [6, 13]
00000000: 50e3 993e bc51 67bb 347b 85bd dbf4 b7be
00000010: c5f6 8ebe 4886 2dbe 102f 2c3e f493 0a3e
00000020: 3b4c 243e 5ba4 0e3f 0123 023f 137a bc3e
00000030: 0fee 20bd ad5f 98bf 5d2c 99bf c29e 3abf
00000040: d08c 80bf 183a 8abf f1c3 78bf 6904 94bf
00000050: 3ed3 7cbf 31ca 92bf 1d61 5ebf 0f7c 86bf
00000060: 571e 93bf a10e 55bc 0ceb 473e 9597 1a3e
00000070: ff1a d3bd b682 16bf efba 75be 29ac d23d
00000080: 3b11 f8be ea65 c9be 907e 58be 2b80 6f3e
00000090: 8087 00be 32b2 c0bd c445 1ac0 0ff8 323e
000000a0: 61e6 2a3e b959 693f 2396 923f 7c13 593f
000000b0: a20d e23e 6e07 e83e 62fb ce3d ed39 133b
000000c0: 0297 1ebf 307c 13bf 9b62 6ebe 10a7 d0bf
000000d0: 3fa9 9fbe 5276 b0be 67c1 c5be cce2 0ebe
000000e0: 8158 5b3b 7c59 93ba 92fb 90be 138e aebe
000000f0: 482c 66be 6486 033e e69f ecbe 56b4 e6be
00000100: 73eb cbbe f2aa ba3d 2767 b4be 39f2 2ebe
00000110: 0f06 12bf f684 24bf 0014 2fbe c3c8 053e
00000120: 8ba9 783e 1562 97bd 7f17 013e 582c ae3c
00000130: b5cd 033e 3115 a53f
0.30056238 -0.003529652 -0.0651764 -0.35928997 -0.27922645 -0.16945755 0.16814828 0.13533002
0.16044705 0.55719537 0.5083466 0.36811885 -0.03928953 -1.1904198 -1.1966664 -0.72898495
-1.0042973 -1.0798979 -0.9717398 -1.1563846 -0.9875983 -1.1467954 -0.86866933 -1.050661
-1.1493634 -0.013003976 0.19523257 0.15096886 -0.103078835 -0.587932 -0.23997091 0.10286743
-0.48450646 -0.39335567 -0.2114203 0.23388736 -0.12551689 -0.09408988 -2.4105082 0.1747744
0.16689445 0.9115253 1.1452068 0.84795356 0.44151026 0.45318168 0.10106541 0.0022464946
-0.6194917 -0.5761137 -0.23279803 -1.6300983 -0.31183812 -0.3446527 -0.38624117 -0.13953704
0.00334695 -0.0011241878 -0.28316933 -0.3409277 -0.2247783 0.12844235 -0.46215743 -0.4505946
-0.3982807 0.091146365 -0.3523495 -0.17084588 -0.57040495 -0.6426538 -0.17097473 0.13064866
0.24283426 -0.073917545 0.1260662 0.02126138 0.1287144 1.2897092

linear1.bias f4 [6]
00000000: 7eaa 2b3e fb8f 933f b952 e9bd 7fd7 a0be
00000010: 4d5e ed3e 3820 4e3d
0.16764256 1.1528314 -0.11392731 -0.3141441 0.46361008 0.050323695

linear2.weight f4 [3, 6]
00000000: d2ec 1b3f 0fe9 bfbe 0087 4a3d 7d64 b9be
00000010: 5836 aa3e db83 4c3f 9fe6 1c3f 87ec a93f
00000020: daae 153f 65ed c0be 8a8a dd3e fcad 0e3f
00000030: 4a5f 393f 69fb 71be 2139 4a3e cd8f eabe
00000040: 6cd2 003d 0081 4d3f
0.60908234 -0.37482497 0.049445152 -0.3620948 0.33244586 0.79888695 0.612894 1.3275307
0.5846993 -0.37681118 0.4326976 0.5573423 0.72411025 -0.23631062 0.19748355 -0.45812836
0.031450674 0.80274963

linear2.bias f4 [3]
00000000: 0494 86bc da40 4fbf a3e6 ecbc
-0.016428001 -0.8095833 -0.02891857
