from_youtube/model/model_13-20-4.pth (torch, 10947 bytes, 4 tensors)

linear1.weight f4 [128, 13]
-0.24824978 0.06579831 0.15978806 -0.1635634 -0.5172841 -0.08803513 -0.2190436 0.00838071
-0.0136729125 -0.07576293 -0.048073016 0.03942947 -0.29206502 0.081418924 -0.11447728 0.18591899
-0.13651784 0.15136829 -0.14485832 -0.3021109 -0.41167864 -0.10276918 -0.26043487 0.057341203
0.011576835 0.5294651 -0.3702851 -0.022570608 -0.07708165 -0.06461749 -0.43364006 -0.022265863
-0.06991051 0.12446889 -0.4156895 -0.012075596 -0.14193305 -0.009930973 -0.23373428 -0.13954811
0.03148067 -0.17338662 0.115888596 0.009836526 -0.2080335 -0.08363122 -0.049262315 -0.2182275
-0.1696831 -0.21241553 0.058913074 -0.90499514 -0.2201877 0.06829423 -0.17830247 -0.06736274
0.0043008137 -0.014561261 -0.42583805 -0.32178596 -0.4555514 -0.165787 -0.1848084 0.14732851
0.20208225 -0.44161326 0.03273888 -0.39578396 -0.29668427 0.027228013 -0.41553316 -0.1982625
-0.21550089 -0.06377807 -0.12471803 -0.38149935 -0.37359464 0.18183583 -0.21479863 0.16305469
-0.2780717 -0.09914594 -0.19439444 0.034531325 0.1955128 -0.22031637 -0.13854778 -0.16332324
-0.066023484 -0.33746362 -0.0034792898 0.06658825 -0.026096093 -0.2128097 -0.35433477 0.040966157
0.16450182 -0.33655527 -0.17686321 -0.14395939 -0.2044776 -0.38631868 -0.16457888 0.1895521
-0.28497216 -0.21415043 -0.15234195 -0.11656281 -0.20333669 0.15326473 -0.06514964 0.013697771
-0.0062424946 -0.057071086 -0.052001774 -0.25414097 -0.2586049 -0.35177794 -0.14154263 -0.33083203
0.1481284 0.04023222 0.07551305 -0.26921344 0.01696075 -0.10587493 -0.23183598 -0.35214072
-0.3127885 -0.047812838 -0.2981678 -0.0692563 -0.14877823 -0.2513516 -0.31719592 -0.04080388
-0.17685562 -0.3333063 0.16986729 0.0401475 -0.14152752 -0.2053724 0.10644953 -0.05239007
0.03974046 -0.34424597 0.08960181 0.044318102 -0.17844291 -0.026154682 -0.3672714 0.06996999
-0.43458807 -0.3628229 0.010038225 -0.17576005 -0.10413874 0.20736732 -0.14464884 0.11033639
0.1307949 -0.06565202 -0.3415196 -0.23491515 -0.33138484 -0.5145878 0.008684409 0.2866504
0.7851279 -0.32080138 0.09769354 -0.35988334 -0.122245386 -0.09831887 0.013935261 -0.02167997
-0.21890444 0.05896524 0.022418486 -0.08800997 -0.09245021 -0.014616421 -0.117730886 -0.36102825
-0.15475762 -0.25714755 0.17291176 -0.14629997 -0.22007993 0.03708604 -0.0046311263 -0.23999184
-0.3847718 0.14265987 0.15004031 -0.24587466 -0.2836847 -0.19531095 0.015201519 -0.1113203
-0.06167781 0.172211 -0.13265464 -0.25868917 -0.078344345 -0.12719958 -0.16004151 -0.0066344435
-0.019553581 -0.08708848 -0.014100454 0.046763074 -0.035771385 -0.15688336 -0.049810514 -0.043564107
-0.06472491 0.05375101 -0.03861823 -0.3859574 -0.6053919 -0.32721248 -0.21580282 -0.14908765
-0.25536302 -0.08674275 -0.393562 -0.30736867 -0.32164907 0.07529015 -0.37030476 -0.16998398
0.1430357 0.0741215 -0.0867842 0.048047516 0.002311437 -0.27379972 0.09546875 -0.48617363
-0.08328396 -0.12056382 0.027922694 0.047226004 0.041966256 -0.10413446 -0.2071312 0.033699833
-0.021936191 -0.18804874 -0.016335517 -0.15931092 -0.19966067 0.1944402 -0.22117862 -0.348564
00000000: 3135 7ebe 44c1 863d 7b9f 233e 2a7d 27be
00000010: bb6c 04bf c34b b4bd f74c 60be 3f4f 093c
00000020: 5a04 60bc 9829 9bbd 36e8 44bd cc80 213d
00000030: 8c89 95be f7be a63d 1073 eabd 8c61 3e3e
00000040: 55cb 0bbe 4a00 1b3e bd55 14be 48ae 9abe
00000050: 8bc7 d2be a678 d2bd b857 85be 9cde 6a3d
00000060: c4ac 3d3c 068b 073f 0296 bdbe ffe5 b8bc
00000070: fcdc 9dbd 2d56 84bd 1206 debe e666 b6bc
00000080: 3e2d 8fbd 8ce9 fe3d 41d5 d4be b8d8 45bc
00000090: e656 11be 85b5 22bc 0a58 6fbe b3e5 0ebe
000000a0: e0f1 003d 438c 31be 0057 ed3d 6129 213c
000000b0: bc06 55be d846 abbd 48c7 49bd 0877 5fbe
000000c0: 68c1 2dbe 7583 59be d64e 713d c3ad 67bf
000000d0: e278 61be d8dd 8b3d ec94 36be 7af5 89bd
000000e0: d7ed 8c3b 5b92 6ebc 7207 dabe 21c1 a4be
000000f0: 083e e9be 11c4 29be 6a3e 3dbe 49dd 163e
00000100: a6ee 4e3e 221b e2be 3419 063d 32a4 cabe
00000110: 00e7 97be 480d df3c c3c0 d4be 5305 4bbe
00000120: 44ac 5cbe 149e 82bd 2b6c ffbd e253 c3be
00000130: cc47 bfbe 2c33 3a3e 2cf4 5bbe cff7 263e
00000140: 6a5f 8ebe 070d cbbd 560f 47be b870 0d3d
00000150: 8234 483e 9d9a 61be 78df 0dbe 353e 27be
00000160: 5237 87bd 08c8 acbe cc04 64bb 6c5f 883d
00000170: 79c7 d5bc c9ea 59be 5e6b b5be 21cc 273d
00000180: 2a73 283e f950 acbe a11b 35be 176a 13be
00000190: 9362 51be 90cb c5be 5e87 28be f219 423e
000001a0: dfe7 91be 404a 5bbe 87ff 1bbe 7cb8 eebd
000001b0: 7e37 50be 6ef1 1c3e 2d6d 85bd 9e6c 603c
000001c0: d78d ccbb 5fc3 69bd d0ff 54bd c41e 82be
000001d0: dd67 84be 3d1c b4be 8df0 10be d162 a9be
000001e0: f9ae 173e 8aca 243d 96a6 9a3d 58d6 89be
000001f0: 45f1 8a3c f5d4 d8bd 6966 6dbe ca4b b4be
00000200: d025 a0be 65d7 43bd 73a9 98be 3fd6 8dbd
00000210: 5259 18be 28b1 80be 8167 a2be f821 27bd
00000220: a419 35be 20a7 aabe b1f1 2d3e b471 243d
00000230: 97ec 10be 244d 52be 3602 da3d f896 56bd
00000240: e5c6 223d 0241 b0be 2781 b73d e686 353d
00000250: bdb9 36be 5842 d6bc ff0a bcbe 6d4c 8f3d
00000260: 5482 debe ecc3 b9be 5e77 243c 71fa 33be
00000270: b146 d5bd 1958 543e d31e 14be 0cf8 e13d
00000280: 19ef 053e 9174 86bd a8db aebe 998d 70be
00000290: 46ab a9be 07bc 03bf 0d49 0e3c d7c3 923e
000002a0: 24fe 483f 1440 a4be 8d13 c83d a142 b8be
000002b0: ca5b fabd 675b c9bd b950 643c 319a b1bc
000002c0: 7c28 60be 8985 713d f9a6 b73c 923e b4bd
000002d0: 8956 bdbd b779 6fbc e41c f1bd b2d8 b8be
000002e0: c878 1ebe d8a8 83be c80f 313e a9cf 15be
000002f0: a25c 61be 88e7 173d b4c0 97bb 6cc0 75be
00000300: cf00 c5be 6e15 123e 2ba4 193e 91c6 7bbe
00000310: 1f3f 91be 98ff 47be cb0f 793c e6fb e3bd
00000320: dfa1 7cbd 1558 303e 9ed6 07be e872 84be
00000330: 0073 a0bd 9b40 02be ece1 23be bf65 d9bb
00000340: d52e a0bc 725b b2bd 9705 67bc a38a 3f3d
00000350: 0485 12bd 08a6 20be 1c06 4cbd 4770 32bd
00000360: 7e8e 84bd 052a 5c3d 262e 1ebd 359c c5be
00000370: f7fa 1abf 6588 a7be 6afb 5cbe 6faa 18be
00000380: f1be 82be 2fa6 b1bd f580 c9be 6d5f 9dbe
00000390: 30af a4be b931 9a3d 9698 bdbe 4810 2ebe
000003a0: f377 123e 03cd 973d eabb b1bd 79cd 443d
000003b0: 7a7b 173b 7a2f 8cbe 1f85 c33d c0eb f8be
000003c0: c890 aabd 2aea f6bd 22be e43c 0e70 413d
000003d0: cfe4 2b3d 7344 d5bd 341a 54be d608 0a3d
000003e0: 87b3 b3bc d98f 40be 10d2 85bc 6722 23be
000003f0: d973 4cbe 551b 473e a67c 62be fb76 b2be

linear1.bias f4 [128]
-0.041853394 -0.17851777 -0.26828995 -0.060892582 -0.257105 -0.07735648 0.13386674 -0.12903081
-0.13781922 -0.07717042 -0.13069257 -0.20426483 0.011058599 -0.25782108 -0.097018115 -0.22607058
-0.39064845 0.026766283 -0.31952992 -0.3907212 -0.26212662 -0.09770287 -0.43540227 0.28846535
-0.13532485 0.019889094 -0.45621184 -0.1095401 -0.17458661 -0.1988712 -0.515096 0.079015836
-0.1268326 -0.38345218 0.23637417 -0.2861191 0.0425873 -0.31974748 -0.31132007 -0.04045883
-0.43374017 -0.30231684 -0.041176524 0.15675835 0.12686439 -0.30153063 -0.009520697 -0.34532714
-0.20900206 -0.2714322 -0.50245184 -0.28735462 -0.3752189 0.44143122 -0.19713856 -0.23670028
-0.3877065 -0.052002605 0.09032662 -0.023562163 -0.3270219 0.11562782 -0.04060092 -0.049004845
0.1286918 0.019440547 -0.25289616 -0.13590331 -0.3893883 0.25867814 -0.14240426 -0.12974928
-0.033457946 0.10545848 0.30114713 0.086680666 -0.11038989 0.11428457 0.13178214 0.10867067
0.08696653 -0.100436546 0.015548816 -0.04531766 -0.24575008 -0.4189507 0.073745534 -0.004302324
-0.08819991 -0.18746224 -0.26388156 -0.11701042 0.030177375 0.04724381 0.15818089 0.10527633
0.028170755 -0.19610815 -0.13678819 0.045599952 0.08596314 0.08615804 -0.19864078 -0.063638695
-0.20580044 -0.19641885 -0.32017618 0.24816799 -0.29063484 0.010519649 -0.29189578 0.039322346
0.010796584 -0.3374207 0.6762887 0.068417266 -0.26607868 -0.034567498 -0.305259 -0.18510315
-0.05033672 -0.082895316 -0.16053225 -0.18457994 -0.22970621 -0.19784439 -0.118317924 -0.15150617
00000000: 776e 2bbd 5dcd 36be 4d5d 89be 806a 79bd
00000010: 44a3 83be 136d 9ebd 5d14 093e a720 04be
00000020: 7b20 0dbe 860b 9ebd 46d4 05be cd2a 51be
00000030: 202f 353c 2001 84be 6fb1 c6bd 0c7f 67be
00000040: 1303 c8be f744 db3c 6d99 a3be 9c0c c8be
00000050: 7635 86be 7118 c8bd 0ced debe bbb1 933e
00000060: 9992 0abe 74ee a23c 9994 e9be 8f56 e0bd
00000070: d5c6 32be e4a4 4bbe 55dd 03bf 0ed3 a13d
00000080: 68e0 01be d853 c4be 120c 723e 347e 92be
00000090: 0570 2e3d f1b5 a3be 5865 9fbe 28b8 25bd
000000a0: 3113 debe 46c9 9abe b7a8 28bd 4385 203e
000000b0: bde8 013e 3962 9abe b3fc 1bbc b8ce b0be
000000c0: a304 56be 29f9 8abe afa0 00bf 2520 93be
000000d0: b11c c0be 4603 e23e b1de 49be 8f61 72be
000000e0: 7781 c6be af00 55bd 2afd b83d 7005 c1bc
000000f0: 6a6f a7be 47ce ec3d 264d 26bd 4eb9 48bd
00000100: c9c7 033e c841 9f3c 9b7b 81be 3d2a 0bbe
00000110: e75d c7be 7671 843e 6cd2 11be ffdc 04be
00000120: 330b 09bd 9efa d73d f52f 9a3e a285 b13d
00000130: 1814 e2bd 070e ea3d e6f1 063e ba8e de3d
00000140: 821b b23d adb1 cdbd 76c0 7e3c 039f 39bd
00000150: e9a5 7bbe b580 d6be e607 973d 82fa 8cbb
00000160: 28a2 b4bd 1af6 3fbe 7c1b 87be 29a3 efbd
00000170: 8b36 f73c ba82 413d 2cfa 213e 1e9b d73d
00000180: 5bc6 e63c 93d0 48be 3412 0cbe 04c7 3a3d
00000190: 710d b03d a073 b03d 7d68 4bbe 0155 82bd
000001a0: 5abd 52be 0622 49be 22ee a3be c01f 7e3e
000001b0: 17ce 94be 9b5a 2c3c 5d73 95be 7810 213d
000001c0: 28e4 303c 68c2 acbe 4221 2d3f 5a1e 8c3d
000001d0: 773b 88be a696 0dbd e84a 9cbe ae8b 3dbe
000001e0: e02d 4ebd 05c5 a9bd 9162 24be 8602 3dbe
000001f0: 1b38 6bbe b897 4abe ab50 f2bd 6f24 1bbe

linear2.weight f4 [4, 128]
-0.056070827 0.12734166 -0.033014644 0.13816766 -0.06812681 0.062668905 0.08872816 -0.05661073
-0.009845912 -0.016582023 0.04632236 0.026250096 -0.18744114 -0.035912372 0.00067647436 -0.030516721
0.017922109 -0.04607913 0.01579095 -0.06802869 -0.02939104 0.06396424 0.0024899887 0.004830798
-0.3033626 0.0063516246 -0.0060323635 -0.0012147324 -0.0385164 0.26136926 0.03493567 -0.06742995
0.013057931 0.04121493 -0.007044156 0.024264455 0.37453553 -0.14175698 0.16066898 -0.08776523
-0.0058838925 -0.037560996 -0.025459884 -0.03463968 0.07135517 0.049550775 0.016330225 0.006700048
-0.04587716 0.07628859 0.25369644 0.027924266 -0.10815234 -0.060920946 -0.021880241 -0.021626504
-0.02322013 0.6068267 0.029431906 -0.02665159 0.3096407 -0.011478278 0.01468164 0.0037194332
-0.044042453 0.0117751695 0.02385273 -0.06400538 0.013352176 -0.33850536 0.011133714 0.034384854
-0.025230268 -0.039314575 0.017385537 -0.029222708 -0.02840359 0.008694608 -0.0088882325 -0.043635923
-0.002221703 -0.020142153 0.021785082 0.035260633 0.024826065 -0.0028920504 0.018501554 0.11604648
0.10008155 0.06330594 0.2197775 0.024894482 0.021819366 -0.009676516 -0.07752181 0.0022603946
0.10425319 0.19783396 -0.025385128 -0.032225497 0.0052218367 -0.0259097 -0.06791897 -0.034558542
-0.07448467 -0.07697609 0.02224077 0.028778216 -0.07644227 -0.020888586 0.04835306 -0.0028355706
0.040460486 -0.16774605 -0.19466044 -0.035844766 -0.016996833 0.0332587 0.051060345 -0.054442614
-0.04392505 -0.02251428 0.10540897 0.11350571 -0.053644642 -0.008497243 -0.17182487 0.002024396
-0.015462762 0.104915366 -0.011329526 0.10907681 -0.013120116 0.064951204 0.024389673 -0.015314478
-0.017450543 0.08774442 -0.029603874 0.053999513 0.057243764 0.0025220101 0.021055592 0.051600177
0.0071608066 -0.08071785 -0.08626492 -0.014773768 0.013572687 0.012613 -0.0018725587 -0.08319478
-0.01156699 -0.014970733 -0.043007288 0.02812002 0.08565843 -0.07923069 -0.0073756212 0.006012334
-0.010075398 0.0101635065 0.08585337 0.0020414058 0.05489045 -0.060333584 -0.001349354 -0.016069032
-0.027561994 0.008802322 -0.0020563905 -0.048847653 0.0410956 0.021773351 -0.0016921926 0.066258594
0.025112499 0.042782154 0.040763322 -0.007392254 -0.0035143825 -0.008288436 -0.024434846 -0.020178039
-0.00393393 0.16302603 0.022003593 -0.02460878 0.19226386 -0.00022022148 0.016580751 -0.02381045
0.015618031 0.022226037 -0.017272303 -0.007471941 -0.08809855 -0.25963217 -0.046369217 -0.0056020883
0.022456108 0.020670736 -0.0805946 0.0023413128 0.006808704 0.069159806 0.005670761 0.047792006
-0.017132888 0.04480673 -0.015544771 0.08564456 -0.024632115 0.02801958 0.01857992 0.011877857
-0.07952322 -0.0046325186 0.059747823 -0.008157572 -0.073527135 -0.02815997 -0.010550345 0.02680414
0.10938649 -0.031680416 -0.032524344 0.021399051 -0.00637346 -0.11818796 -0.11071445 0.025663638
-0.021479765 -0.05212896 -0.049721763 -0.02423369 0.06699912 0.0047016097 0.015420611 -0.01968726
-0.004015628 0.0035000525 -0.14549033 0.0056143366 0.016449759 0.0033898463 0.053864997 0.016347906
0.00018359817 -0.05505266 0.099219635 0.08913361 -0.05155215 0.011969562 -0.09214379 -0.025112582
00000000: 86aa 65bd da65 023e 5d3a 07bd d37b 0d3e
00000010: 1286 8bbd 8e58 803d 1cb7 b53d a7e0 67bd
00000020: c050 21bc 06d7 87bc 84bc 3d3d 710a d73c
00000030: 92f0 3fbe da18 13bd 6d55 313a 34fe f9bc
00000040: 63d1 923c 78bd 3cbd 065c 813c a052 8bbd
00000050: 7ac5 f0bc afff 823d 142f 233b ac4b 9e3b
00000060: 5852 9bbe 4a21 d03b 22ab c5bb a837 9fba
00000070: 5fc3 1dbd 31d2 853e b518 0f3d b718 8abd
00000080: eff0 553c fdd0 283d aad2 e6bb 40c6 c63c
00000090: 1fc3 bf3e be28 11be 6986 243e 42be b3bd
000000a0: abcd c0bb 8fd9 19bd 3f91 d0bc 56e2 0dbd
000000b0: a922 923d c1f5 4a3d f7c6 853c 148c db3b
000000c0: b0e9 3bbd 313d 9c3d 80e4 813e 6ec1 e43c
000000d0: f97e ddbd 3e88 79bd 313e b3bc 112a b1bc
000000e0: 2438 bebc ff58 1b3f 2e1b f13c 6f54 dabc
000000f0: 3a89 9e3e 630f 3cbc 438b 703c bcc1 733b
00000100: dc65 34bd a4ec 403c cd66 c33c 4115 83bd
00000110: 16c3 5a3c 9350 adbe 2e6a 363c 22d7 0c3d
00000120: b5af cebc 5208 21bd 1d6c 8e3c 7664 efbc
00000130: a5ae e8bc d473 0e3c f39f 11bc 95bb 32bd
00000140: fe99 11bb 2801 a5bc a176 b23c 746d 103d
00000150: 0860 cb3c 8e88 3dbb 9290 973c c7a9 ed3d
00000160: 8ef7 cc3d 8ba6 813d 5a0d 613e 83ef cb3c
00000170: 87be b23c 408a 1ebc c1c3 9ebd 2123 143b
00000180: b282 d53d fc94 4a3e 79f4 cfbc e2fe 03bd
00000190: f11b ab3b 9440 d4bc 1a19 8bbd 428d 0dbd
000001a0: 6b8b 98bd a4a5 9dbd 4632 b63c 4bc0 eb3c
000001b0: c48d 9cbd 8a1e abbc dc0d 463d fbd4 39bb
000001c0: e5b9 253d 9fc5 2bbe 1155 47be f6d1 12bd
000001d0: f13c 8bbc 463a 083d a724 513d 38ff 5ebd
000001e0: c1ea 33bd de6f b8bc a8e0 d73d af75 e83d
000001f0: 7cba 5bbd 0538 0bbc dcf2 2fbe bbab 043b
00000200: 8657 7dbc dedd d63d 7a9f 39bc aa63 df3d
00000210: c1f5 56bc 2305 853d dacc c73c 94e9 7abc
00000220: 71f4 8ebc 59b3 b33d d383 f2bc 982e 5d3d
00000230: 7078 6a3d 4f48 253b c77c ac3c b55a 533d
00000240: 33a5 ea3b 664f a5bd aaab b0bd ad0d 72bc
00000250: fa5f 5e3c c2a6 4e3c a570 f5ba 0662 aabd
00000260: 7983 3dbc ce47 75bc 6928 30bd f55b e63c
00000270: b06d af3d b343 a2bd 32af f1bb 1d03 c53b
00000280: 4813 25bc d684 263c e4d3 af3d 1bc9 053b
00000290: cfd4 603d 5920 77bd cfdc b0ba 34a3 83bc
000002a0: b1c9 e1bc 9d37 103c 82c4 06bb 7a14 48bd
000002b0: dc53 283d 075e b23c 90cc ddba 96b2 873d
000002c0: bab8 cd3c 573c 2f3d 71f7 263d b93a f2bb
000002d0: 8e51 66bb 38cc 07bc 962b c8bc 6a4c a5bc
000002e0: 32e8 80bb 4cf0 263e e140 b43c 5a98 c9bc
000002f0: d1e0 443e 41eb 66b9 5bd4 873c 220e c3bc
00000300: c5e2 7f3c 6113 b63c a57e 8dbc 2fd7 f4bb
00000310: 036d b4bd 82ee 84be a6ed 3dbd b991 b7bb
00000320: dff5 b73c ad55 a93c c80e a5bd b670 193b
00000330: 8d1b df3b a8a3 8d3d cbd1 b93b 8dc1 433d
00000340: 455a 8cbc 4387 373d 7faf 7ebc 6a66 af3d
00000350: 4ac9 c9bc 5189 e53c eb34 983c 589b 423c
00000360: 12dd a2bd 62cc 97bb 22ba 743d 56a7 05bc
00000370: 6595 96bd bdaf e6bc 5bdb 2cbc 5b94 db3c
00000380: 0606 e03d 53c3 01bd 3f38 05bd 104d af3c
00000390: 75d8 d0bb 870c f2bd 42be e2bd 8d3c d23c
000003a0: 55f6 afbc 2d85 55bd 0ca9 4bbd bb85 c6bc
000003b0: d636 893d f60f 9a3b bba6 7c3c 2d47 a1bc
000003c0: 8795 83bb 2361 653b 6bfb 14be 78f8 b73b
000003d0: a5c1 863c 2f28 5e3b 8ba1 5c3d 0bec 853c
000003e0: 4284 4039 e67e 61bd aa33 cb3d af8b b63d
000003f0: 5928 53bd fb1b 443c e2b5 bcbd e7b8 cdbc

linear2.bias f4 [4]
-0.14958465 -0.34732082 -0.6502552 -0.06416342
00000000: b82c 19be 09d4 b1be 2077 26bf 1c68 83bd
